models/9/model-Bakery.pth (torch, 46090 bytes, 69 tensors)

rnn.weight_ih_l0 f4 [10, 6]
000000 f9 5a 17 be 71 45 2c bc 33 f4 3b 3e 86 f9 7b 3d
       -0.14780797 -0.010514603 0.18354873 0.06151726
000010 37 9c 79 be 46 26 36 be b7 0f e5 3d 83 20 99 be
       -0.24375997 -0.17788038 0.11184638 -0.29907617
000020 49 c4 08 3e 76 1f 15 be 06 f4 10 3d 31 7d 99 be
       0.13356127 -0.14562783 0.03538897 -0.29978326
000030 0c b3 68 3e 90 1c 8b bd 05 55 1d 3e 28 60 67 be
       0.22724551 -0.06792557 0.15364464 -0.22595274
000040 13 17 11 3e 2a 1a 37 3e 58 71 44 3e fb 23 1c 3d
       0.14168958 0.17881075 0.19183862 0.03812025
000050 d3 4f 59 be 58 cd 8b 3e 29 34 ae 3d f9 94 8c be
       -0.21221857 0.27305102 0.085060425 -0.27457407
000060 53 b8 7d 3e 74 8d 41 3e 53 f3 42 be 41 42 9b bd
       0.24777345 0.18901616 -0.19038133 -0.07580996
000070 9a 9d 40 3e 57 c9 95 3e bd 4d 1a 3e 45 25 25 be
       0.1881012 0.29255173 0.15068717 -0.16127498
000080 91 5a fc bd 82 4d 26 3d 97 11 51 bd 1b c0 22 be
       -0.12321962 0.04060126 -0.051042166 -0.15893595
000090 c8 d7 71 bd 3e 19 98 3d d5 8b 8f be 55 29 77 be
       -0.059043676 0.074266896 -0.2803637 -0.2413686
0000a0 2f 53 3f be e6 b6 f8 bd 37 08 84 3c 01 3c 07 3e
       -0.18684076 -0.1214426 0.016117198 0.13206483
0000b0 9e 34 3f be 64 c0 05 bd 6b 25 74 3e 08 ea fc 3b
       -0.18672416 -0.03265418 0.23842399 0.0077183284
0000c0 72 97 70 bd 46 71 84 be 17 e9 8c bd 29 61 7e be
       -0.05873818 -0.2586767 -0.06880396 -0.24841751
0000d0 41 a8 8e be 58 7d 34 be 35 2d 3f 3e 4a de 23 3e
       -0.27862743 -0.1762594 0.18669589 0.16002765
0000e0 01 d9 78 3e f7 9a 4a 3d 42 6b 8e 3e 6f 92 87 bd
       0.2430153 0.049464192 0.27816206 -0.06619727

rnn.weight_hh_l0 f4 [10, 10]
000000 50 cc 09 3d 45 d1 2f be 66 37 c1 bc 72 9f 79 3e
       0.033642113 -0.17169674 -0.023585986 0.2437723
000010 fb 11 5a be 20 8b ff 3d 9c 5e e1 bd 10 f5 8d be
       -0.21295922 0.12477708 -0.110043734 -0.2772603
000020 09 5d 37 be 5e 2a 5d 3e 67 c4 71 3e 06 29 8b 3e
       -0.17906584 0.21598193 0.23610078 0.27179736
000030 68 8e 35 bd fa 34 44 3e e8 c7 16 3e a7 3a 93 3e
       -0.044325262 0.19160834 0.14724696 0.28755686
000040 bb 29 31 3e a7 fc 47 be a8 dc 51 3e 3d 68 04 3e
       0.17301075 -0.19529973 0.2049433 0.12930389
000050 15 54 83 3e 61 76 e0 3c df 22 8f bd 9c 5b 8d be
       0.25650087 0.027400197 -0.06989073 -0.27608955
000060 df e6 95 ba c3 53 2e 3e 08 fc c1 3d bc 73 6a 3e
       -0.0011436603 0.1702414 0.09471899 0.22895712
000070 28 19 67 bd 50 df 6c 3e 69 a9 11 be 3c 8f 58 3d
       -0.056420475 0.23132062 -0.14224781 0.052870974
000080 f5 5b 9d 3d e7 22 14 3d c6 23 6e be 06 5a c7 3c
       0.07683555 0.036166098 -0.23255834 0.024334919
000090 0b 8a 7b be ed 82 61 be 32 8a 16 3e a2 3f 78 be
       -0.24564378 -0.220226 0.14701155 -0.24243024
0000a0 80 3c c8 3d 2a 02 83 be c3 80 41 bc 3d 3a 4b be
       0.097771645 -0.2558759 -0.011810484 -0.19846435
0000b0 64 67 13 be f7 ea 96 3e 21 20 20 3c 05 be 82 3e
       -0.14394909 0.2947614 0.009773285 0.25535598
0000c0 60 37 5a bc a3 34 38 3e 11 ca 51 3d b2 b8 7b bd
       -0.0133188665 0.1798883 0.051218096 -0.061455436
0000d0 c6 8e 93 3e 90 da 63 be fe 88 f9 bd c3 70 27 be
       0.28819865 -0.22251344 -0.12184332 -0.16351609
0000e0 a6 fc 86 3e 9d 59 d8 bd 7e 96 24 be 01 2d a1 bc
       0.2636463 -0.105639674 -0.16073033 -0.01967478
0000f0 5b a3 6f be 84 05 43 3e 40 c2 07 3e 1c 7a 98 3e
       -0.23402159 0.19045073 0.13257694 0.29780662
000100 01 4f 3a 3e c4 c1 61 3e ba ea 4c 3e 4f f2 94 3d
       0.181942 0.22046572 0.20011416 0.07272779
000110 79 ff 34 be 25 21 97 bd 09 71 aa bb 7d ae 8c be
       -0.1767558 -0.07379369 -0.005201463 -0.27476874
000120 3d e7 ff bd 67 5d 02 be ef 36 0e be 61 19 31 3e
       -0.12495277 -0.12730943 -0.13888143 0.17294838
000130 ed 78 6f be 6d c9 a0 be 73 21 6c bd 9e 37 90 3e
       -0.23385973 -0.31403676 -0.057649087 0.28167433
000140 39 15 20 bc a3 ba 1e bb 87 0d 82 bd ed 90 6c 3e
       -0.009770685 -0.002422013 -0.063502364 0.2310216
000150 34 4d 6d 3e 57 60 99 3e ce da 4d bd 6b 41 a7 3d
       0.23173982 0.29956314 -0.050257497 0.08166774
000160 36 ef 83 3e 5a 85 b8 bd 42 af 98 be 57 ca 60 be
       0.2576844 -0.0900981 -0.2982121 -0.21952187
000170 06 0b 3d 3e ad b7 9f be a0 8c 97 3e e2 0f 03 bd
       0.18461236 -0.3119482 0.29599476 -0.03199757
000180 9e 7d 7c be 86 b5 31 be d2 19 5e 3e 5c 8f d9 bd
       -0.24657294 -0.17354402 0.21689537 -0.10623047

rnn.bias_ih_l0 f4 [10]
000000 f5 95 89 be a2 58 2e 3e 98 5c 8c be 19 16 be 3d
       -0.2687222 0.17025998 -0.27414393 0.092815585
000010 15 e4 c5 3d 48 ab e5 bd 20 00 95 3d 83 4d 0a be
       0.09662644 -0.1121431 0.072754145 -0.13506131
000020 d4 79 46 be 01 95 55 3e
       -0.19382411 0.20857622

rnn.bias_hh_l0 f4 [10]
000000 80 ef 74 3e bf 1d 9f be fe d1 44 3c e2 89 22 bd
       0.23919487 -0.31077382 0.012012957 -0.039682277
000010 23 0f 3c be 82 77 1d be ec 35 a2 3c 2d 1f 81 bb
       -0.18365149 -0.1537762 0.019801103 -0.003940484
000020 5b e4 8c 3e dd 1a 28 3e
       0.2751797 0.16416498

rnn.weight_ih_l1 f4 [10, 10]
000000 cf c2 20 3e 7f 49 ae be 0b 0e 39 be 4b 52 81 be
       0.15699314 -0.34040448 -0.18071763 -0.25258097
000010 dd 2f 47 be 9b ed f9 bd 24 0b 69 3d d7 ea b0 bd
       -0.19451852 -0.12203523 0.05689539 -0.08638542
000020 3d 55 34 3e b5 40 f1 bc de a5 48 bc 7b d3 8d be
       0.17610641 -0.0294498 -0.012246577 -0.2770041
000030 c0 45 45 bd 6a fd 00 3e 98 f7 e2 bd 84 9a 17 3e
       -0.048162222 0.1259667 -0.11082381 0.14805037
000040 c9 1a 91 be 70 cd f4 bd 7a 3a 8e bd fb 1d 9e bd
       -0.28340748 -0.119532466 -0.06944747 -0.07720562
000050 9c 51 be be 34 1b 48 3e 06 cb 1c 3e 2c ff 41 be
       -0.37171638 0.19541627 0.15311822 -0.18944997
000060 ea 7b 41 be 7b a8 4b be 24 d0 cf be 60 e7 34 3e
       -0.18894926 -0.19888489 -0.40588486 0.17666388
000070 57 be d1 bd c0 66 c0 3e a3 ee e0 3c 49 fa 48 3e
       -0.102413826 0.37578392 0.02745754 0.19626726
000080 a5 2c 0c 3e 12 64 8a be 5f 31 0f 3e 4d 26 4c 3e
       0.13688906 -0.27029473 0.13983677 0.19936486
000090 4f c5 c4 bd 91 3f 2a 3e 0f 8f 3d 3d fc 28 70 3d
       -0.09607946 0.16625811 0.04627901 0.058632836
0000a0 78 aa 78 3d 47 d7 3a be 8a 52 ea 3c f7 fe 81 be
       0.060709447 -0.18246184 0.02860381 -0.25389835
0000b0 dc 08 1c 3d 0d 54 54 be 62 32 d6 bd 81 a6 19 be
       0.038094386 -0.20735188 -0.104588285 -0.15004922
0000c0 46 08 87 be d6 e0 96 be 10 0b 7d bd 9c e8 74 3e
       -0.263735 -0.2946841 -0.06177813 0.23916858
0000d0 5d 7f 04 3e a2 18 9c be 5e 52 0b 3d 7a 71 ad be
       0.1293921 -0.30487543 0.0340141 -0.33875638
0000e0 0c 09 86 be 97 2c 61 3c 87 97 34 3e 22 14 9b be
       -0.26178777 0.013743541 0.17635928 -0.30288798
0000f0 13 15 99 be 8a 81 a9 3e 1d 0e 43 3e 4f b3 84 3e
       -0.2989889 0.33106643 0.19048353 0.25918052
000100 4c 88 c6 bd 0e 5b f8 3c 7f b2 17 be f1 8e 7e bd
       -0.09693965 0.030316856 -0.14814185 -0.06214804
000110 4d 24 12 3e f2 b7 08 3e 7e 9f 36 3e ff 93 4b bd
       0.1427166 0.1335142 0.17834279 -0.049701687
000120 4b 9d 15 3d c6 cb 4d be 47 0f 9c be eb 0d 90 be
       0.03652696 -0.20097265 -0.30480406 -0.2813562
000130 78 b7 7f be d6 99 72 3e 88 5b 8c be 38 29 91 be
       -0.24972332 0.23691496 -0.27413583 -0.2835176
000140 e4 23 29 3d 07 36 ae be 67 b5 ae be 42 08 63 bd
       0.041293994 -0.34025595 -0.34122774 -0.055427797
000150 c7 4c d1 be 95 25 ce be 83 d5 9f 3e 3b a2 b9 be
       -0.4087889 -0.40263048 0.31217584 -0.36256585
000160 b5 a4 79 3e 11 92 8b be 18 d8 14 3d d7 42 5a 3e
       0.24379237 -0.27259877 0.036338896 0.2131456
000170 9f 37 9c be 0f f9 95 be 09 0d 93 be fd d6 28 be
       -0.30511186 -0.2929158 -0.28720883 -0.16488262
000180 52 73 b5 3e 39 03 b2 be 65 8a 2a be 41 04 1a be
       0.35439545 -0.34768084 -0.16654356 -0.15040685

rnn.weight_hh_l1 f4 [10, 10]
000000 e2 68 f4 bd 20 3d 67 3e f2 8f 7a be 0a af 25 be
       -0.11934067 0.22581911 -0.24468973 -0.16180053
000010 b0 62 22 3d 12 19 96 be da 4b 5e be b8 a0 aa 3d
       0.039644897 -0.29316002 -0.21708623 0.08331436
000020 2d 67 06 3f e9 e5 98 be 6b fc e9 bc a7 eb e1 3c
       0.52501184 -0.29862908 -0.028562745 0.027578188
000030 78 72 5f be 66 31 67 3e 78 18 c5 bd 6c 65 4b 3d
       -0.2182101 0.22577438 -0.09623808 0.04965727
000040 99 28 10 be 68 36 cf 3e 21 31 7a 3e 06 70 90 bd
       -0.14077987 0.40471196 0.24432804 -0.07052617
000050 97 b4 03 bd 36 db 4e be 00 ea 0c 3e ae 58 9c be
       -0.032154646 -0.2020081 0.13761139 -0.30536407
000060 f3 36 8d 3c 14 41 4f bd c5 24 27 3e 30 57 1e bf
       0.017238116 -0.050599173 0.1632262 -0.6185179
000070 ee 21 55 be 20 8e 8a bd 05 ca 0c be 00 dd 8a 3e
       -0.20813724 -0.067653894 -0.1374894 0.27121735
000080 00 0d 8b bd 07 70 82 bd de 95 81 3e ed 36 0a be
       -0.06789589 -0.06369024 0.25309652 -0.13497515
000090 91 a1 18 3e eb ae 06 bd 18 51 6d be 45 f9 65 be
       0.14905383 -0.03288166 -0.23175466 -0.2245837
0000a0 41 12 98 be a4 38 45 3b 7e 15 bb bd a8 f0 5c 3e
       -0.29701427 0.0030093575 -0.09134959 0.21576178
0000b0 6f 3c 0c bd b3 b5 9a bd 07 74 9f 3e 49 3b bf bc
       -0.03423732 -0.075541876 0.3114321 -0.023343699
0000c0 31 95 1a 3e 9e 8e c6 be d5 a5 49 3e c4 18 08 be
       0.15095975 -0.38780683 0.19692166 -0.13290697
0000d0 12 64 13 3e 87 4b 20 bd 49 3e 8f bd d4 ea 66 bd
       0.14393643 -0.03913453 -0.06994302 -0.056376293
0000e0 26 6c 3c be 61 05 69 be 50 42 c6 3d 33 8e 1a 3e
       -0.1840063 -0.22755958 0.09680617 0.15093307
0000f0 c1 f4 bc 3e 2f 4e c0 3c 9b 08 cd bd df 7f 85 3e
       0.36905482 0.02347478 -0.10011407 0.2607412
000100 4f c8 01 3c 45 43 75 be 2b 50 9f bd 06 54 62 3e
       0.007921292 -0.23951443 -0.07778963 0.22102365
000110 7d f5 96 bc 5a 10 a7 be 38 71 8a be a1 3e a2 3e
       -0.018427605 -0.32629663 -0.27039504 0.31688407
000120 05 5f 99 be 2a d2 ae 3e 2e 1b a1 3e 6a a4 bb be
       -0.29955307 0.34144717 0.3146605 -0.36648875
000130 61 fe ad 3e 29 4b d2 bd 8f 3c 8b be e8 cc 60 3d
       0.33983138 -0.10268242 -0.2719464 0.054882914
000140 b8 53 db 3c 29 31 61 be 10 6d 71 3c af 44 ad 3e
       0.026773319 -0.2199141 0.014735475 0.33841464
000150 47 6a c5 3e e9 08 c8 be ab d5 22 3e 30 3a 24 3e
       0.38557646 -0.39069298 0.1590182 0.16037822
000160 65 5f 58 3e 53 8e 11 bd c3 a7 2b 3e 1e d4 9a be
       0.2113014 -0.03553612 0.16763215 -0.30239958
000170 94 a0 01 3e f2 a1 2c bd 99 d5 40 be bc fc 28 3e
       0.12658912 -0.04214663 -0.18831481 0.1650266
000180 f6 97 e7 be d8 c8 b2 be 8a 0c f8 bd a6 e3 ec 3d
       -0.45233124 -0.34918857 -0.12111767 0.11566858

rnn.bias_ih_l1 f4 [10]
000000 e1 00 f6 be 95 01 ad 3b 9f 21 d4 3e 35 e1 cd 3d
       -0.48047546 0.0052797296 0.414319 0.100527205
000010 e3 aa 90 be 23 b9 2e bd c6 83 7b 3e ad e5 86 be
       -0.28255376 -0.04265703 0.24561986 -0.26347104
000020 d8 7f cd be 6d 75 12 3e
       -0.401366 0.14302607

rnn.bias_hh_l1 f4 [10]
000000 88 5e a2 be 3c e6 40 3e 7c bd 25 be c6 22 36 be
       -0.31712747 0.18837827 -0.16185564 -0.17786703
000010 3a 20 84 be e9 7e af bd b6 7f e0 3c ea e3 0f 3e
       -0.25805837 -0.08569128 0.027404647 0.14051786
000020 bb 87 5c bd cd ae cc bd
       -0.05384038 -0.09994278

rnn.weight_ih_l2 f4 [10, 10]
000000 64 e1 9e 3b 57 70 4d be d8 8a d5 bd e9 87 84 3e
       0.004848646 -0.20062385 -0.10426873 0.2588494
000010 d8 82 43 be 3b 96 2c 3e 1e c4 9b bd 51 84 81 3e
       -0.19092882 0.16854183 -0.07605766 0.25296262
000020 c0 ca 98 3e e8 61 5c be a8 22 8d be d0 00 64 bd
       0.29842186 -0.21521723 -0.27565503 -0.055664837
000030 e7 e5 86 3e 76 0d 4d be 1a e2 b2 3d a5 21 16 3e
       0.26347277 -0.20024666 0.08734532 0.14661272
000040 f6 b6 45 be e9 07 a7 3e 99 e3 0a be d9 20 46 3e
       -0.19308075 0.32623222 -0.13563384 0.19348468
000050 41 8b 21 be fa f5 03 3e ef 1b 9b 3e 47 a7 a6 3e
       -0.15775777 0.12886801 0.3029475 0.32549497
000060 7d 83 89 bc 58 2e 26 be 4b 9d 14 3f df c2 90 bd
       -0.016786331 -0.16228616 0.5805251 -0.07068419
000070 99 8b 4e be fa 29 0c bf ed 4a b8 be 43 f1 e7 3b
       -0.2017044 -0.5475155 -0.35994664 0.007078321
000080 08 fb e9 3e a8 0a e1 3d 58 25 c0 be b8 d0 90 bd
       0.45699334 0.10988361 -0.3752849 -0.0707106
000090 69 cf 28 be 8a 57 87 bc bb e1 8c be 84 ed 3b be
       -0.1648537 -0.016521234 -0.2751597 -0.18352324
0000a0 ff 58 65 be be 9f 64 be ec fa ae 3e bf 7b 38 be
       -0.2239723 -0.22326562 0.34175813 -0.18015955
0000b0 10 3f f1 3d 85 20 4a bd 6c 44 d0 3e ed 3d 8a 3d
       0.11779606 -0.04934742 0.40677202 0.06750093
0000c0 d5 91 b6 be 86 eb f5 be 47 5a 3e be 6f 8d 41 3e
       -0.35658136 -0.48031253 -0.18589126 0.18901609
0000d0 71 2b 16 be 55 82 92 bd ca 40 82 bc fa a0 2a 3e
       -0.14665009 -0.07153765 -0.015900034 0.1666297
0000e0 c0 ff 52 bd a5 d6 bd be eb 85 2b be 22 99 98 3e
       -0.051513433 -0.37077823 -0.16750304 0.2980433
0000f0 ae 15 b2 3e da 89 26 3e 2b 74 73 be 11 1d 71 be
       0.34782165 0.16263524 -0.23774783 -0.23546244
000100 e3 08 4d 3c e0 58 f8 3e 15 37 1c 3e 42 a5 a6 bd
       0.012514326 0.48505306 0.15255387 -0.08136989
000110 6c fd 1f 3d 9b af 0f bd 88 bc b2 be 61 5a 3f 3e
       0.03906004 -0.03507958 -0.34909463 0.1868682
000120 04 07 86 3d 61 6b 2f be 14 d3 ac bb 42 1b fa bd
       0.06544307 -0.17130806 -0.005274186 -0.1221223
000130 cd 93 c0 3e e5 7c 76 3d e5 56 3a be 4b d1 3e be
       0.37612763 0.060177702 -0.1819721 -0.18634526
000140 2c 27 a0 3e a3 d3 f4 3d fb f9 a3 3c 3d b4 d5 bd
       0.31279886 0.11954429 0.02001666 -0.10434768
000150 dc 25 54 be f1 80 32 3d dd 46 b0 3c a7 c8 aa 3d
       -0.20717567 0.04358 0.021518165 0.08339053
000160 80 1d 7e 3e f6 bd 04 3f 6e 18 3b 3e 35 ae 41 bd
       0.24815941 0.5185236 0.18271038 -0.047285277
000170 37 24 25 be 08 db 25 be 8d 78 82 3e a1 c5 90 bd
       -0.16127096 -0.16196835 0.25482598 -0.07068945
000180 b4 37 39 bb ca ae 29 3e 67 31 46 3e e6 b2 9a 3e
       -0.0028261961 0.16570583 0.19354783 0.30214614

rnn.weight_hh_l2 f4 [10, 10]
000000 81 48 63 bc 23 6e 99 bd db d4 ad 3b c8 78 20 be
       -0.013872267 -0.0749171 0.0053049154 -0.15671074
000010 b6 fc 19 3e 53 00 9a be 4e 5b 68 3e 84 bf cc 3d
       0.15037808 -0.30078372 0.2269108 0.09997466
000020 cb 6f 6b be 6d 9a 1f 3d e1 27 ee bc f1 31 b0 be
       -0.22991864 0.03896563 -0.02907175 -0.34413102
000030 9e fd 67 be 29 64 81 3e 59 bf 91 be c4 08 81 bd
       -0.22655341 0.2527173 -0.284663 -0.063005
000040 64 06 d1 bd 73 d0 8e 3e 3c f1 81 3e f5 6d 92 3d
       -0.10206297 0.2789341 0.2537936 0.07149879
000050 3d 11 b1 3e ba fc e3 3b 46 53 b6 bd bd e7 1d 3e
       0.34583464 0.0069576176 -0.08902602 0.15420432
000060 c1 d1 eb 3e b2 54 1d be 0a 72 9e bd 79 18 ae 3e
       0.46058467 -0.1536434 -0.07736595 0.34003046
000070 8d 89 c9 be b4 9a 52 be b2 91 84 be 28 8b ce bd
       -0.39362755 -0.20566827 -0.25892407 -0.10085136
000080 29 6a a9 3d a5 33 b9 3e 8b bf 40 3e 2e e9 ad bd
       0.082722016 0.36172214 0.18823068 -0.08491741
000090 81 94 dd bc a4 fb 21 3a 31 97 3a bd 19 18 c1 3e
       -0.027048351 0.000617916 -0.045554344 0.37713698
0000a0 59 fc 3f 3c 21 6c 8b be 35 62 cb 3e be 11 c1 be
       0.011717879 -0.27230933 0.39723364 -0.3770885
0000b0 77 31 81 3e 73 c5 20 be fc 0e 03 3e 8b 59 b2 3e
       0.2523305 -0.15700321 0.12798685 0.3483394
0000c0 4a ac a0 be 1e a1 97 bd 92 62 65 3e ad bf 39 3d
       -0.31381446 -0.074037775 0.22400883 0.045348812
0000d0 66 86 dc be 21 36 c2 3e ad 72 90 be 12 a4 15 be
       -0.43071288 0.37931922 -0.2821249 -0.14613369
0000e0 32 dd 49 3e a9 9c 7b be 81 51 03 3e 97 1d 86 3e
       0.19713286 -0.2457148 0.1282406 0.2619445
0000f0 3d e0 71 3e 81 fd a1 be 9d 07 68 be aa f1 cc be
       0.23620696 -0.3163872 -0.22659154 -0.40028125
000100 0f bc b9 3d e9 8a 0b bd 51 2a c9 3e 3f 73 4c be
       0.090690725 -0.034068022 0.39290097 -0.19965838
000110 a1 3d ab bd 87 0e 76 be c5 27 56 be 07 99 05 be
       -0.08361364 -0.24028979 -0.20913608 -0.13046657
000120 b5 84 04 3f 99 38 56 bc 54 bc d1 3e 5f c9 da bd
       0.51764995 -0.013075017 0.40963995 -0.1068294
000130 6a 80 17 3e 9f 82 c8 3e a7 48 be bd 4e 45 91 be
       0.1479508 0.39162156 -0.09291201 -0.28373188
000140 28 5e 9f 3d 65 89 de bd a1 e0 b5 be 43 2f 10 3e
       0.07781631 -0.1086605 -0.3552294 0.14080529
000150 50 c2 4d be 64 13 a2 3e 8d a2 5b 3d 80 9b cd be
       -0.20093656 0.3165542 0.053621817 -0.401577
000160 aa e6 29 be 00 dd bf 3e 9c 24 b6 3d a5 6a a3 be
       -0.16591898 0.37473297 0.088937014 -0.319173
000170 0b cd af be 5f 7f 8c 3e 6d 0d 74 be b5 2d b1 3e
       -0.34336123 0.27440926 -0.23833247 0.34605184
000180 40 66 7e bb d7 1a 5c be be 2e 6a bc 56 fe cc 3e
       -0.003881827 -0.21494614 -0.014293371 0.40037793

rnn.bias_ih_l2 f4 [10]
000000 b3 69 fd bc 44 60 73 3e 05 3e ab 3e 88 b7 84 3e
       -0.03093419 0.23767191 0.33445755 0.25921273
000010 fd 89 03 3e 0c bb 44 3e 8f 39 af be 4d cb 48 be
       0.12845607 0.19211978 -0.342236 -0.19608803
000020 76 7f f0 3d d2 43 a8 3d
       0.11743061 0.08216061

rnn.bias_hh_l2 f4 [10]
000000 99 4b ab be 2b da 4c 3e 3d 2f 50 be d1 d3 81 3e
       -0.33456114 0.200051 -0.2033052 0.25356916
000010 73 99 e6 3d 58 a9 cc bd 24 1d 7e be 9f 90 55 bd
       0.11259737 -0.09993237 -0.24815804 -0.052139875
000020 d9 8c f7 3d 0e 2b e7 3d
       0.120874114 0.11287509

rnn.weight_ih_l3 f4 [10, 10]
000000 25 45 ac be 1e b0 ae 3e 3f ff ff be 9a a4 2c be
       -0.33646503 0.34118742 -0.49999425 -0.16859666
000010 46 53 29 bf 58 dc aa 3e a8 95 20 3e cf ce 0c bf
       -0.6614269 0.33371234 0.1568209 -0.55003065
000020 30 b9 14 3f 03 0e 07 3f 66 da 08 bd ba 51 84 3d
       0.58095074 0.52755755 -0.033411406 0.064609006
000030 10 4f e5 3e b3 02 6f be bb 15 1c 3e 43 15 90 be
       0.44786882 -0.23340873 0.15242665 -0.2814122
000040 a0 4d 76 be d5 fa bc 3d 1a ea 8a bd d5 b1 cf be
       -0.24053049 0.0922753 -0.067829326 -0.40565363
000050 77 7a 51 be 4c 7a 92 be 03 a9 dc 3e c8 50 63 be
       -0.20456873 -0.2860893 0.43097696 -0.22198784
000060 a0 ce b0 3e 16 24 66 3e 85 a2 30 3e 9f f7 c0 3d
       0.34532642 0.22474703 0.17249496 0.0942223
000070 9c b5 86 bd c4 e7 bd be 03 c8 ba bc d2 2b 97 bd
       -0.06577608 -0.37090886 -0.022800451 -0.07381405
000080 f0 f3 7c 3c 6a d6 2a 3e 8f 0e 36 be b7 32 28 bd
       0.015439019 0.16683355 -0.17778991 -0.04106399
000090 d1 57 bf 3d 0b b8 83 bd f4 56 45 3e de c3 aa 3e
       0.093429215 -0.06431588 0.19271451 0.3335256
0000a0 4d 69 bc 3d d4 33 76 be 42 2a 65 be a1 88 7c 3e
       0.09199772 -0.24043208 -0.22379401 0.24661495
0000b0 8f 36 f0 be 7a 5a c1 3e 25 7b 03 bf da b2 b8 be
       -0.46916625 0.3776434 -0.5135978 -0.36073953
0000c0 92 f2 ef bd 16 5c cc 3e 98 14 bd bd a3 7b e3 ba
       -0.117161885 0.39914006 -0.092324436 -0.0017355572
0000d0 a4 ef 8b bd 46 07 5e 3d d4 da 39 3e 36 29 27 3d
       -0.06832817 0.054206155 0.18149883 0.040810786
0000e0 61 11 8a 3e 3c 11 35 be 66 55 57 be 50 d2 35 be
       0.26966384 -0.17682356 -0.2102867 -0.17756009
0000f0 57 13 dc bd 0c f5 c7 bd d8 9f 12 3f 73 c6 36 3e
       -0.10745876 -0.09763536 0.5727515 0.1784914
000100 99 3f 6e 3d c5 b1 8f 3e d2 00 89 3d 46 71 1a 3e
       0.05816612 0.28065315 0.066896096 0.15082273
000110 b9 8b 1a 3e 72 30 21 be e8 84 38 be 2b 0b bb 3d
       0.15092362 -0.15741137 -0.1801945 0.091329895
000120 eb 8a b3 be e5 06 11 3f 26 6e e6 bd b1 b4 a4 3e
       -0.35066923 0.56651145 -0.11251478 0.32169107
000130 f9 52 c0 be 12 e9 9e bd b1 76 81 3e 06 28 23 be
       -0.37563303 -0.077592984 0.25285867 -0.15933236
000140 1c 67 5b 3d d3 1a 2f 3e 35 de 47 be 17 a8 59 3e
       0.05356513 0.17100076 -0.19518359 0.21255527
000150 26 51 c7 bc 98 96 46 be 6a d7 72 be 3e 87 c2 3c
       -0.024330687 -0.19393384 -0.23714986 0.02374613
000160 e4 47 1f 3e a8 7a a8 3e 0a 1f 8b be 24 60 72 3e
       0.15554768 0.3290608 -0.27172118 0.23669487
000170 bf bd 15 be 7b 0b c7 3e d1 01 92 bd 49 12 fe bc
       -0.14623164 0.38875946 -0.07129253 -0.031014578
000180 6e 5c e8 bd 10 56 ae be 7a a4 b7 3e 5f de 48 be
       -0.113457546 -0.34050035 0.35867673 -0.19616078

rnn.weight_hh_l3 f4 [10, 10]
000000 f5 ad fd bc 98 c2 40 3e ab 39 9e be aa 28 af 3e
       -0.030966738 0.18824232 -0.30903372 0.34210712
000010 f9 2a 8f 3e 48 cc 89 be b6 fb 98 be 34 b1 03 3e
       0.27962473 -0.26913667 -0.2987954 0.12860566
000020 f3 fa 95 3c 9f ea 51 be 83 1b 48 bd e7 64 22 3f
       0.018308138 -0.20499657 -0.048854362 0.63435215
000030 fb 69 9d 3d 6f ad ea be 15 cd 14 be 3c 9a b0 3e
       0.0768623 -0.45835444 -0.14531358 0.3449267
000040 97 60 35 3f ca b4 fd be 95 64 e2 be cd e7 9a be
       0.7085051 -0.49551994 -0.44217363 -0.30254975
000050 35 df e4 be 66 f0 f6 3e 89 9d ea 3e 80 7a f2 be
       -0.44701543 0.48230284 0.45823315 -0.47359085
000060 d8 34 16 bf 2e 66 10 3f ee 01 11 3c ce bf ea be
       -0.58674383 0.56405914 0.008850558 -0.4584946
000070 34 ae b6 bd d3 55 0c bf 04 36 98 3e 65 a3 0a bf
       -0.08919945 -0.5481846 0.2972871 -0.5415557
000080 b8 e8 68 be bc 5e 40 3f d7 41 03 3f d7 26 07 bf
       -0.22745025 0.75144553 0.5127234 -0.5279364
000090 f9 ac cc be 67 2a 5a be a5 6f cf 3e f5 f7 6b 3d
       -0.39975718 -0.21305238 0.40514866 0.057609517
0000a0 d8 6d 07 bd b5 29 de be 59 d9 d1 be c2 71 84 3e
       -0.03306374 -0.43391195 -0.40986136 0.2586804
0000b0 25 eb 19 bd da 92 82 be 2c 84 1b bf 38 7b c1 3e
       -0.037577767 -0.25502664 -0.60748553 0.3778932
0000c0 11 e5 ad 3e 6e a7 57 3e d1 c1 a0 3e c5 2d 7d 3e
       0.33963826 0.21059963 0.3139787 0.24724491
0000d0 14 8e b5 bd 81 08 ce be 36 8b b8 bd df c0 09 3f
       -0.0886499 -0.40240863 -0.090109274 0.5380992
0000e0 d4 38 f3 3e c4 c0 b2 be eb 15 42 bf 1f 74 a0 be
       0.47504294 -0.34912694 -0.75814694 -0.31338593
0000f0 9e 88 69 3e e6 d0 a9 bb 11 66 0f be c1 75 4c be
       0.22806022 -0.0051823733 -0.14003779 -0.19966795
000100 1d 85 fc bc 63 dc 21 3f 16 50 41 3f a9 41 ff be
       -0.030825192 0.6322691 0.75512826 -0.49854782
000110 0a 3f 28 bf d7 16 24 bf 6d 79 29 be 93 25 8d bd
       -0.6572119 -0.6409735 -0.16550227 -0.06891932
000120 5a 17 44 be 1f af 0e 3f eb fb 9b 3e 8a 5e 42 bf
       -0.19149533 0.55735964 0.30465636 -0.75925505
000130 35 ad 23 be ef 76 ca 3d bc bc 4c 3e 03 6c 7b 3e
       -0.15984042 0.09885966 0.19993871 0.24552922
000140 fc 44 22 3e 2e e3 27 bd c4 6f 6d 3d 9b df 25 3e
       0.15846628 -0.04098814 0.057967916 0.1619858
000150 52 37 51 be ef e5 4e bf 81 24 cf be d8 1c 0a 3f
       -0.2043126 -0.808196 -0.40457538 0.5395026
000160 af 7c 3d 3f 7d 9e b0 3e 8f db 81 3e 52 79 88 bd
       0.7401838 0.34495917 0.25362822 -0.06663765
000170 2a ca b4 be bb 05 3d 3f 59 8d 07 3e 4d 2b 1c bf
       -0.3531049 0.7383687 0.13237514 -0.6100357
000180 6a 2f 54 be 2a f7 de bd 63 d0 ea 3e 17 55 46 3e
       -0.20721212 -0.108869866 0.4586211 0.19368397

rnn.bias_ih_l3 f4 [10]
000000 6b 6a 86 be 68 f9 b5 be 96 93 e9 3d 3b bb a1 3d
       -0.26253065 -0.35541844 0.11405103 0.078970395
000010 fc c5 76 3e 4a d7 7d bd 3d e9 00 3b 9c 42 68 3e
       0.24098963 -0.061972894 0.001967027 0.2268166
000020 d1 ab fa 3e f8 c0 fd 3e
       0.4895921 0.49561286

rnn.bias_hh_l3 f4 [10]
000000 0e e2 7b 3d 1e cb e4 3d 1d 29 97 3c 7d 4f e6 3c
       0.06149488 0.11171554 0.018452222 0.028114075
000010 99 4a a5 3e 96 50 da be 43 c6 db be 48 d2 f0 3e
       0.32283476 -0.42639607 -0.429247 0.47035432
000020 7b 4d 93 3e f0 94 05 3f
       0.2877005 0.52180386

fc1.weight f4 [20, 10]
000000 f2 9c 10 bf 26 1b 63 3e 81 75 38 3f 85 13 25 bf
       -0.5648948 0.22178325 0.72054297 -0.6448291
000010 2d 88 1e bf ab f5 9a 3e ba 96 b9 3e b9 ba 3b bf
       -0.6192654 0.30265555 0.36247808 -0.7333179
000020 5c a9 45 bf ec 8c 25 be 35 cf b7 be c2 78 3a 3f
       -0.77211547 -0.16167039 -0.35900274 0.7284051
000030 a5 f0 fd 3e df d0 32 bf ab a7 15 bf d7 7b 37 3f
       0.4959766 -0.6984996 -0.58458966 0.7167334
000040 3d 54 5a 3e 3d 69 55 bf 53 d0 42 bf ed ae f8 be
       0.21321197 -0.83363706 -0.7609913 -0.48570958
000050 9a d4 3e 3f 71 00 a8 be cb ef bc be 1a 66 4a 3f
       0.74543154 -0.32812837 -0.36901698 0.79062045
000060 e6 a4 2a 3f e9 65 48 bf 14 71 43 bf bd 9c 2b 3f
       0.66657865 -0.782805 -0.7634442 0.6703604
000070 cf 20 28 3f b2 0e 2c 3f 56 22 8d be 02 32 1d 3d
       0.6567506 0.67209923 -0.2756526 0.03837777
000080 3a 0d 45 3e 90 82 49 bd b2 3f 79 be b9 2c 84 be
       0.19243327 -0.04919678 -0.24340704 -0.2581537
000090 55 6b e8 bd 48 c0 7e 3e f4 46 64 3d cf e4 1c bd
       -0.11348597 0.24878037 0.05573173 -0.038304146
0000a0 6e c3 e8 be b7 d8 b5 3e 6b c6 4d 3f fa e5 02 bf
       -0.454616 0.35516903 0.80380887 -0.51132166
0000b0 49 e8 52 bf ec ef 2e 3f ac 04 51 3f 61 2d af be
       -0.8238569 0.6833484 0.81647754 -0.3421431
0000c0 91 0f 2f bf a0 60 10 bf 5c ac f4 3d d5 9d 0a 3e
       -0.6838313 -0.5639744 0.119469374 0.1353677
0000d0 46 ac ab 3e 61 29 64 be 7b a0 b3 be c4 0d d5 be
       0.33529872 -0.2228141 -0.35083374 -0.41612065
0000e0 91 2b c1 be 2f d2 c3 bc 74 de 71 3e b8 45 c0 3e
       -0.3772855 -0.023903934 0.23620015 0.3755319
0000f0 0a 3b e0 3e 3d 60 6c bf 47 a0 41 bf 49 76 4b 3f
       0.43795043 -0.9233435 -0.7563519 0.79477364
000100 7f 03 6b 3e 31 0c 6a bf 35 46 fd be 16 3f c7 3e
       0.22950552 -0.9142485 -0.49467626 0.38915318
000110 3d 20 2e 3f 86 a2 5c 3f 5f 72 2b 3e d4 11 2c be
       0.6801794 0.8618549 0.16742848 -0.16803676
000120 5c 73 37 3e a6 25 6d bd d7 59 0d bd 77 fc 4a 3a
       0.179151 -0.057897232 -0.034509506 0.00077433087
000130 31 74 eb 3d c5 96 98 bd 85 87 a6 3e f0 b8 af 3b
       0.11496771 -0.07450632 0.32525268 0.0053626224
000140 0a 5d b3 39 3b 80 56 3e 40 f9 65 3e d4 f3 b1 3d
       0.0003421086 0.20947354 0.22458363 0.08689085
000150 96 ce 10 3d 07 37 96 be 7a ad ec 3c c6 35 96 3d
       0.035353266 -0.29338858 0.028891314 0.07334475
000160 0d 0e 6b be 7a dc 86 3e e9 64 f7 3e de 5c 11 bf
       -0.22954579 0.26340085 0.48319176 -0.5678233
000170 cf 8b 7b be 00 03 bd 3e 7d 11 fd 3e 60 01 69 bf
       -0.24565051 0.3691635 0.49427405 -0.91017723
000180 98 9a 2d bf 4f 92 7b 3e 6b 54 1c 3f 5f 0d 1a 3f
       -0.67814016 0.24567531 0.6106631 0.6017665
000190 82 1d ed be cf 10 1f 3f 35 16 f4 3e 48 a5 78 be
       -0.46311575 0.6213502 0.47673193 -0.242818
0001a0 83 24 4c bf 49 a2 49 3f a8 b7 9f 3e 01 8e de be
       -0.7974321 0.7876325 0.31194806 -0.43467715
0001b0 96 29 3c bf c1 37 0f bf 20 bf ad be c2 12 33 3f
       -0.73500955 -0.5594445 -0.3393488 0.699505
0001c0 33 dc 3f 3f c8 e3 40 bf 5a a7 c2 be 8f db e2 3e
       0.7494537 -0.75347567 -0.38018304 0.44308135
0001d0 f3 7f 3f 3f 3e 17 45 bf d8 4e 50 bf c1 b0 54 bf
       0.7480461 -0.7698859 -0.81370306 -0.83082205
0001e0 57 b0 3e 3f 92 94 4e bf f1 e9 2e bf ee 78 19 3f
       0.74487823 -0.8069545 -0.68325716 0.5995015
0001f0 ef e0 20 3f 73 ec 17 bf 8a 07 b9 be 35 a6 a4 3e
       0.6284322 -0.5934517 -0.36138564 0.32158056
000200 d5 76 4c 3f dc bb 96 3e 23 ce 35 3f ab cd 64 bf
       0.79868823 0.294402 0.71017665 -0.89376324
000210 82 d9 40 bf bf 37 eb 3e 72 18 4c 3f 7e a0 df be
       -0.7533189 0.45940968 0.797248 -0.43677133
000220 c6 d8 5b bf 58 74 48 3f 7e 95 35 3f a7 d3 2e 3f
       -0.85877645 0.78302526 0.7093123 0.68291706
000230 95 30 32 bf db a3 15 3f df 66 4b 3f 47 a7 52 bf
       -0.6960538 0.5845315 0.79453844 -0.82286495
000240 f2 c2 01 bf f1 26 03 3f 07 32 4c 3f 04 5e d8 be
       -0.5068809 0.51231295 0.79763836 -0.42259228
000250 9d 69 50 bf 90 31 0c bf e1 2d ab 3e 22 34 b5 be
       -0.81411153 -0.54763126 0.3343344 -0.35391337
000260 14 58 13 bf d1 09 b8 3e 7f f8 37 3f f9 3c 28 bf
       -0.5755627 0.3594499 0.7186355 -0.65718037
000270 09 f2 00 bf 5e 94 4f 3f 6e 4a 1d 3f f3 ad 60 3f
       -0.50369316 0.81085765 0.61441696 0.87765425
000280 19 e6 c7 3e 3d e1 eb be bd 62 1b bf 8f 5d 4e 3f
       0.39042738 -0.4607028 -0.6069754 0.8061151
000290 fc 53 14 3f 28 4e 68 bf d8 ff 3c bf 73 e5 10 3f
       0.5794065 -0.90744257 -0.73827887 0.5660011
0002a0 c5 4c cf 3e ab 2c 42 3f 4c 2e 3d 3f 79 6a 57 bf
       0.40488258 0.7584941 0.7389877 -0.8414684
0002b0 18 c9 17 bf 37 d3 5f 3f 20 05 ed 3e 71 f1 d7 be
       -0.5929122 0.87431663 0.46292973 -0.42176393
0002c0 ae c0 ee be 19 4e 31 3f eb 39 17 3f 7d ac 58 3f
       -0.46631378 0.6925979 0.5907275 0.84638196
0002d0 5c 71 4c bf 7a 15 d7 3e a4 b9 28 3f e2 25 18 bf
       -0.7986047 0.42008573 0.65908265 -0.59432805
0002e0 a9 69 11 bf 44 1a 30 3f e3 37 90 3e 74 da 5a be
       -0.5680185 0.6879008 0.28167638 -0.21372396
0002f0 0e c0 8e be c2 4d 37 bf 26 1b 1f 3e cd 8e e2 be
       -0.278809 -0.71603024 0.155377 -0.44249573
000300 d0 bb c9 be 68 8d 00 3f 58 5a 17 3f ac d5 45 bf
       -0.39401102 0.5021577 0.5912223 -0.7727916
000310 fc 26 9f be bc ff eb 3e b6 4f 6d 3f ec a5 55 3f
       -0.3108443 0.46093547 0.92699754 0.834563

fc1.bias f4 [20]
000000 88 a1 02 3f 04 d8 23 3f f9 88 3d 3f 9d 59 5c be
       0.5102773 0.6400149 0.7403713 -0.2151856
000010 b3 c1 15 3f 9f 2f 2a be bb b3 3c 3f be b0 8c be
       0.58498687 -0.16619729 0.73711747 -0.27478594
000020 e2 f0 b7 bc 45 99 49 3f 14 ac 13 3f 9a 07 9a 3e
       -0.022453729 0.78749496 0.57684445 0.30083925
000030 5b fb c3 3e 3b c1 65 3f fd 55 02 3f ad 9a 2a 3f
       0.38277707 0.8974797 0.5091246 0.66642267
000040 15 31 49 3f b1 10 61 3f a8 fb 0d 3f ad aa 18 3f
       0.7859052 0.87916094 0.5546212 0.5963543

fc2.weight f4 [32, 20]
000000 15 82 cf 3d 9d 47 6c be f4 a6 e6 3c f1 9a f9 bd
       0.10132233 -0.23074193 0.028155781 -0.12187756
000010 26 cd aa 3d e9 7e a1 3d a1 c4 62 be 58 ab 49 3d
       0.0833991 0.07885534 -0.2214532 0.04923567
000020 59 1e a1 bc af 60 05 bd 44 51 4e 3d 48 00 37 be
       -0.019667791 -0.032562908 0.05037047 -0.17871201
000030 2c 6c 9a 3c 6a 64 a9 bd 62 54 93 3d ca 05 b0 bd
       0.018850408 -0.082711056 0.07193829 -0.08594854
000040 c3 97 0e be 9c bf d9 3c 8f 13 f8 bc 6c 11 2f 3c
       -0.1392508 0.026580624 -0.030282764 0.010685306
000050 b8 08 21 3f d7 eb 37 3f ef 01 a5 be 20 aa 04 3e
       0.6290393 0.7184424 -0.32228038 0.12955523
000060 db c6 2e 3f 6a d2 e4 be 30 fd ab be 65 78 96 bd
       0.6827218 -0.44691783 -0.33591604 -0.07347182
000070 1f 5f 12 bf 8b dd 15 bf 70 16 3e 3f 3f 73 3f 3f
       -0.57176393 -0.5854117 0.74252987 0.74785227
000080 6c 02 8b be 18 39 6c be 6e 55 ce 3e 1d 92 0d bf
       -0.27150285 -0.23068655 0.40299553 -0.55301076
000090 24 66 07 be a5 f6 cd be 6f 4a 0a 3f 28 ce 2f bf
       -0.13222557 -0.40227237 0.54019827 -0.68673944
0000a0 d2 aa bf 3d b5 bb ef 3d 64 be fb bc d0 15 14 3e
       0.09358753 0.11705724 -0.030730434 0.14461446
0000b0 01 2d d8 3d b9 bb 63 be 02 08 07 bd 8d a6 33 3c
       0.10555459 -0.2223958 -0.03296662 0.010965002
0000c0 9a bd eb bd aa 94 1e be 4e fb 02 be c5 d4 e2 bd
       -0.11510773 -0.15486398 -0.12791178 -0.11075739
0000d0 c4 ca 16 3e 87 8a e7 3d c3 9d 20 be 08 a8 e8 3b
       0.14725786 0.11305719 -0.15685181 0.007100109
0000e0 0c 98 fa bd 71 17 1b be 3b 5a f6 bd cb fd 2a be
       -0.12236032 -0.15145661 -0.12028929 -0.16698377
0000f0 51 36 14 3e c6 fe 09 be bf c5 2d 3d 96 f1 95 3e
       0.14473845 -0.13476095 0.042424913 0.29285878
000100 28 61 e9 bd 58 bd 0b be 81 fa 0a be c5 d0 36 3e
       -0.11395484 -0.13646448 -0.13572122 0.17853077
000110 85 da 03 3e 10 5f 1d 3b 26 2c 92 bd ad 0c 68 bd
       0.12876327 0.002401296 -0.07137327 -0.056652714
000120 19 bf 4f be ee 04 08 be ed c6 58 bc d9 48 89 3e
       -0.20287742 -0.1328313 -0.013231021 0.2681339
000130 61 ed 22 be a5 01 7c 3e d2 f0 ed 3d 2c 4c 86 3d
       -0.15910865 0.24610002 0.116181985 0.065574974
000140 d1 ca 0d 3f 3d e2 0c 3f d6 07 20 3f de 57 e1 3d
       0.553876 0.5503271 0.62511957 0.110030875
000150 78 f6 08 3f f5 40 21 be 7d dd ed 3e 91 1b 83 bd
       0.5350108 -0.15747435 0.46458045 -0.06401742
000160 b8 ef 16 be 8e 57 f8 3e 0a 9c 34 3f df 6c 26 3f
       -0.14739883 0.485043 0.70550597 0.65009874
000170 9f 8d 46 3f 3d 6b e1 3e 6f 2e 1e 3f 21 db fc 3e
       0.77559847 0.4402713 0.617896 0.49385932
000180 7e 1f 29 3f 40 0a 48 3f 03 12 b7 3e 1b 4f 09 3f
       0.6606368 0.7814064 0.3575593 0.5363633
000190 92 40 4e be 69 b4 54 be 4e 68 06 bd a2 5c 10 3e
       -0.20141819 -0.20771946 -0.032814316 0.14097837
0001a0 d2 14 24 3e a8 8b 2f 3e 25 8e 88 bd aa db 89 3d
       0.16023567 0.17143118 -0.06667737 0.06731351
0001b0 65 b3 d3 bd 3c 39 c6 bd 8c 33 14 be b8 b8 1b 3e
       -0.10336951 -0.09678885 -0.14472789 0.15207183
0001c0 40 dd 6f bd f4 10 b8 bd 7f 6d 03 be c3 44 3d 3e
       -0.05856061 -0.089876086 -0.12834738 0.18483262
0001d0 16 64 56 bd f4 99 11 3e 7d 63 dd 3d 31 7a 76 be
       -0.052341543 0.14218885 0.108099915 -0.2407005
0001e0 24 ca 56 be 57 2a 0a be 3a 44 0d 3e 09 11 64 be
       -0.20975548 -0.13492714 0.13795558 -0.22272123
0001f0 07 f8 61 bd 44 d4 b4 bd ac d0 0c be 37 22 44 3e
       -0.055168178 -0.08829549 -0.13751477 0.19153677
000200 87 9e 5c be 3d 75 3e be ee f3 1e be e9 e9 6e 3d
       -0.21544848 -0.1859941 -0.1552274 0.058328543
000210 2c f7 9b bc 83 7f a9 bc b4 75 aa 3d a6 3a 0d 3d
       -0.01903876 -0.020690685 0.08323231 0.03447976
000220 df f1 02 3e c6 0f 6b bd 49 e2 54 3d 63 45 11 bd
       0.12787579 -0.05738809 0.051973615 -0.035466563
000230 02 6a 11 3f 5a 02 34 3f c0 46 10 3f 34 8f a1 bd
       0.5680238 0.7031609 0.56357956 -0.07888642
000240 02 c2 15 3f 28 fc 8c be f1 44 1c 3f 47 d6 4a 3d
       0.5849916 -0.2753613 0.61042696 0.049520757
000250 a9 8f 5f bc 17 33 28 3f b0 df 0f 3f 12 a0 f9 3e
       -0.013645091 0.65702957 0.56200695 0.48754936
000260 e5 3d fc 3e 45 d8 35 3f bf be f3 3e 21 49 e8 3e
       0.49265972 0.71033126 0.47606465 0.45368293
000270 22 91 49 3f 0b b1 de 3e 2d 24 1c 3f 68 ea 13 3f
       0.7873708 0.43494448 0.609927 0.5777955
000280 cb 55 08 3f 3d ce f5 3e 59 06 0f bf 44 1a 99 be
       0.5325591 0.4800891 -0.5586906 -0.29902852
000290 f5 20 1a 3f 83 76 ec be 62 bf 77 be 3c 61 99 bd
       0.6020654 -0.46184167 -0.241941 -0.07489249
0002a0 29 90 04 bf 57 89 b0 be e4 79 e6 3e f1 25 34 3f
       -0.5178247 -0.34479782 0.4501487 0.70370394
0002b0 77 ea 14 be 87 f3 3e be 8c 3d 35 3f a3 61 3f bf
       -0.14542566 -0.18647586 0.7079704 -0.74758357
0002c0 ad 14 bb be 34 ea fd be bc 19 d2 3e 38 25 35 bf
       -0.36539212 -0.49592745 0.4103526 -0.70759916
0002d0 7f 0e ee bd 20 61 35 be a5 d8 41 be 3a d5 14 3e
       -0.11623859 -0.17712831 -0.189303 0.14534464
0002e0 04 79 34 be 02 9c 20 bd a9 53 bd bd ad a1 53 3e
       -0.17624289 -0.03921128 -0.092444725 0.20667143
0002f0 eb 8e e0 3d 6a fb 49 be e2 f6 24 be 70 3d b9 bd
       0.109647594 -0.19724813 -0.16109803 -0.090449214
000300 44 c6 37 3e 7c f2 bb 3d 98 54 c0 3d 0c 20 5b be
       0.17946726 0.091771096 0.09391135 -0.21398944
000310 b0 e8 0a 3e 9d 41 f2 3d e9 40 02 3e 40 a6 96 3d
       0.13565326 0.11828921 0.12720074 0.073559284
000320 52 bd 06 3e 2b d8 9e 3d e3 de 8d 3c b6 0c 0e be
       0.13158157 0.077560745 0.017318195 -0.13872036
000330 29 f9 09 be ac 07 11 be 8e 2f 3a 3e 3b ff 13 be
       -0.13473953 -0.14163083 0.18182203 -0.14452831
000340 49 2b cf bc 18 0a 1b bc 01 67 26 be 27 90 bd bd
       -0.025289195 -0.009462856 -0.1625023 -0.092560105
000350 d8 86 3f 3e fa df 24 be 67 83 b2 bd 85 7d 70 bd
       0.18703783 -0.16101065 -0.08716469 -0.058713455
000360 49 54 a0 bd 3e 37 a7 bd d7 8c 53 bd 88 ef 30 be
       -0.07828576 -0.081648335 -0.051647987 -0.17278874
000370 48 6f 07 3f 92 89 2f 3f 4a cb db 3e c2 6a 78 3d
       0.52904177 0.6856929 0.42928535 0.060648687
000380 f9 97 b9 3e a6 15 68 be ed e3 1e 3f 13 3e 31 3e
       0.36248758 -0.22664508 0.6206654 0.17308836
000390 6f 00 c2 3d 47 05 11 3f 92 3e 08 3f f0 bd 19 3f
       0.09472739 0.5664868 0.53220475 0.60055447
0003a0 9d 21 3f 3f d2 69 46 3f 71 43 e5 3e 2b 9e 1c 3f
       0.74660665 0.7750522 0.44778016 0.61178845
0003b0 72 b1 20 3f a2 3a 3f 3f c0 39 e9 3e 12 25 4b 3f
       0.6277076 0.7469884 0.45551872 0.7935344
0003c0 89 ce 25 3f eb 8e 20 3f 71 c4 45 3f 76 fa 82 3d
       0.6476827 0.62718076 0.7725287 0.06395428
0003d0 0b 76 bf 3e 3e c1 da 3d 74 e6 28 3f 42 45 10 be
       0.37394747 0.10681389 0.65976644 -0.1408892
0003e0 07 11 23 3e 2d a4 32 3f f0 08 1a 3f 62 75 17 3f
       0.15924464 0.6978176 0.6016989 0.59163487
0003f0 7b a1 10 3f 91 a0 36 3f 06 91 c4 3e fa 7a f5 3e
       0.564964 0.71338755 0.38391894 0.47945386

fc2.bias f4 [32]
000000 df bc a8 bd ff 26 fb 3e cf 09 99 3d 1f 73 05 bc
       -0.08239149 0.4905319 0.07472574 -0.008145123
000010 f8 1a 60 3f e5 b2 97 3d 17 97 99 bd 84 db 72 3f
       0.8754115 0.07407168 -0.07499521 0.94866204
000020 93 60 19 3f ff 81 52 be da d2 04 bd e7 62 62 3f
       0.59912986 -0.20557402 -0.032427646 0.88432163
000030 94 3d 85 3f c4 85 56 be 31 94 8a be 79 bd 30 3e
       1.0409417 -0.20949465 -0.27066186 0.17259778
000040 bf 52 11 3f 2d 91 46 3f ea 0d f2 bd b4 ff 33 3f
       0.56766886 0.7756527 -0.1181906 0.70312047
000050 95 04 3c 3f b8 44 86 3f 55 68 1c 3c 6c 83 57 3f
       0.7344449 1.0489721 0.009546359 0.8418491
000060 96 f3 30 3e c2 5e 5b 3f 9b ae 87 bd 8a 95 e2 3e
       0.1728042 0.85691464 -0.066251 0.44254714
000070 59 2b 2d be 20 16 40 be f8 f4 70 3f a8 3a 98 3e
       -0.16911067 -0.1875844 0.9412379 0.2973225

fc3.weight f4 [16, 32]
000000 f9 07 98 bd 8c ea 1e 3d 6b 0d 92 3c e9 1f 95 3d
       -0.07423396 0.0387979 0.017828664 0.07281477
000010 d2 39 e4 3d a7 3c 4b 3d 67 de 8e 3d f9 ad 3a be
       0.11143841 0.04961839 0.06976014 -0.18230428
000020 4f 30 06 bb f3 50 d5 3d a5 1f b9 bd 85 bc 0b 3e
       -0.0020475572 0.104158305 -0.09039239 0.13646133
000030 73 2e 2c be 80 66 69 3d cd 2a 85 3d c3 a9 61 bd
       -0.16814594 0.056982517 0.06502304 -0.055093538
000040 6c 4b de bd c4 44 8c 3d 5b e5 ee bc bc e5 b0 bd
       -0.10854229 0.068490535 -0.0291621 -0.08637568
000050 38 4d 5a bd fa 5a a7 bc e4 a2 ac bd 96 95 eb bd
       -0.053296298 -0.020429123 -0.084295064 -0.11503141
000060 26 3d 1e 3e 9e ef 33 bd ef 47 17 be 11 1f 20 3e
       0.15453014 -0.04392969 -0.14773534 0.15636851
000070 45 3e ce bd 4b 31 a5 3d f4 ce 10 be 17 45 de bd
       -0.10070471 0.080660425 -0.14141446 -0.108530216
000080 5e d7 2e be f2 a3 92 bd 34 1c 85 bd a9 07 d8 3d
       -0.17074344 -0.07160176 -0.0649952 0.10548336
000090 21 d8 cf bd a4 b8 06 be 45 27 a8 3d 81 dc 7d 3c
       -0.10148645 -0.13156372 0.08210615 0.015494467
0000a0 3c 98 02 be e2 14 5f 3d 51 b4 1b be d2 48 87 3d
       -0.12753385 0.054463275 -0.15205504 0.06605686
0000b0 a7 67 0f be 23 a1 45 3d 07 91 1c be f6 0e 4e bc
       -0.14004384 0.048249375 -0.15289699 -0.012576809
0000c0 ae 01 d0 3d fb a2 0b be b4 5f 0b be 87 e6 27 3e
       0.101565704 -0.13636391 -0.13610727 0.16396533
0000d0 0e 9f 28 3d bc de 4f 3c ef 57 85 3b 53 5b 2d bd
       0.04116731 0.012687381 0.0040693204 -0.04232342
0000e0 e4 d4 10 be 2d 70 0d be e2 82 67 3d 9e 4e ba bd
       -0.14143711 -0.13812323 0.056521304 -0.09097026
0000f0 9e b7 1a be cd 87 05 be 16 03 19 3d 14 11 9a bd
       -0.15109107 -0.13040085 0.03735646 -0.07522789
000100 d4 47 47 bd 6a 0e 0f 3f 8f 71 17 be 51 9c 80 bd
       -0.048652485 0.5588137 -0.14789413 -0.06279815
000110 8d e7 3e 3f 97 9b 84 bd 66 79 29 bd c5 4c 5d 3f
       0.7457207 -0.06474989 -0.04137554 0.86445266
000120 04 4c fd 3e b1 64 c1 bd bb 5f e4 3d 15 d1 57 3f
       0.49472058 -0.094430335 0.11151072 0.8430341
000130 78 e5 4a 3f f8 2e a6 bd 08 74 40 bd ab 6b d9 bd
       0.7925639 -0.08114427 -0.046985656 -0.10616239
000140 10 9f 19 3f 68 bb 5a 3f 55 76 06 3e 5f 9e d8 3e
       0.60008335 0.8544221 0.13131078 0.42308328
000150 78 1c 34 3f 62 a8 30 3f c6 e7 50 bd a4 f0 45 3f
       0.7035594 0.6900693 -0.051002286 0.77320313
000160 c1 f0 9a 3e 72 8d 50 3f 9b 1f 96 bc 48 1d 25 3f
       0.30261806 0.8146583 -0.018325618 0.64497805
000170 aa 3b 74 3d 33 f8 ef 3b 07 40 18 3f 16 8e 31 3f
       0.059627213 0.007323289 0.594727 0.6935743
000180 58 cd 64 bd 19 b6 e0 bd f8 a9 ed 3d 6b ae ff bd
       -0.055859894 -0.10972232 0.116046846 -0.124844395
000190 f7 8e d1 3d e3 16 c8 bd d0 34 3d 3a 09 9a 07 be
       0.102323465 -0.0976999 0.00072176475 -0.13242353
0001a0 17 c1 33 3e 9b d3 b0 3d 94 b9 51 bd de d3 61 bd
       0.17554127 0.086341105 -0.05120237 -0.055133693
0001b0 d2 c6 e9 3c 4b c2 75 3d 47 63 75 3c 78 ca 91 bc
       0.028537188 0.059999745 0.014977283 -0.01779674
0001c0 6a 77 44 be 1d 79 34 be c9 d2 0f 3d a2 c9 ff bd
       -0.19186178 -0.17624326 0.03511313 -0.1248963
0001d0 b8 87 30 be f8 f6 34 be 6c 6e ac bd 1b 9c 44 3d
       -0.17239273 -0.17672336 -0.08419499 0.048000436
0001e0 30 d5 0f be e8 3c 9c 3d cd e5 86 3d 65 b3 37 bd
       -0.14046168 0.076288044 0.065868 -0.04484882
0001f0 97 0a 0a be 4b f5 04 3a 89 0c 57 3d 73 f7 8e bd
       -0.13480602 0.0005071952 0.05250219 -0.06980791
000200 e0 38 2f be 4c de 35 3d 42 b5 ba bd 86 ec af 3d
       -0.1711154 0.044401452 -0.091166034 0.08590035
000210 84 a8 05 3e 64 e5 3b be e4 3f 30 be 3b d1 5e be
       0.13052565 -0.18349224 -0.17211872 -0.21759503
000220 5e 7f 91 3d 1c f6 0f bd 93 49 0f 3e ec 7a 13 be
       0.071043715 -0.035146818 0.1399291 -0.1440236
000230 46 f2 79 3a 64 65 9e bd 2b 25 f4 bb 5a b1 6b 3d
       0.0009534698 -0.077341825 -0.00745072 0.057542183
000240 5b dd dd bd 8d c8 75 bb c3 15 29 bd 9e 5e cc 3d
       -0.10833236 -0.003750357 -0.04128052 0.09978984
000250 40 51 99 bd 8a 20 13 be b9 09 33 3e ba aa 85 3d
       -0.074862 -0.14367881 0.17484178 0.06526704
000260 3b 3f 10 3e f4 5a 9e 3d 1f 60 17 3e e9 66 b0 3c
       0.1408662 0.07732192 0.14782761 0.021533446
000270 4a ca 19 3b aa d7 25 be 25 de 9c 3d ee 72 82 3c
       0.002346652 -0.1619555 0.07659558 0.015923943
000280 97 d5 ca bc 45 ae e5 3c d5 cd 20 be 90 6b 60 b8
       -0.02476005 0.0280372 -0.15703519 -5.3505937e-05
000290 05 60 6b bd 42 8f 0c be 28 2c 03 be c7 39 a6 3b
       -0.05746462 -0.13726524 -0.12809813 0.0050728056
0002a0 b4 a6 bd bc f9 2f 39 3c 3c 04 31 3e a0 af 63 bd
       -0.02315078 0.0113029415 0.17286772 -0.05558741
0002b0 e2 ce 11 be 69 69 aa 3d 00 84 c5 bd cd 74 26 be
       -0.14239076 0.08320887 -0.096443176 -0.16255493
0002c0 ed 1f 12 3e d5 59 52 be f8 1e 1c 3e 11 c5 b7 bd
       0.14269991 -0.2054208 0.15246189 -0.08973134
0002d0 f8 44 02 bd 59 fe 9e bc 77 9b d4 bd 3f d4 25 39
       -0.031804055 -0.019408392 -0.10381215 0.00015814694
0002e0 32 03 ed bc 81 53 1c be ca ee 05 3d f2 a1 98 bd
       -0.028932188 -0.15266229 0.03269843 -0.074527636
0002f0 6b 8c 26 3d 1b 3a 93 bd 21 8f 00 3e 25 a3 bf bd
       0.040661257 -0.07188817 0.125546 -0.09357289
000300 35 eb 33 3d 5d b4 eb 3e 15 c4 1e 3e bd 2a 2e 3d
       0.043925483 0.46036044 0.15504487 0.042521227
000310 70 54 41 3f ec 10 7f 3c b6 35 36 bc 12 6c 61 3f
       0.75519466 0.015567999 -0.011121204 0.8805553
000320 48 c6 2b 3f 75 fb 0a be af 52 90 3b aa e6 04 3f
       0.6709943 -0.13572486 0.004404388 0.51914465
000330 24 b4 3f 3f 1f 8c 71 bd f5 8f 36 3e d8 50 24 3e
       0.7488425 -0.05897152 0.17828353 0.16046464
000340 06 6f f5 3e 53 5d 4e 3f d4 f6 97 3d 47 a9 f4 3e
       0.47936267 0.8061115 0.074201256 0.47785398
000350 94 57 27 3f 40 52 68 3f c5 04 41 bd 72 0f 4e 3f
       0.6536801 0.90750504 -0.04712369 0.8049232
000360 6a 34 ea 3e 86 3e 09 3f bd d6 57 bb f1 80 17 3f
       0.45743114 0.5361103 -0.003293439 0.59181124
000370 be b3 b0 bd 8f 38 df bd 17 1e 49 3f b6 cd 0b 3f
       -0.08628033 -0.108994596 0.7856154 0.54610765
000380 e9 5c c4 bd 63 4d 11 3f fb e6 7e 3d 44 b2 1a 3b
       -0.09588034 0.5675871 0.062232 0.002360479
000390 42 3e 3e 3f e3 17 24 3e 96 6d 1f bd 40 0d 16 3f
       0.7431375 0.16024737 -0.03892287 0.5861397
0003a0 01 78 0f 3f 0a a1 17 bc 68 26 e9 3d 62 cc 3b 3f
       0.56042486 -0.009254703 0.113842785 0.7335874
0003b0 a6 14 40 3f 70 72 db bb 33 fa 14 bd 40 87 73 3c
       0.75031507 -0.0066969916 -0.03637142 0.014863789
0003c0 95 c5 44 3f 58 f1 13 3f f0 8f 64 bc e7 a5 37 3f
       0.76863986 0.57790136 -0.013950333 0.7173752
0003d0 8d 9c 54 3f 7e 01 61 3f 73 7e 35 3e a7 a6 50 3f
       0.8305138 0.878929 0.17724018 0.8150429
0003e0 2d 17 04 3f 86 12 45 3f c6 d9 85 bc ad 76 08 3f
       0.51597863 0.7698139 -0.016339194 0.53306085
0003f0 b2 b1 bb bd a0 14 2c be cc 94 3b 3f 10 9a 3c 3f
       -0.09164752 -0.16804743 0.7327392 0.7367258

fc3.bias f4 [16]
000000 11 65 6b 3d 52 ac ec bd 64 1e 16 3f 2c 13 44 3d
       0.05746943 -0.11556305 0.5864012 0.047869846
000010 e5 6c a5 bd f2 9f ff 3d ee 8e 3b 3f db d6 47 3f
       -0.080774106 0.12481679 0.7326497 0.7806222
000020 e1 32 27 3f 46 d4 0b be 4f 5e 02 3e 1a 18 01 3d
       0.6531201 -0.13655195 0.12731288 0.031517126
000030 ef c2 56 3f d2 8b 68 be 9e 8c 43 3f 73 20 44 bd
       0.83891195 -0.22709587 0.7638644 -0.04788251

output.weight f4 [1, 16]
000000 87 81 3b be 80 eb 90 bc 2c 63 53 3f 16 c2 97 bc
       -0.1831113 -0.01769042 0.825732 -0.018525165
000010 a5 72 15 be d5 3e 85 bc 3d e5 43 3f 6c a4 40 3f
       -0.14594515 -0.016265312 0.76521665 0.7525089
000020 ab 24 53 3f 7e 49 70 3e b0 0d 15 be dc 58 a7 bc
       0.82477826 0.23465535 -0.14556003 -0.020428114
000030 b2 f7 2f 3f ec c6 99 3c a3 60 39 3f 90 f5 63 3d
       0.6873733 0.018771611 0.7241308 0.05565411

exp_avg f4 [10, 6]
000000 00 00 00 00 00 00 00 00 00 00 00 00 00 00 00 00
       0.0 0.0 0.0 0.0
000010 00 00 00 00 00 00 00 00 00 00 00 00 00 00 00 00
       0.0 0.0 0.0 0.0
000020 00 00 00 00 00 00 00 00 00 00 00 00 00 00 00 00
       0.0 0.0 0.0 0.0
000030 00 00 00 00 00 00 00 00 00 00 00 00 00 00 00 00
       0.0 0.0 0.0 0.0
000040 00 00 00 00 00 00 00 00 00 00 00 00 00 00 00 00
       0.0 0.0 0.0 0.0
000050 00 00 00 00 00 00 00 00 00 00 00 00 00 00 00 00
       0.0 0.0 0.0 0.0
000060 00 00 00 00 00 00 00 00 00 00 00 00 00 00 00 00
       0.0 0.0 0.0 0.0
000070 00 00 00 00 00 00 00 00 00 00 00 00 00 00 00 00
       0.0 0.0 0.0 0.0
000080 00 00 00 00 00 00 00 00 00 00 00 00 00 00 00 00
       0.0 0.0 0.0 0.0
000090 00 00 00 00 00 00 00 00 00 00 00 00 00 00 00 00
       0.0 0.0 0.0 0.0
0000a0 00 00 00 00 00 00 00 00 04 00 00 80 04 00 00 80
       0.0 0.0 -6e-45 -6e-45
0000b0 04 00 00 80 04 00 00 80 04 00 00 80 04 00 00 80
       -6e-45 -6e-45 -6e-45 -6e-45
0000c0 00 00 00 00 00 00 00 00 00 00 00 00 00 00 00 00
       0.0 0.0 0.0 0.0
0000d0 00 00 00 00 00 00 00 00 00 00 00 00 00 00 00 00
       0.0 0.0 0.0 0.0
0000e0 00 00 00 00 00 00 00 00 00 00 00 00 00 00 00 00
       0.0 0.0 0.0 0.0

exp_avg_sq f4 [10, 6]
000000 00 00 00 00 00 00 00 00 00 00 00 00 00 00 00 00
       0.0 0.0 0.0 0.0
000010 00 00 00 00 00 00 00 00 00 00 00 00 00 00 00 00
       0.0 0.0 0.0 0.0
000020 00 00 00 00 00 00 00 00 00 00 00 00 00 00 00 00
       0.0 0.0 0.0 0.0
000030 00 00 00 00 00 00 00 00 00 00 00 00 00 00 00 00
       0.0 0.0 0.0 0.0
000040 00 00 00 00 00 00 00 00 00 00 00 00 00 00 00 00
       0.0 0.0 0.0 0.0
000050 00 00 00 00 00 00 00 00 00 00 00 00 00 00 00 00
       0.0 0.0 0.0 0.0
000060 00 00 00 00 00 00 00 00 00 00 00 00 00 00 00 00
       0.0 0.0 0.0 0.0
000070 00 00 00 00 00 00 00 00 00 00 00 00 00 00 00 00
       0.0 0.0 0.0 0.0
000080 00 00 00 00 00 00 00 00 00 00 00 00 00 00 00 00
       0.0 0.0 0.0 0.0
000090 00 00 00 00 00 00 00 00 00 00 00 00 00 00 00 00
       0.0 0.0 0.0 0.0
0000a0 00 00 00 00 00 00 00 00 93 6c 05 3d c7 c6 90 39
       0.0 0.0 0.032574248 0.0002761392
0000b0 17 cb 81 39 ae 1e 94 39 76 1c 8c 39 79 02 a8 39
       0.0002475611 0.00028251618 0.00026724086 0.000320453
0000c0 00 00 00 00 00 00 00 00 00 00 00 00 00 00 00 00
       0.0 0.0 0.0 0.0
0000d0 00 00 00 00 00 00 00 00 00 00 00 00 00 00 00 00
       0.0 0.0 0.0 0.0
0000e0 00 00 00 00 00 00 00 00 00 00 00 00 00 00 00 00
       0.0 0.0 0.0 0.0

exp_avg f4 [10, 10]
000000 00 00 00 00 00 00 00 00 00 00 00 00 00 00 00 00
       0.0 0.0 0.0 0.0
000010 00 00 00 00 00 00 00 00 00 00 00 00 00 00 00 00
       0.0 0.0 0.0 0.0
000020 00 00 00 00 00 00 00 00 00 00 00 00 00 00 00 00
       0.0 0.0 0.0 0.0
000030 00 00 00 00 00 00 00 00 00 00 00 00 00 00 00 00
       0.0 0.0 0.0 0.0
000040 00 00 00 00 00 00 00 00 00 00 00 00 00 00 00 00
       0.0 0.0 0.0 0.0
000050 00 00 00 00 00 00 00 00 00 00 00 00 00 00 00 00
       0.0 0.0 0.0 0.0
000060 00 00 00 00 00 00 00 00 00 00 00 00 00 00 00 00
       0.0 0.0 0.0 0.0
000070 00 00 00 00 00 00 00 00 00 00 00 00 00 00 00 00
       0.0 0.0 0.0 0.0
000080 00 00 00 00 00 00 00 00 00 00 00 00 00 00 00 00
       0.0 0.0 0.0 0.0
000090 00 00 00 00 00 00 00 00 00 00 00 00 00 00 00 00
       0.0 0.0 0.0 0.0
0000a0 00 00 00 00 00 00 00 00 00 00 00 00 00 00 00 00
       0.0 0.0 0.0 0.0
0000b0 00 00 00 00 00 00 00 00 00 00 00 00 00 00 00 00
       0.0 0.0 0.0 0.0
0000c0 00 00 00 00 00 00 00 00 00 00 00 00 00 00 00 00
       0.0 0.0 0.0 0.0
0000d0 00 00 00 00 00 00 00 00 00 00 00 00 00 00 00 00
       0.0 0.0 0.0 0.0
0000e0 00 00 00 00 00 00 00 00 00 00 00 00 00 00 00 00
       0.0 0.0 0.0 0.0
0000f0 00 00 00 00 00 00 00 00 00 00 00 00 00 00 00 00
       0.0 0.0 0.0 0.0
000100 00 00 00 00 00 00 00 00 00 00 00 00 00 00 00 00
       0.0 0.0 0.0 0.0
000110 00 00 00 00 00 00 00 00 04 00 00 00 04 00 00 80
       0.0 0.0 6e-45 -6e-45
000120 04 00 00 80 04 00 00 80 04 00 00 80 04 00 00 80
       -6e-45 -6e-45 -6e-45 -6e-45
000130 04 00 00 00 04 00 00 00 04 00 00 00 04 00 00 80
       6e-45 6e-45 6e-45 -6e-45
000140 00 00 00 00 00 00 00 00 00 00 00 00 00 00 00 00
       0.0 0.0 0.0 0.0
000150 00 00 00 00 00 00 00 00 00 00 00 00 00 00 00 00
       0.0 0.0 0.0 0.0
000160 00 00 00 00 00 00 00 00 00 00 00 00 00 00 00 00
       0.0 0.0 0.0 0.0
000170 00 00 00 00 00 00 00 00 00 00 00 00 00 00 00 00
       0.0 0.0 0.0 0.0
000180 00 00 00 00 00 00 00 00 00 00 00 00 00 00 00 00
       0.0 0.0 0.0 0.0
