models/7/model-Bakery.pth (torch, 34898 bytes, 45 tensors)

rnn.weight_ih_l0 f4 [10, 6]
00000000: 0d50 1abe 471e febd c6f9 2d3e f803 6fbe
00000010: 31d9 1bbe 814a f7bd 3e90 c8bc c8d0 26bd
00000020: 92f7 8abe 4d44 f4bc 5f79 11be b109 82bc
00000030: 035b 2abe 1bb7 88be 780d 8dbe cb9f fe3d
00000040: df3f 033e 547f af3d 367e 673e 4c38 513e
00000050: 694f 223e 9063 1e3e e3bd 7a3e 0fdd 99be
00000060: 349a 70be aa15 36be 1bdf 25bd 1b0e 303e
00000070: fb52 88be 37c5 76be 6681 803e 70f6 7e3e
00000080: ae52 9a3e b579 273e 2a26 88be 198d 8cbe
00000090: 5ff9 12be 096e 2c3e df3e 7b3d 11e1 9dbe
000000a0: 43db 9a3c c8be 873d 0683 ef3d aa51 d1bd
000000b0: 5533 84be 71c0 a73d 1bb5 00be 8c19 533e
000000c0: 2b87 01bd 882a 513e 2c05 ad3d 2f0d 8e3d
000000d0: 6e53 7a3e eb74 533e a8b9 23be f3c1 753d
000000e0: 8adf 88bc 11b0 efbd 2f88 813e 4592 3d3e
-0.150696 -0.12408119 0.16989812 -0.23341358 -0.1521957 -0.12074757 -0.024482843 -0.040726453
-0.27142006 -0.029817725 -0.14206456 -0.015873762 -0.1663628 -0.26702198 -0.27549338 0.12432822
0.12817334 0.08569208 0.2260674 0.20431632 0.15850605 0.15467668 0.24486499 -0.30051467
-0.23496324 -0.17781702 -0.040495973 0.17192881 -0.2662581 -0.24098669 0.25098723 0.24898696
0.30141205 0.16355021 -0.26591617 -0.274514 -0.1435294 0.1683885 0.061339255 -0.30835775
0.01890338 0.066281855 0.116949126 -0.10220654 -0.25820413 0.08191002 -0.12569086 0.20615214
-0.031623047 0.2042638 0.08448252 0.06936108 0.24445888 0.2065007 -0.15988791 0.059999418
-0.016708154 -0.11703504 0.25299212 0.18512829

rnn.weight_hh_l0 f4 [10, 10]
00000000: e94f 6f3c 938a 8b3e 566a 233e d0cb 453c
00000010: c708 783e 9c47 18bd 3f15 a43c 4e0a 513e
00000020: 036c 783e 3b69 20be e391 3fbe 30f5 c03d
00000030: caea 80be c6ce a1be ed2f 8ebe 9513 693e
00000040: 12ab 50be 031f a1be e4fa a5bc 2130 8e3e
00000050: 7a85 7e3e 860d 85bd 19e8 dfbd ce0a 93bd
00000060: 23b2 9b3c 7028 2ebe 09b1 6c3c 1516 cfbc
00000070: 39bb c4bc 4124 2dbe 1cba 63be 9466 91bd
00000080: 6b6b 783d 009d 9f3e 14a1 4b3d 4676 88bd
00000090: 616c a93c f215 3abe af23 36be 2533 8b3e
000000a0: 360f fdbd 0a50 a0bc 30db 993e 8128 153c
000000b0: 1c79 c03c 9bc0 683e d04c 023e 3308 673d
000000c0: d1b7 c63d 4372 283e 29cc d7bd f2d5 34be
000000d0: 0df6 4fbe 62fc 653e eb93 abbd 608d 063e
000000e0: d0ad 2fbe afed 2c3e c363 193e 80e4 bf3d
000000f0: 421e 0cbe bf03 a63c 5e07 96be 59dd 69be
00000100: f8db 5d3e bd2c 7d3e 741d 85be 4f24 9b3d
00000110: 5b3c 8a3d 5409 683d 4b4c 103e 6f1c 5a3e
00000120: b0e7 163d 5c33 333e 4aed 34be 4534 f73d
00000130: b8f8 69be f8bc c5bd b72e 7a3c cfe2 063c
00000140: 43e3 da3d fbeb 373d 0de8 bebb 056f 063e
00000150: 3331 b5bd ffcf 3cbe 7a86 91bb 0eff 17be
00000160: 81a5 b7bd 4f6f 973e ee4a b53d d4ec 86bd
00000170: 9ef8 75bd 6868 50be df77 8e3e 1b2e d73d
00000180: f49f 56be 0a43 9fbe b913 1cbe 2002 393e
0.014606454 0.2725416 0.15958533 0.0120725185 0.24222098 -0.037177667 0.020029662 0.20414087
0.24259953 -0.15665142 -0.18707995 0.09421766 -0.2517913 -0.31603068 -0.2777094 0.22761376
-0.20377758 -0.31468973 -0.020261236 0.27771094 0.24855605 -0.0649672 -0.10932941 -0.07179795
0.01900584 -0.17007613 0.014446505 -0.025279084 -0.024015056 -0.16908361 -0.22238964 -0.07099643
0.060649317 0.3117447 0.049714163 -0.06663184 0.020681562 -0.18172434 -0.1778705 0.27187458
-0.12356417 -0.019569416 0.3005004 0.009103895 0.02349525 0.22729723 0.12724614 0.056404304
0.09703029 0.16449837 -0.10536987 -0.17659739 -0.20308705 0.22459558 -0.083778225 0.13139868
-0.17156148 0.16887544 0.14979462 0.09369755 -0.13683417 0.020265458 -0.29302496 -0.22838344
0.21665943 0.24724098 -0.25999033 0.07575285 0.06749793 0.05664952 0.14091603 0.21299909
0.03684205 0.17500061 -0.17668644 0.120705165 -0.22848785 -0.096551836 0.015269927 0.008232786
0.10687878 0.044902783 -0.0058260025 0.13128288 -0.08847275 -0.18438719 -0.0044410797 -0.1484339
-0.08967114 0.2957711 0.08852182 -0.0658814 -0.060051553 -0.20352328 0.2782583 0.10506841
-0.20959455 -0.31105834 -0.15241899 0.18067217

rnn.bias_ih_l0 f4 [10]
00000000: 1d38 68be 7ea0 4cbe 5a87 5c3c 0d05 403e
00000010: cdaf 023e a9bb 5eba 2eda 963e 892d 373d
00000020: c776 5abe b803 9fbe
-0.22677656 -0.19983098 0.013460005 0.18751927 0.12762375 -0.00084965915 0.29463333 0.04472116
-0.21334372 -0.31057525

rnn.bias_hh_l0 f4 [10]
00000000: 6ac8 283d 93a4 8ebe 6390 ac3d 90fc 5a3e
00000010: f7e9 d4bd 3ceb 8e3d 9e99 0c3e 1cd7 dabd
00000020: fa7d 0fbe 1147 52be
0.041206755 -0.27859935 0.08425977 0.21385407 -0.10396188 0.06978461 0.13730475 -0.1068556
-0.140129 -0.20534922

rnn.weight_ih_l1 f4 [10, 10]
00000000: b900 fcbd 7979 4f3e 29ec 023d 25cf 08be
00000010: 5d12 7c3e 0f7b b1be 8b93 893d 43f4 40be
00000020: d35d a1be 93f8 01be 1756 493e a406 893d
00000030: 8609 1abd ab90 f63d c55d 3ebe b33a 523d
00000040: eeb8 513e 4e7f 8abe 2919 6b3e 39c7 9e3b
00000050: c7f8 bfbe 0fc6 3e3e af07 6bbe d40f 80bd
00000060: 1a0b f8bc 26a3 cabd 2e33 d33d b454 0dbe
00000070: fab4 8f3e a311 2e3d 9ee8 c3be 82ec 1dbe
00000080: 09d0 0b3e 4322 143e 28ac 66bb 0283 d7bc
00000090: 595d 61be 9fa9 6abd 1efb acbd 9be7 363e
000000a0: 7f8e f23d 1dd7 a1be 567b d7be 2e58 cf3e
000000b0: 35aa 17be 2fe2 9c3e 5d6c c1be 50b3 e33e
000000c0: cb54 22bd 9ad3 a9be a723 10be f2b3 1bbe
000000d0: c126 83be bf4d 2d3e b025 2abd abf1 51be
000000e0: 5bcd eb3d d4bb fe3d 3057 813d 2adc 5c3d
000000f0: 27d0 87bc 63eb c4bd e7c4 bb3e e791 b9be
00000100: 16ed 59bd 7662 e9bd b088 693c bf78 68be
00000110: c819 a33d 494f a43e 4c5e 703d d6d3 d23d
00000120: 4c64 983d 7248 b23d 6c71 313e 0464 9cbd
00000130: 7ecd 2ebc 09af 8c3e f889 fd3d a816 d4bd
00000140: 5882 88be f7ac c93d 7327 9ebd fecf 6e3e
00000150: 1ebe b9bd 6d0a 043d 522a 303e 4a2f 943e
00000160: ec42 1d3e fe28 2c3e 9ac6 083e 2e17 f1bd
00000170: ce37 ed3c 9f66 acbe 0a99 2f3e e462 88be
00000180: 410e dabd 4c8a eb3d 64e3 423e ad00 dc3d
-0.12304825 0.20261182 0.0319635 -0.1336027 0.2461638 -0.346642 0.06717595 -0.18843178
-0.31516895 -0.1269248 0.19661747 0.0669072 -0.03760674 0.12039312 -0.18590458 0.05132551
0.20480701 -0.2705025 0.22958817 0.0048455265 -0.3749449 0.18630241 -0.2295215 -0.06253019
-0.030278731 -0.09894399 0.10312496 -0.13801843 0.28067762 0.04249729 -0.3826341 -0.15422252
0.13653578 0.14466195 -0.0035197828 -0.026307587 -0.22008266 -0.05729067 -0.08446334 0.17861788
0.11843585 -0.3160943 -0.42086285 0.40496963 -0.14811023 0.30641314 -0.37777987 0.44472742
-0.039631646 -0.33169252 -0.140761 -0.15205362 -0.25615504 0.16924189 -0.041539848 -0.20502345
0.11513778 0.12438169 0.06315458 0.053920902 -0.016578747 -0.09615209 0.36673662 -0.36244127
-0.05320462 -0.11395733 0.01425378 -0.22702311 0.07963902 0.3209174 0.05868368 0.10294311
0.07441005 0.08705224 0.17328423 -0.07636264 -0.01066911 0.2747729 0.12379831 -0.10355884
-0.26661944 0.098474436 -0.07722368 0.2332153 -0.09069465 0.032236505 0.17203644 0.2894233
0.1535756 0.16812512 0.1335701 -0.11771999 0.028957274 -0.33672044 0.17148224 -0.26637948
-0.1064725 0.115009874 0.19032055 0.107423164

rnn.weight_hh_l1 f4 [10, 10]
00000000: 66b6 d13e 58ac 97be e1d6 08bd fd9c 113d
00000010: 4822 68be f4d8 afbe 2cf9 213e 9cdf ec3e
00000020: a3ad ba3d 4d19 83be a3b8 a0be 101b c63d
00000030: be5b 03bf c015 a2be abb5 393e a7de e73e
00000040: 43ea 48be 3115 05be 10e5 10bf 49b4 f53e
00000050: cd46 773e b3f8 02bf 2f5e 193d 5744 783d
00000060: 1bb4 84be 9c67 08be 3e3e ef3e ec86 083f
00000070: 7737 103f 1b1b 34bf d990 d83e 5667 febe
00000080: 9c5f 1d3f 8237 673e 1012 ffbe a9b5 fbbe
00000090: af30 c73e 54c3 f53e 5c0f 9e3d c4c1 90be
000000a0: b6da d3bd 7db9 0d3f a8d5 9dbd cb19 593c
000000b0: 185a b53c bc8c 623e 5051 14bf 94d6 0bbf
000000c0: 59b0 d13c c16f 693c 343c e0bc a369 6a3e
000000d0: 6058 22bf 15d4 04bf 4da0 473e ab19 c83e
000000e0: 49fb cbbe 83ed 2abd 97a3 e0be 1a05 a53e
000000f0: 06d6 ae3d 47fe 27be 22e2 343e 475b 0a3f
00000100: b4dc debe 3244 f7be ed9e 923e 74c2 97ba
00000110: 36dd 243e 173a 8fbe 6a3d 873e cde5 0ebe
00000120: 6c63 073f bed5 7a3e d7f8 9abe 516c cbbd
00000130: 0f6a 053f 08d5 1e3e 716a 273f 1a70 2ebf
00000140: 27fb d63e e625 f1be 61f8 c63e 4bdb 343f
00000150: 3bf6 1bbf f9f9 66bd 7d0f cd3e 487b 083f
00000160: 082d a33d 0887 6bbe 2e93 13bf 5d75 053f
00000170: 049b 1ebd 5d58 c9be e6da 113e b882 033f
00000180: 1b2a 5ebe 1e1d a9be e671 1cbf 9e0a 343f
0.4095947 -0.29623675 -0.03340805 0.035550106 -0.22669327 -0.3434521 0.15817708 0.4626435
0.0911515 -0.2560524 -0.31390867 0.096731305 -0.5131186 -0.3165722 0.18135707 0.45287058
-0.19620614 -0.12996365 -0.5659952 0.4798911 0.24148102 -0.51160735 0.037443336 0.06061205
-0.2591866 -0.13320774 0.46727175 0.53330874 0.5633463 -0.7035386 0.4229801 -0.49688214
0.61474013 0.22579768 -0.49818468 -0.49162033 0.3890433 0.48000586 0.07717773 -0.2827283
-0.1034445 0.5536116 -0.07706767 0.013250778 0.022137687 0.22123998 -0.57936573 -0.54624295
0.025596784 0.014247836 -0.027372457 0.2289186 -0.634161 -0.5188611 0.19494744 0.39082083
-0.39840153 -0.041730415 -0.4387481 0.32230455 0.085369155 -0.16405593 0.17664388 0.5404553
-0.43527758 -0.48294216 0.28636876 -0.0011578337 0.1610001 -0.27974007 0.26414043 -0.1395485
0.5288608 0.24495599 -0.30267975 -0.09932769 0.5211496 0.15510952 0.6539679 -0.68139803
0.4198849 -0.47099227 0.38861373 0.70647115 -0.6092259 -0.056390736 0.4005088 0.5331311
0.079675734 -0.23000729 -0.57646453 0.5213221 -0.038722053 -0.39325228 0.1424366 0.51371336
-0.2169575 -0.33030027 -0.61111295 0.703287

rnn.bias_ih_l1 f4 [10]
00000000: 5539 d9be 54b6 1c3e 2b4c 013e 1aab 55bd
00000010: ded3 693e df0d 2b3d c412 ccbe 44b9 9bbb
00000020: 2f5e 2a3e 4642 98be
-0.42426553 0.15303928 0.12626712 -0.05216513 0.22834727 0.041761275 -0.39858067 -0.00475231
0.1663749 -0.29738063

rnn.bias_hh_l1 f4 [10]
00000000: 510d cdbe e303 503e fb33 a5bd 5147 633e
00000010: fed7 b63e 1d32 883e fceb 82bb e65b 9e3e
00000020: 3668 45bc cea4 87be
-0.40049222 0.20313983 -0.08066555 0.22195174 0.35711664 0.26600733 -0.0039954167 0.30929488
-0.012048772 -0.26492923

fc1.weight f4 [20, 10]
00000000: dabe 1c3e 809a 8f3e ddb9 f83d 9067 973d
00000010: a5fd ac3c 05be 77be bd8d 46bd 21fc 4f3e
00000020: bfa7 3abe 1c47 14be 9961 47bf 8b76 db3e
00000030: 84fa 5cbf 80e9 4fbf 1210 b53e 5d90 133f
00000040: ff70 5fbf 72cd 7abe 5c47 acbe 1c18 de3e
00000050: 8e48 32bf 18a2 4f3f 7529 1cbf ed07 07bf
00000060: 8a33 2f3f 2cff 0c3f e52e 5bbf 40aa 40bf
00000070: 127b 44bf 7356 053f 1994 0bbf 0f2f 013f
00000080: 78c7 08bf 6177 41bf f800 f33e 2991 8b3e
00000090: a412 11bf 79e3 06bf 7964 40bf bde9 5a3f
000000a0: 3da5 e93d fc8e f33d 082c 9abe 5f0f 9b3e
000000b0: 14d1 09be d083 9bba d782 7d3e eaa2 8f3e
000000c0: 03e6 7fbe d93e 96be 9de7 32bf 7dca 4e3f
000000d0: 8bc9 25bf 1e58 43bf e864 113f 3a03 183f
000000e0: a7a3 dfbe d946 53bf 9f94 0bbf 3c26 083f
000000f0: 9619 dd3d e818 8ebd 9f82 29be f019 7c3d
00000100: c2d1 703e b3bb 61bd 4dc6 ec3d 93eb cfbd
00000110: fca3 d8bd db83 63be 15f0 203e 7e8d 60be
00000120: bb11 863e 9460 c63d 1938 92bd 83cf 0f3d
00000130: 39be 36bd 5e56 8abe 8585 2b3e 5951 86be
00000140: 9bb0 8bbe 9ac1 1d3f 3a5c 48bf 7b88 29bf
00000150: 6caa 3d3f 678e ee3e 87e8 1abf a5c1 3ebe
00000160: 6847 dcbe e522 4b3f a860 84be 9554 4a3f
00000170: 282d b7be 477e 3cbf 9617 7a3e 4020 e23e
00000180: 8e11 5bbf ba50 29bf 65af 01bf 4461 a43e
00000190: 118c 463d 5e54 23be 3382 a63e 7a06 52be
000001a0: 8bdd b93d 3bd4 7bbe b843 083e 2acc 7c3e
000001b0: 36f2 c5bc d0dc 8ebe 24e1 4cbf f6cc 943e
000001c0: 751e 18bf 3d69 56bf 5855 083f d6c7 563f
000001d0: ecb2 3cbf 6404 46bf 37e1 25bf edf0 ce3e
000001e0: a228 10bf b89c f63e 339a 1ebf 379b 4ebf
000001f0: 7066 453f bd8d cc3e 43ad 1fbf 2009 74be
00000200: fcd8 babe 4b18 233f 2e42 0fbf 9632 c43e
00000210: 294b 55bf 5d3f f2be bcf3 173f 4755 983e
00000220: 4042 51bf 9981 d6be b5ae ccbe 59cd 213f
00000230: d296 8bbe f8c7 ef3e 711d 4fbf 845c 4bbf
00000240: f9a2 703e d9ca 403f 8f19 dbbe aaeb 5cbe
00000250: 8452 58bf c2b0 923e a0d8 d3bd dcf9 66be
00000260: 371a c9bd 95ac 65be 4808 39be 5206 80bd
00000270: 7ffe 9f3e 882e 223e 28d2 c8bd be0e a0be
00000280: 584e 2cbe 96a5 e03b 32a9 f5bc d98a 753d
00000290: 9df2 38bd d212 48be bbd6 a0be 9c7d 893e
000002a0: afea 233e bac7 9f3e da7b 4c3e b42f 6d3e
000002b0: 3790 03be 4a8c 473e e9b3 dfbd 42a8 683e
000002c0: 408d 3b3d 875d e53d 4872 95bd 73c3 023d
000002d0: 3256 2fbf b0b6 b83e 9c57 17bf 9668 33bf
000002e0: 6502 3a3f 4176 1b3f 273b bbbe 09d7 04bf
000002f0: 24a5 31bf fa4a 513f 4702 9bbd a4bc 863d
00000300: e4aa f0bd 6fe9 823e 9996 93be e9d7 473e
00000310: 7528 853e 9813 973e 0809 0abc 7086 be3d
0.15307179 0.28047562 0.121448256 0.073928 0.02111704 -0.2419358 -0.048475016 0.20311023
-0.18228053 -0.14480251 -0.778833 0.4286388 -0.86319757 -0.8121567 0.35363823 0.57642156
-0.87281793 -0.24492434 -0.33648193 0.4337777 -0.6964196 0.8110671 -0.6100076 -0.5274647
0.6843802 0.5507686 -0.8561843 -0.7525978 -0.7675029 0.52085036 -0.54522854 0.5046243
-0.53429365 -0.7557278 0.47461677 0.27259186 -0.5666907 -0.52690846 -0.7515331 0.85512906
0.1140847 0.118925065 -0.30111718 0.30285165 -0.13458663 -0.0011864845 0.24756943 0.2805398
-0.24990086 -0.29344824 -0.69884664 0.8077772 -0.64760655 -0.7630633 0.56794596 0.59379923
-0.43679544 -0.8252998 -0.5452365 0.5318334 0.10795896 -0.06938344 -0.16553734 0.061548173
0.23517516 -0.055110645 0.1156126 -0.10152354 -0.105781525 -0.22218268 0.15716584 -0.21928975
0.26185402 0.096863896 -0.07139606 0.035110008 -0.044615004 -0.27019018 0.16750152 -0.26233938
-0.27283177 0.6162354 -0.78265727 -0.6622388 0.7408817 0.4659302 -0.6051106 -0.18628557
-0.4302323 0.7935012 -0.25854993 0.7903531 -0.3577664 -0.73630184 0.2442306 0.4416523
-0.8557366 -0.66138804 -0.50658256 0.32105458 0.04847342 -0.15950152 0.3252121 -0.20510283
0.09075459 -0.24592678 0.13307083 0.24687257 -0.024163347 -0.27902842 -0.8003104 0.29062623
-0.59421474 -0.8375433 0.53255224 0.83898675 -0.73710513 -0.7735045 -0.64796776 0.40418187
-0.56312 0.48166442 -0.6195404 -0.8070559 0.7710943 0.39951888 -0.6237375 -0.23831606
-0.3649367 0.63708943 -0.5596036 0.38319844 -0.8331781 -0.47313967 0.59356284 0.2975256
-0.81741714 -0.4189575 -0.3997704 0.6320396 -0.27263504 0.46832252 -0.809043 -0.7943804
0.23499669 0.7530952 -0.42792937 -0.21574274 -0.8450091 0.2865048 -0.10344052 -0.22556251
-0.09819453 -0.22429116 -0.18069565 -0.062512055 0.31248853 0.15838063 -0.09805709 -0.31261247
-0.16826761 0.006855677 -0.029987905 0.05994687 -0.04515325 -0.1953843 -0.31413826 0.26853645
0.16007493 0.31207067 0.1996912 0.23162729 -0.12847982 0.1948711 -0.10922987 0.22720435
0.045789003 0.111994796 -0.07297188 0.031924676 -0.684909 0.3607688 -0.59118056 -0.7008146
0.72659904 0.60727316 -0.36568567 -0.5189062 -0.6939261 0.8175503 -0.07568794 0.06578949
-0.11751345 0.2556872 -0.28825834 0.19515957 0.2600743 0.29507136 -0.008425005 0.09302986

fc1.bias f4 [20]
00000000: 444c 90bd eced 233f a2fe 583f d1bc 483f
00000010: 0a3a 2b3e 687f ba3e 60f5 62be 1952 37be
00000020: d161 c73e 160e f33e 9c7e 213e 101f fc3e
00000030: cb76 563f c55c 333f 3a98 3d3f 4f3c d63d
00000040: 789a 173e 5b0b 28be 694c 013f 9837 aabd
-0.070457965 0.64034915 0.8476354 0.7841311 0.16721359 0.36425328 -0.22163916 -0.17902412
0.38941815 0.47471684 0.15770954 0.4924245 0.83775014 0.7006343 0.74060404 0.10460722
0.14805019 -0.16410582 0.5050722 -0.08311385

fc2.weight f4 [32, 20]
00000000: ffc8 40be 7588 213f 3acc 213f 998c c23e
00000010: f13a 53be a851 e23e 50fb 4ebe b162 ae3d
00000020: 9071 963e dc62 023f a505 b3bd bc9e 2d3f
00000030: 2fa4 e83e 0c26 143f e8b8 cb3e 9907 f23d
00000040: 25c9 973d 7427 663d c296 b83e dd96 b7bd
00000050: 4df1 43be f0f1 c3bb 3314 61bd 960c 1abe
00000060: c62f bbbc 04d4 563e e914 773d a4c1 2b3e
00000070: 3aa4 213c 682d 91bc 3411 ce3d 40b4 53bd
00000080: ead6 c6bd adec b0bb c2b0 ec3d 764b 313e
00000090: 6601 113e 826d 53be df75 58be 7250 53be
000000a0: 07bb acbc ed73 f63e 7c66 1f3f d1df 0a3f
000000b0: 969d 56bd d979 293f 6920 5e3e 4aed 593e
000000c0: 3673 093f ba70 363f c960 32be 0021 043f
000000d0: 30f7 173f a1a2 103f 3b6f 023f 17b4 5ebe
000000e0: 5d89 833d 52e6 3d3d f604 183f e492 30be
000000f0: 4e7c 0dbd 12ea 343e 5922 283e afd6 0fbe
00000100: fe8f 40be 2828 55be 4614 b5bd 981e 1ebe
00000110: 718e b8bc 9a5e 8d3d 5281 fabd 8c97 4dbe
00000120: 4767 bb3d ccf7 51bd 62b5 3d3e 5395 af3d
00000130: d3f9 d93c dadc afbd 00ba 69bd 93ec 74bc
00000140: 03a1 4f3c add3 2abd 45f4 0dbd 6a0e 0cbe
00000150: c889 f3bd 8866 44be c4d0 a03d b1b4 323e
00000160: 4267 523e 45db cbbd ea57 eaba 9b64 cc3c
00000170: 5909 ecbd ea35 13be f8cb 36be c7e0 d3bd
00000180: 1c64 573e 5540 36be da7d 23be 6153 8b3d
00000190: c369 a5bc 3f43 533d 4314 54be ccb6 fc3d
000001a0: 42ac 63be 9ab4 423e 8d6c c0bd eb30 1fbe
000001b0: c118 513d e112 01be 862a 4c3d 48c5 353e
000001c0: e0f2 0ebe eae4 88bd 3eda d7bd 8523 f1bd
000001d0: 469d b4bd 7aea f3bd 980a 56be 68a3 3abb
000001e0: 0631 64bd d23c 423f 734a c83e e3fe 303f
000001f0: 4663 d23c 24d4 263f aaa1 08bd aaea 84bd
00000200: a186 bc3e b71b 2e3f 02ad 06bc 9f8d 043f
00000210: 5779 163f 9bf5 133f e804 fc3e 757d edbd
00000220: 988a d7bd 87be a7bd af2f f63e dca4 f73d
00000230: 6e3a 823c 4f15 7a3b 9cb7 91bd 7850 e43d
00000240: 8ba8 d6bc 3f12 35bc 8d24 37be fd9e 2b3e
00000250: 2e74 84bc 71e9 5fbe 7a93 a4bd cf4e 12bc
00000260: 79b4 40be 40e3 80bd 92a1 2fbd 28c4 fb3d
00000270: 0883 393e d2d0 cf3d 69d4 903d 7f85 a1bd
00000280: 3d42 71bd 9f4c 08be 5bc9 42be 0861 9f3d
00000290: 673b 79bd db92 093e 567f 053d 87a0 bb3a
000002a0: 3689 0bbe 293a dbbd 919c 2f3d bad8 a53d
000002b0: 5bd1 0f3d bbba 1f3e 4016 9f3d e776 de3d
000002c0: 18a6 213e 5747 4c3d 0ceb 3ebd 2d9a cd3d
000002d0: 042f 583e ab16 61be 8bd2 13be 7623 f63c
000002e0: 51fe d23d 59a2 873d 23ac c03c 4717 c43c
000002f0: 4e26 b6bd 97ab 43be 1e35 0fbc 59c0 8fbc
00000300: cee8 263e 4fed cd3d 0cf8 fe3d 35c0 5fbd
00000310: 0e85 c4bd 27d6 2dbe 15b4 373e f7dd 5e3e
00000320: 96d2 e73d 2f44 7a3d bf3b 923c a8f9 f4b9
00000330: ace3 3a3e 316a 14be 5166 b13d 023b 35be
00000340: 5b82 ffba 02a3 453e ca24 20be 661f 2dbe
00000350: 212a 523e 1447 73bc 4810 21be 21bd 233e
00000360: ad18 0b3e 0fb2 6cbd 3530 efbd df80 133d
00000370: 2627 e0bd d5a8 2a3f 0443 a13e 376b 093f
00000380: 8f37 273e c994 003f b8e1 403d a22a 86bd
00000390: 8003 173f fa82 063f f52a 2c3e 8d9a e73e
000003a0: 92fd de3e e405 0d3f 0df3 163f 0559 96bd
000003b0: 0a32 c5bd 73fc 5dbe c4e7 1b3f fd34 43bd
000003c0: be03 1ebe 8ca2 a03d bbc9 16be 3544 3b3d
000003d0: ab32 613e 8007 00bd 2b17 80bd 5231 c03b
000003e0: fb81 6abd 7fe5 bbbd dac7 403e d1b4 febd
000003f0: 4907 13ba a320 dfbc 921a 0c3e 6169 a23d
-0.18826674 0.6309884 0.6320225 0.37997892 -0.20627953 0.44202924 -0.20213056 0.08514918
0.29383516 0.509321 -0.08741311 0.67820334 0.45437762 0.57870555 0.3978951 0.118178554
0.07411412 0.05618997 0.3605252 -0.08964322 -0.19135018 -0.005979769 -0.054950904 -0.15043864
-0.022849929 0.20979315 0.060322676 0.16773087 0.009865815 -0.017721847 0.10061875 -0.05168557
-0.0970896 -0.0053993077 0.115571514 0.17313942 0.1416069 -0.20647243 -0.21138714 -0.20636156
-0.021085275 0.4813532 0.62265754 0.54247767 -0.05239638 0.6620155 0.21692051 0.21281925
0.5369142 0.7126576 -0.17419733 0.51612854 0.59361553 0.5649815 0.50950974 -0.21748386
0.06422684 0.04636223 0.5938257 -0.17243534 -0.034542374 0.17667416 0.16419353 -0.14046739
-0.18804929 -0.208161 -0.088417575 -0.15441358 -0.022528859 0.069028094 -0.12231697 -0.20077342
0.09150558 -0.05126171 0.18526223 0.08573403 0.026608383 -0.08587046 -0.05706215 -0.014948982
0.0126726655 -0.041705776 -0.03465678 -0.13677374 -0.11891514 -0.19179738 0.07852319 0.17451741
0.20547202 -0.09953932 -0.0017878984 0.024950316 -0.115252204 -0.14376035 -0.17851245 -0.10345607
0.21034282 -0.17797978 -0.15965977 0.06803013 -0.020192033 0.051577803 -0.20710854 0.12339553
-0.2223368 0.19014207 -0.093957044 -0.15546004 0.051048998 -0.12604858 0.04984524 0.17751038
-0.13959837 -0.06684287 -0.10539673 -0.11774353 -0.0881906 -0.11909957 -0.20902479 -0.0028478745
-0.055710815 0.75874054 0.391193 0.69138926 0.025682103 0.6516745 -0.0333573 -0.06490071
0.36821464 0.6801104 -0.008219959 0.51778597 0.587789 0.5779664 0.49222493 -0.11596195
-0.105244815 -0.08190637 0.48083255 0.12091991 0.015897002 0.0038159674 -0.07115099 0.11148161
-0.026203414 -0.0110517135 -0.17885037 0.16759868 -0.01616868 -0.21866395 -0.080359414 -0.008929922
-0.18818845 -0.062933445 -0.042878695 0.12293273 0.1811639 0.10147251 0.07071764 -0.078867905
-0.05890106 -0.13310479 -0.19022124 0.07782179 -0.060847666 0.13434927 0.03259214 0.0014314809
-0.1362656 -0.107044525 0.042873923 0.08097978 0.035111766 0.15598576 0.07767916 0.108625226
0.15786016 0.049872722 -0.046610877 0.10039172 0.21111685 -0.21981303 -0.14435785 0.030046206
0.10302413 0.06622762 0.023519581 0.02393688 -0.08894025 -0.19108425 -0.0087406915 -0.017547773
0.16299745 0.10055029 0.12449655 -0.054626662 -0.09595691 -0.16976224 0.1793979 0.2176436
0.11319463 0.06110018 0.017850755 -0.00046725315 0.18250912 -0.14493634 0.086620934 -0.17698291
-0.0019493805 0.19300464 -0.15639034 -0.16906509 0.20523883 -0.014848489 -0.15728867 0.15990116
0.13583632 -0.057786997 -0.11679117 0.036011573 -0.10944967 0.6666387 0.3149644 0.5367922
0.16329788 0.5022703 0.047090262 -0.065511 0.58989716 0.52543604 0.16813262 0.452351
0.43552834 0.55087113 0.58964616 -0.07341198 -0.09628685 -0.21678333 0.6090052 -0.047657955
-0.15431115 0.07843503 -0.14725392 0.045719344 0.21991985 -0.031257153 -0.06254419 0.0058652544
-0.057252865 -0.09174632 0.18826237 -0.12436832 -0.00056086906 -0.027237242 0.13682011 0.07930256

fc2.bias f4 [32]
00000000: 3d01 113f 5b91 23be abbc 283f f5d0 d83c
00000010: e116 6d3d 4d67 253c 1061 223f 5e20 2bbe
00000020: 9ec9 0cbd 56b1 a9bd a167 07be d536 873e
00000030: a945 4fbe 02a5 133f 267d 2ebe 8da7 cf3c
00000040: 3331 043e 88d2 053f 0f80 5fbe 009a 8cbd
00000050: 53d1 273f 6596 b23e 7244 cd3e 7daa 9c3e
00000060: a9a6 203e 1ff3 353f 765d 2e3f 4b1e 18bd
00000070: b3ed be3e 9c30 d9bd 88ba 203f 3c37 253e
0.56642514 -0.15973417 0.65912884 0.026466826 0.057883147 0.01009543 0.63429356 -0.16711566
-0.034371965 -0.08285777 -0.13223125 0.2640902 -0.20241417 0.57673657 -0.17039928 0.02534845
0.12909393 0.5227437 -0.21826194 -0.06865311 0.6555378 0.34880367 0.40091282 0.30598822
0.15688576 0.710741 0.6811136 -0.037138265 0.37290725 -0.10604975 0.62784624 0.16134351

fc3.weight f4 [16, 32]
00000000: 52fb 8a3d e6be 1bbd 6e15 ebbd 3dfc 233e
00000010: 72fc 133e 83f2 03bd f500 fc3d 4737 2dbe
00000020: bf93 e0bd 9d18 fcbd d1a5 df3d eb89 c53c
00000030: 74af 783d b46a 70bd b000 463d 6dd0 143e
00000040: a1c7 183e 0b01 e43b 2bdb 48bd 937c 93bd
00000050: ab7f acba 35f5 a5bd 19b4 273d 577d 43bd
00000060: b0d5 70bd bdf5 77bd 8afb 98bd eda7 ccbc
00000070: 0e4e b6bd 8133 0d3d 9b82 adbb 6f54 b13d
00000080: bfd5 07be 8c0e 013e d3cd aa3d cc16 a8bd
00000090: d6ce d1bd bb8d c83d 872c 873d bf7c 1a3c
000000a0: 7f64 fdbd 60d5 973d ea57 00bd 484c cbbd
000000b0: a2ea 23bc 6379 0abd d6dd 3fbd 734a fc3d
000000c0: 5dc4 623d 0f1b aeb9 4c90 d23d 54c2 ba3d
000000d0: cac5 3fbd 7a78 e23d 4e44 febd 18f8 0f3e
000000e0: 933a d53d e1be eebd 59ea c9bd c382 9d3b
000000f0: 7239 fc3d 3d32 153d f5c1 943a 11c8 05be
00000100: 9b03 0b3f 4758 9abd 2575 083f 8a5f e8bc
00000110: faa6 28be e363 ff3d 28ea 2c3f d6e3 2f3e
00000120: 12e2 233e db85 09be 5c3b 2dbe da33 e93e
00000130: 463a f33c 18e7 223f 2502 713d 2a3d d1bd
00000140: b95f abbc 880b 243f 831d a239 dfc3 1a3e
00000150: 44af 323f f444 f03e 6c4e 0f3f 5096 033f
00000160: 4898 303e bc36 bc3e 403e 323f 2522 933b
00000170: 35c2 dc3e 83f5 01be 4286 123f 7f53 11bd
00000180: 0be4 e33e 0c20 773d b90e 2e3f fefe 303d
00000190: 120c 113e 2921 21bd aa14 303f 08c6 17be
000001a0: 3af4 c4bd d22c 98bd bd7d 62bd 5c06 1c3f
000001b0: f881 2ebd ef76 c13e ee19 4d3c e3d7 b93c
000001c0: bf70 293e 01c8 2b3f 1855 703c cd17 2c3e
000001d0: be35 eb3e 30f3 283f 51e1 c13e 88b8 103f
000001e0: 7dc9 f3bd 09b3 2b3f 832f 073f 215e acbc
000001f0: a81d 303f 91d2 c9bd b19d 133f 4bc9 d9bc
00000200: bb21 a6bd 0baa 123d d81a adbd d230 9a3a
00000210: 8906 dc3c ca54 0abc ed5a 9cbc 4a49 d8b9
00000220: 9c7a 7ebd 2e55 92bd 9e9e ef3d 7b59 59bd
00000230: 17b9 77bd 6df4 053d 9ca5 18be 7c08 afbd
00000240: 2ae9 853d 7bd1 5f3d 9785 93bd c973 11be
00000250: 8409 d0bd 8550 06be 03a8 27bd 38cd 2e3e
00000260: 9218 fdbd 8f83 dcbc 7d8d 11be 1fef e4bd
00000270: 0a31 92bc 9f69 b33d acef ea39 c3ea 01be
00000280: 42a8 d33e 62cc ff3d 59c0 2b3f 6112 563d
00000290: aba5 c0bd 1718 22be 8fdd 323f 5d0a 4ebc
000002a0: f93a 50bd ebcd b7bc 697f ca3c d32c d93e
000002b0: f135 6bbc 73fa 3c3f 9185 003d 4b71 023e
000002c0: 18c1 c43d f25f e03e 0b28 093e 023c b2bc
000002d0: 0faa 173f 0ae7 383f d15c 353f 62c4 1a3f
000002e0: 636a 5d3d 2f42 cf3e 87b0 2f3f a714 fbbc
000002f0: c3db 0c3f 3d35 383e fbf9 eb3e a994 f4bd
00000300: 0f50 103e 75de 0f3e 3071 4dbd 0d01 0c3e
00000310: 3f2a 96bd 7299 aebd 39b9 c9bd b8fa 8e3c
00000320: e863 083e 55ea 363d f766 ac3d 7324 89bd
00000330: 1f36 d8bd 0009 2c3e 6b18 97bc 9268 81bd
00000340: 3548 25bd 6598 04be b673 b53d 8ed3 ad3d
00000350: 5b4a a4bd c4b7 d13d fcb3 0cbe 172b 03be
00000360: e24e 75bd 15c5 bebc 9656 37bd 0fe1 27be
00000370: a57a a53d 3c47 08ba e066 acbd 7a5d 51bd
00000380: da9e c1bd 83b7 983d 07eb b63d 9463 5a3d
00000390: 3efc bfbd 29b9 04be bf8d abbd 38c4 903d
000003a0: 6131 c3bc c74a c2bc ff30 a73b 3594 3dbd
000003b0: 931b db3d 5823 0c3d 050a eebd be3d aebd
000003c0: c504 49bc 8b13 073d c66d 8abd 958f 0dbe
000003d0: 1b3a 20be 8edc efbb e165 863d b562 0ebe
000003e0: 33c4 513b 9783 b1bd 6455 14be 9faa dfbd
000003f0: 3830 cabd d321 663d 243e db3b 7a49 40bd
0.06786217 -0.03802385 -0.11478697 0.1601419 0.14451769 -0.0322137 0.1230487 -0.16915618
-0.1096568 -0.12309382 0.10920299 0.024113616 0.0607142 -0.05869551 0.0483405 0.14532633
0.14919902 0.006958132 -0.04903714 -0.07201495 -0.0013160607 -0.0810341 0.04094324 -0.047726955
-0.05879754 -0.06053709 -0.07469852 -0.024982417 -0.089016065 0.034472946 -0.0052951104 0.086586826
-0.13265131 0.12603205 0.08340039 -0.08207473 -0.10244529 0.09792658 0.0660029 0.009429156
-0.12372684 0.07413745 -0.03133384 -0.09926659 -0.010004671 -0.03380717 -0.04684242 0.123188876
0.055363048 -0.00033208026 0.10281429 0.091190964 -0.046819486 0.11058135 -0.12415372 0.14059484
0.10411563 -0.11657501 -0.098591514 0.004806848 0.12315644 0.036424864 0.0011349308 -0.130646
0.54302377 -0.07536369 0.5330375 -0.02836587 -0.16469947 0.12470224 0.67544794 0.17176756
0.16004208 -0.13429968 -0.16917175 0.45547372 0.029690873 0.6363387 0.058839936 -0.10216744
-0.020919668 0.64080095 0.00030921036 0.15113781 0.69798684 0.46927607 0.5597904 0.51401234
0.1724559 0.3676051 0.69626236 0.0044901543 0.43116918 -0.12691312 0.5723611 -0.03548002
0.4450992 0.060333297 0.67991215 0.04321193 0.1416476 -0.039338265 0.6878153 -0.14821637
-0.09616895 -0.07430424 -0.055295695 0.60947204 -0.042604417 0.37786052 0.012518389 0.02268595
0.16546915 0.67102057 0.014668725 0.16805954 0.4593944 0.65996075 0.37867215 0.5653157
-0.11903665 0.6707006 0.5280687 -0.021040978 0.6879525 -0.098546155 0.57662493 -0.026585242
-0.08111902 0.035806697 -0.08452386 0.0011763817 0.026858585 -0.008443067 -0.019086326 -0.00041253335
-0.06212865 -0.07145153 0.11700176 -0.05306385 -0.06047925 0.032703806 -0.14906925 -0.0854654
0.06538613 0.054643136 -0.072032146 -0.14204325 -0.10158065 -0.13116653 -0.040931713 0.17070472
-0.12358202 -0.0269182 -0.1421413 -0.11178421 -0.01784565 0.0876038 0.00044810527 -0.1268721
0.41339308 0.12490155 0.67090374 0.05226362 -0.09406599 -0.15829502 0.6986932 -0.012575713
-0.05083749 -0.022437057 0.024718957 0.4241701 -0.014356122 0.73819655 0.03137738 0.1273853
0.09607142 0.438232 0.13394181 -0.02175713 0.59243864 0.7222754 0.7084475 0.60455906
0.054056536 0.40480182 0.68628734 -0.030649496 0.5502283 0.17989059 0.46089157 -0.11942417
0.1409304 0.14049704 -0.050156772 0.13672276 -0.073322766 -0.08525361 -0.098497815 0.017453536
0.13319361 0.04465707 0.084180765 -0.06696405 -0.10557198 0.16800308 -0.01844426 -0.06318773
-0.040352065 -0.12948759 0.08859961 0.084876165 -0.08021995 0.10240129 -0.13740534 -0.12809406
-0.05988968 -0.023287335 -0.04476031 -0.16394447 0.08080033 -0.0005198603 -0.08418059 -0.051114537
-0.09454127 0.07456877 0.08931547 0.05331762 -0.09374283 -0.12961258 -0.08376645 0.07068676
-0.023827257 -0.023717297 0.0051022763 -0.04628392 0.10698619 0.034213394 -0.11623005 -0.0850787
-0.012269204 0.032977622 -0.06759219 -0.13824303 -0.15647165 -0.0073199933 0.065624006 -0.13904841
0.0032007813 -0.08667677 -0.14485699 -0.10921215 -0.09872478 0.0561846 0.0066907573 -0.046945073

fc3.bias f4 [16]
00000000: 5dd9 633d d693 033c f259 043f 91d6 933e
00000010: 7db2 6ebc accd 093f 54ce fdbd f5c9 bd3d
00000020: 77c3 b03e a2ac b83e c90d e8bd f234 14be
00000030: 41f7 b7bd 5c39 28be aca2 c73d b1a7 253b
0.055627216 0.008030852 0.51699746 0.2887464 -0.014568922 0.53829455 -0.123928696 0.09267036
0.34524128 0.36069208 -0.11330754 -0.14473322 -0.08982707 -0.16428131 0.09747824 0.0025276954

output.weight f4 [1, 16]
00000000: 9060 04be 80a7 3bbe 262c 353f 671a 3e3f
00000010: fc1c bd3d 76c6 163f 4438 cebd 83ab 04be
00000020: 3280 263f d966 2d3f bed7 0cbe b45a 98bd
00000030: 80da 163c 00e8 0c3e c2ef 03be 7a2a 52be
-0.1292746 -0.18325615 0.7077049 0.74259037 0.09234044 0.5889658 -0.100693256 -0.12956052
0.6503936 0.6773506 -0.13754174 -0.07439175 0.009207368 0.13760376 -0.12884429 -0.20524016

exp_avg f4 [10, 6]
00000000: 0000 0000 0000 0000 0000 0000 0000 0000
00000010: 0000 0000 0000 0000 0000 0000 0000 0000
00000020: 0000 0000 0000 0000 0000 0000 0000 0000
00000030: 0000 0000 0000 0000 0000 0000 0000 0000
00000040: 0000 0000 0000 0000 0000 0000 0000 0000
00000050: 0000 0000 0000 0000 0000 0000 0000 0000
00000060: 0000 0000 0000 0000 0000 0000 0000 0000
00000070: 0000 0000 0000 0000 0000 0000 0000 0000
00000080: 0000 0000 0000 0000 0000 0000 0000 0000
00000090: 0000 0000 0000 0000 0000 0000 0000 0000
000000a0: 0000 0000 0000 0000 0000 0000 0000 0000
000000b0: 0000 0000 0000 0000 0000 0000 0000 0000
000000c0: 0000 0000 0000 0000 0000 0000 0000 0000
000000d0: 0000 0000 0000 0000 0000 0000 0000 0000
000000e0: 0000 0000 0000 0000 0000 0000 0000 0000
0.0 0.0 0.0 0.0 0.0 0.0 0.0 0.0
0.0 0.0 0.0 0.0 0.0 0.0 0.0 0.0
0.0 0.0 0.0 0.0 0.0 0.0 0.0 0.0
0.0 0.0 0.0 0.0 0.0 0.0 0.0 0.0
0.0 0.0 0.0 0.0 0.0 0.0 0.0 0.0
0.0 0.0 0.0 0.0 0.0 0.0 0.0 0.0
0.0 0.0 0.0 0.0 0.0 0.0 0.0 0.0
0.0 0.0 0.0 0.0

exp_avg_sq f4 [10, 6]
00000000: 0000 0000 0000 0000 0000 0000 0000 0000
00000010: 0000 0000 0000 0000 0000 0000 0000 0000
00000020: 0000 0000 0000 0000 0000 0000 0000 0000
00000030: 0000 0000 0000 0000 0000 0000 0000 0000
00000040: 0000 0000 0000 0000 0000 0000 0000 0000
00000050: 0000 0000 0000 0000 0000 0000 0000 0000
00000060: 0000 0000 0000 0000 0000 0000 0000 0000
00000070: 0000 0000 0000 0000 0000 0000 0000 0000
00000080: 0000 0000 0000 0000 0000 0000 0000 0000
00000090: 0000 0000 0000 0000 0000 0000 0000 0000
000000a0: 0000 0000 0000 0000 0000 0000 0000 0000
000000b0: 0000 0000 0000 0000 0000 0000 0000 0000
000000c0: 0000 0000 0000 0000 0000 0000 0000 0000
000000d0: 0000 0000 0000 0000 0000 0000 0000 0000
000000e0: 0000 0000 0000 0000 0000 0000 0000 0000
0.0 0.0 0.0 0.0 0.0 0.0 0.0 0.0
0.0 0.0 0.0 0.0 0.0 0.0 0.0 0.0
0.0 0.0 0.0 0.0 0.0 0.0 0.0 0.0
0.0 0.0 0.0 0.0 0.0 0.0 0.0 0.0
0.0 0.0 0.0 0.0 0.0 0.0 0.0 0.0
0.0 0.0 0.0 0.0 0.0 0.0 0.0 0.0
0.0 0.0 0.0 0.0 0.0 0.0 0.0 0.0
0.0 0.0 0.0 0.0

exp_avg f4 [10, 10]
00000000: 0000 0000 0000 0000 0000 0000 0000 0000
00000010: 0000 0000 0000 0000 0000 0000 0000 0000
00000020: 0000 0000 0000 0000 0000 0000 0000 0000
00000030: 0000 0000 0000 0000 0000 0000 0000 0000
00000040: 0000 0000 0000 0000 0000 0000 0000 0000
00000050: 0000 0000 0000 0000 0000 0000 0000 0000
00000060: 0000 0000 0000 0000 0000 0000 0000 0000
00000070: 0000 0000 0000 0000 0000 0000 0000 0000
00000080: 0000 0000 0000 0000 0000 0000 0000 0000
00000090: 0000 0000 0000 0000 0000 0000 0000 0000
000000a0: 0000 0000 0000 0000 0000 0000 0000 0000
000000b0: 0000 0000 0000 0000 0000 0000 0000 0000
000000c0: 0000 0000 0000 0000 0000 0000 0000 0000
000000d0: 0000 0000 0000 0000 0000 0000 0000 0000
000000e0: 0000 0000 0000 0000 0000 0000 0000 0000
000000f0: 0000 0000 0000 0000 0000 0000 0000 0000
00000100: 0000 0000 0000 0000 0000 0000 0000 0000
00000110: 0000 0000 0000 0000 0000 0000 0000 0000
00000120: 0000 0000 0000 0000 0000 0000 0000 0000
00000130: 0000 0000 0000 0000 0000 0000 0000 0000
00000140: 0000 0000 0000 0000 0000 0000 0000 0000
00000150: 0000 0000 0000 0000 0000 0000 0000 0000
00000160: 0000 0000 0000 0000 0000 0000 0000 0000
00000170: 0000 0000 0000 0000 0000 0000 0000 0000
00000180: 0000 0000 0000 0000 0000 0000 0000 0000
0.0 0.0 0.0 0.0 0.0 0.0 0.0 0.0
0.0 0.0 0.0 0.0 0.0 0.0 0.0 0.0
0.0 0.0 0.0 0.0 0.0 0.0 0.0 0.0
0.0 0.0 0.0 0.0 0.0 0.0 0.0 0.0
0.0 0.0 0.0 0.0 0.0 0.0 0.0 0.0
0.0 0.0 0.0 0.0 0.0 0.0 0.0 0.0
0.0 0.0 0.0 0.0 0.0 0.0 0.0 0.0
0.0 0.0 0.0 0.0 0.0 0.0 0.0 0.0
0.0 0.0 0.0 0.0 0.0 0.0 0.0 0.0
0.0 0.0 0.0 0.0 0.0 0.0 0.0 0.0
0.0 0.0 0.0 0.0 0.0 0.0 0.0 0.0
0.0 0.0 0.0 0.0 0.0 0.0 0.0 0.0
0.0 0.0 0.0 0.0

exp_avg_sq f4 [10, 10]
00000000: 0000 0000 0000 0000 0000 0000 0000 0000
00000010: 0000 0000 0000 0000 0000 0000 0000 0000
00000020: 0000 0000 0000 0000 0000 0000 0000 0000
00000030: 0000 0000 0000 0000 0000 0000 0000 0000
00000040: 0000 0000 0000 0000 0000 0000 0000 0000
00000050: 0000 0000 0000 0000 0000 0000 0000 0000
00000060: 0000 0000 0000 0000 0000 0000 0000 0000
00000070: 0000 0000 0000 0000 0000 0000 0000 0000
00000080: 0000 0000 0000 0000 0000 0000 0000 0000
00000090: 0000 0000 0000 0000 0000 0000 0000 0000
000000a0: 0000 0000 0000 0000 0000 0000 0000 0000
000000b0: 0000 0000 0000 0000 0000 0000 0000 0000
000000c0: 0000 0000 0000 0000 0000 0000 0000 0000
000000d0: 0000 0000 0000 0000 0000 0000 0000 0000
000000e0: 0000 0000 0000 0000 0000 0000 0000 0000
000000f0: 0000 0000 0000 0000 0000 0000 0000 0000
00000100: 0000 0000 0000 0000 0000 0000 0000 0000
00000110: 0000 0000 0000 0000 0000 0000 0000 0000
00000120: 0000 0000 0000 0000 0000 0000 0000 0000
00000130: 0000 0000 0000 0000 0000 0000 0000 0000
00000140: 0000 0000 0000 0000 0000 0000 0000 0000
00000150: 0000 0000 0000 0000 0000 0000 0000 0000
00000160: 0000 0000 0000 0000 0000 0000 0000 0000
00000170: 0000 0000 0000 0000 0000 0000 0000 0000
00000180: 0000 0000 0000 0000 0000 0000 0000 0000
0.0 0.0 0.0 0.0 0.0 0.0 0.0 0.0
0.0 0.0 0.0 0.0 0.0 0.0 0.0 0.0
0.0 0.0 0.0 0.0 0.0 0.0 0.0 0.0
0.0 0.0 0.0 0.0 0.0 0.0 0.0 0.0
0.0 0.0 0.0 0.0 0.0 0.0 0.0 0.0
0.0 0.0 0.0 0.0 0.0 0.0 0.0 0.0
0.0 0.0 0.0 0.0 0.0 0.0 0.0 0.0
0.0 0.0 0.0 0.0 0.0 0.0 0.0 0.0
0.0 0.0 0.0 0.0 0.0 0.0 0.0 0.0
0.0 0.0 0.0 0.0 0.0 0.0 0.0 0.0
0.0 0.0 0.0 0.0 0.0 0.0 0.0 0.0
0.0 0.0 0.0 0.0 0.0 0.0 0.0 0.0
0.0 0.0 0.0 0.0

exp_avg f4 [10]
00000000: 0000 0000 0000 0000 0000 0000 0000 0000
00000010: 0000 0000 0000 0000 0000 0000 0000 0000
00000020: 0000 0000 0000 0000
0.0 0.0 0.0 0.0 0.0 0.0 0.0 0.0
0.0 0.0

exp_avg_sq f4 [10]
00000000: 0000 0000 0000 0000 0000 0000 0000 0000
00000010: 0000 0000 0000 0000 0000 0000 0000 0000
00000020: 0000 0000 0000 0000
0.0 0.0 0.0 0.0 0.0 0.0 0.0 0.0
0.0 0.0

exp_avg f4 [10]
00000000: 0000 0000 0000 0000 0000 0000 0000 0000
00000010: 0000 0000 0000 0000 0000 0000 0000 0000
00000020: 0000 0000 0000 0000
0.0 0.0 0.0 0.0 0.0 0.0 0.0 0.0
0.0 0.0

exp_avg_sq f4 [10]
00000000: 0000 0000 0000 0000 0000 0000 0000 0000
00000010: 0000 0000 0000 0000 0000 0000 0000 0000
00000020: 0000 0000 0000 0000
0.0 0.0 0.0 0.0 0.0 0.0 0.0 0.0
0.0 0.0

exp_avg f4 [10, 10]
00000000: e6cb c5c2 e6cb c5c2 e6cb c5c2 e6cb c542
00000010: e6cb c5c2 e6cb c542 e6cb c5c2 e6cb c542
00000020: e6cb c542 e6cb c5c2 e202 e343 e202 e343
00000030: e202 e343 e202 e3c3 e202 e343 e202 e3c3
00000040: e202 e343 e202 e3c3 e202 e3c3 e202 e343
00000050: f2d9 8ec4 f2d9 8ec4 f2d9 8ec4 f2d9 8e44
00000060: f2d9 8ec4 f2d9 8e44 f2d9 8ec4 f2d9 8e44
00000070: f2d9 8e44 f2d9 8ec4 f271 4dc4 f271 4dc4
00000080: f271 4dc4 f271 4d44 f271 4dc4 f271 4d44
00000090: f271 4dc4 f271 4d44 f271 4d44 f271 4dc4
000000a0: 71dc 6e41 71dc 6e41 71dc 6e41 71dc 6ec1
000000b0: 71dc 6e41 71dc 6ec1 71dc 6e41 71dc 6ec1
000000c0: 71dc 6ec1 71dc 6e41 a730 0543 a730 0543
000000d0: a730 0543 a730 05c3 a730 0543 a730 05c3
000000e0: a730 0543 a730 05c3 a730 05c3 a730 0543
000000f0: 2801 28c3 2801 28c3 2801 28c3 2801 2843
00000100: 2801 28c3 2801 2843 2801 28c3 2801 2843
00000110: 2801 2843 2801 28c3 57f3 4fc4 57f3 4fc4
00000120: 57f3 4fc4 57f3 4f44 57f3 4fc4 57f3 4f44
00000130: 57f3 4fc4 57f3 4f44 57f3 4f44 57f3 4fc4
00000140: 6c3b acc4 6c3b acc4 6c3b acc4 6c3b ac44
00000150: 6c3b acc4 6c3b ac44 6c3b acc4 6c3b ac44
00000160: 6c3b ac44 6c3b acc4 75cd c344 75cd c344
00000170: 75cd c344 75cd c3c4 75cd c344 75cd c3c4
00000180: 75cd c344 75cd c3c4 75cd c3c4 75cd c344
-98.89824 -98.89824 -98.89824 98.89824 -98.89824 98.89824 -98.89824 98.89824
98.89824 -98.89824 454.02252 454.02252 454.02252 -454.02252 454.02252 -454.02252
454.02252 -454.02252 -454.02252 454.02252 -1142.8108 -1142.8108 -1142.8108 1142.8108
-1142.8108 1142.8108 -1142.8108 1142.8108 1142.8108 -1142.8108 -821.7804 -821.7804
-821.7804 821.7804 -821.7804 821.7804 -821.7804 821.7804 821.7804 -821.7804
14.928819 14.928819 14.928819 -14.928819 14.928819 -14.928819 14.928819 -14.928819
-14.928819 14.928819 133.19005 133.19005 133.19005 -133.19005 133.19005 -133.19005
133.19005 -133.19005 -133.19005 133.19005 -168.00452 -168.00452 -168.00452 168.00452
-168.00452 168.00452 -168.00452 168.00452 168.00452 -168.00452 -831.8022 -831.8022
-831.8022 831.8022 -831.8022 831.8022 -831.8022 831.8022 831.8022 -831.8022
-1377.8569 -1377.8569 -1377.8569 1377.8569 -1377.8569 1377.8569 -1377.8569 1377.8569
1377.8569 -1377.8569 1566.4205 1566.4205 1566.4205 -1566.4205 1566.4205 -1566.4205
1566.4205 -1566.4205 -1566.4205 1566.4205

exp_avg_sq f4 [10, 10]
00000000: e1ab 0346 e1ab 0346 e1ab 0346 e1ab 0346
00000010: e1ab 0346 e1ab 0346 e1ab 0346 e1ab 0346
00000020: e1ab 0346 e1ab 0346 b0e3 f449 b0e3 f449
00000030: b0e3 f449 b0e3 f449 b0e3 f449 b0e3 f449
00000040: b0e3 f449 b0e3 f449 b0e3 f449 b0e3 f449
00000050: 3705 764a 3705 764a 3705 764a 3705 764a
00000060: 3705 764a 3705 764a 3705 764a 3705 764a
00000070: 3705 764a 3705 764a fff8 544a fff8 544a
00000080: fff8 544a fff8 544a fff8 544a fff8 544a
00000090: fff8 544a fff8 544a fff8 544a fff8 544a
000000a0: c1a1 6a43 c1a1 6a43 c1a1 6a43 c1a1 6a43
000000b0: c1a1 6a43 c1a1 6a43 c1a1 6a43 c1a1 6a43
000000c0: c1a1 6a43 c1a1 6a43 183e 3848 183e 3848
000000d0: 183e 3848 183e 3848 183e 3848 183e 3848
000000e0: 183e 3848 183e 3848 183e 3848 183e 3848
000000f0: e154 0b47 e154 0b47 e154 0b47 e154 0b47
00000100: e154 0b47 e154 0b47 e154 0b47 e154 0b47
00000110: e154 0b47 e154 0b47 495b 6c4a 495b 6c4a
00000120: 495b 6c4a 495b 6c4a 495b 6c4a 495b 6c4a
00000130: 495b 6c4a 495b 6c4a 495b 6c4a 495b 6c4a
00000140: 43a4 8f4a 43a4 8f4a 43a4 8f4a 43a4 8f4a
00000150: 43a4 8f4a 43a4 8f4a 43a4 8f4a 43a4 8f4a
00000160: 43a4 8f4a 43a4 8f4a 8c28 ae4a 8c28 ae4a
00000170: 8c28 ae4a 8c28 ae4a 8c28 ae4a 8c28 ae4a
00000180: 8c28 ae4a 8c28 ae4a 8c28 ae4a 8c28 ae4a
8426.97 8426.97 8426.97 8426.97 8426.97 8426.97 8426.97 8426.97
8426.97 8426.97 2.006134e+06 2.006134e+06 2.006134e+06 2.006134e+06 2.006134e+06 2.006134e+06
2.006134e+06 2.006134e+06 2.006134e+06 2.006134e+06 4.0307978e+06 4.0307978e+06 4.0307978e+06 4.0307978e+06
4.0307978e+06 4.0307978e+06 4.0307978e+06 4.0307978e+06 4.0307978e+06 4.0307978e+06 3.4893438e+06 3.4893438e+06
3.4893438e+06 3.4893438e+06 3.4893438e+06 3.4893438e+06 3.4893438e+06 3.4893438e+06 3.4893438e+06 3.4893438e+06
234.63185 234.63185 234.63185 234.63185 234.63185 234.63185 234.63185 234.63185
234.63185 234.63185 188664.38 188664.38 188664.38 188664.38 188664.38 188664.38
188664.38 188664.38 188664.38 188664.38 35668.88 35668.88 35668.88 35668.88
35668.88 35668.88 35668.88 35668.88 35668.88 35668.88 3.8724662e+06 3.8724662e+06
3.8724662e+06 3.8724662e+06 3.8724662e+06 3.8724662e+06 3.8724662e+06 3.8724662e+06 3.8724662e+06 3.8724662e+06
4.7068495e+06 4.7068495e+06 4.7068495e+06 4.7068495e+06 4.7068495e+06 4.7068495e+06 4.7068495e+06 4.7068495e+06
4.7068495e+06 4.7068495e+06 5.706822e+06 5.706822e+06 5.706822e+06 5.706822e+06 5.706822e+06 5.706822e+06
5.706822e+06 5.706822e+06 5.706822e+06 5.706822e+06

exp_avg f4 [10, 10]
00000000: fd84 cec2 139b ce42 9eb6 cec2 cb16 cfc2
00000010: c193 ce42 e39a ce42 0281 cec2 6cda cec2
00000020: f4be cec2 61e6 ce42 b34c 0644 1094 09c4
00000030: f12a 0d44 bffb 0e44 f439 06c4 9f5c 07c4
00000040: ba7f 0644 21d3 0d44 4415 1044 1234 11c4
00000050: 1fd9 99c4 37b0 9c44 bdd3 9fc4 7cf4 a0c4
00000060: 43cd 9944 f3c4 9a44 ed01 9ac4 4790 a0c4
00000070: f209 a2c4 4b8b a344 e4b6 61c4 a415 6444
00000080: 36b3 66c4 6af6 67c4 d1b3 6144 9683 6244
00000090: 2dd7 61c4 7153 67c4 409f 68c4 26c5 6944
000000a0: 5208 7741 70ec 76c1 ecd1 7641 e830 7741
000000b0: be1b 77c1 a611 77c1 2d00 7741 37f1 7641
000000c0: 13af 7641 85c6 76c1 3927 2043 bac9 23c3
000000d0: f6c2 2743 c5e8 2943 ee12 20c3 0f56 21c3
000000e0: 0b60 2043 a076 2843 c30f 2b43 3e31 2cc3
000000f0: e09b 33c3 6e01 3443 5772 34c3 d503 35c3
00000100: a6a5 3343 0bc9 3343 259e 33c3 f599 34c3
00000110: e1d0 34c3 bcf7 3443 143a 66c4 99dd 6b44
00000120: ac12 72c4 daa9 74c4 6a1b 6644 fa0a 6844
00000130: 4a8f 66c4 085b 73c4 70c5 76c4 143e 7944
00000140: 50ae b5c4 6f4e b844 7830 bbc4 49b9 bcc4
00000150: 01a5 b544 398d b644 06d5 b5c4 9fc5 bbc4
00000160: 3d7c bdc4 6578 be44 b0eb cb44 fc44 cfc4
00000170: 7efb d244 4349 d444 96df cbc4 ee02 cdc4
00000180: de1a cc44 4ae2 d344 c68d d544 4b6a d7c4
-103.25974 103.30288 -103.356674 -103.54452 103.28858 103.30251 -103.25197 -103.426605
-103.372955 103.44996 537.1984 -550.3135 564.67096 571.93353 -536.9055 -541.4472
537.9957 567.2989 576.3323 -580.8136 -1230.785 1253.5067 -1278.6168 -1287.6401
1230.4144 1238.1547 -1232.0602 -1284.5087 -1296.3108 1308.3529 -902.85767 912.33813
-922.8002 -927.8502 902.80963 906.056 -903.3621 -925.3038 -930.4883 935.08044
15.439531 -15.432724 15.42625 15.44944 -15.444273 -15.441809 15.437543 15.43389
15.417743 -15.423467 160.15321 -163.788 167.76157 169.90926 -160.07394 -161.33617
160.37517 168.46338 171.06157 -172.19235 -179.60889 180.00558 -180.44664 -181.01497
179.64706 179.78532 -179.61775 -180.6014 -180.81593 180.96771 -920.9075 943.46246
-968.29175 -978.65393 920.42834 928.1715 -922.2389 -973.42236 -987.08496 996.97
-1453.4473 1474.451 -1497.5146 -1509.7902 1453.1564 1460.4132 -1454.657 -1502.1757
-1515.8824 1523.7623 1631.3652 -1658.1558 1687.8591 1698.2894 -1630.987 -1640.0916
1632.8396 1695.0715 1708.4304 -1723.3217

exp_avg_sq f4 [10, 10]
00000000: ec85 2045 c132 2845 fe33 2645 6e95 2845
00000010: 2351 2a45 d640 2d45 bfe4 2645 84fe 2945
00000020: ac0e 1945 39fd 2445 0b1c f947 3077 3947
00000030: 67af 9146 13d7 ca46 2d3c 0048 00ee bd47
00000040: 8be8 eb47 3ced 9e46 2403 2a47 f764 7e47
00000050: 78ca 0349 82e3 6a48 1b41 cb47 cfc0 d247
00000060: 560d 0749 5344 d248 b9ff fb48 ed28 d147
00000070: d14b 1a48 f449 7848 cf4a 1848 d0f9 c147
00000080: 83a4 9047 a485 9147 caca 1a48 cbfa 0348
00000090: 27e0 1348 717c 9147 1d88 a147 b91d c147
000000a0: dafb f442 945c 0343 c5f0 0243 f108 0543
000000b0: 751e 0343 3568 0643 c860 0043 3116 0643
000000c0: 1267 ef42 4935 0243 5034 1a46 ab9e 6c45
000000d0: 2705 d144 b95e 1145 adba 1e46 d41a ec45
000000e0: 9a19 1246 b9bb e144 c3bb 6645 4ccf a345
000000f0: 34f7 7845 46e2 6b45 37bd 6045 f6f9 6045
00000100: fd48 7f45 ebea 7945 5f23 7b45 42b2 6245
00000110: b427 5945 b515 6345 2cec dc48 b3e4 2b48
00000120: 7b2b 5a47 b552 8547 7626 e348 6e47 ab48
00000130: d6eb d148 2b6b 6947 075d f247 422d 4b48
00000140: bd9f 0849 fa73 9748 d4cb 4748 2e5a 5348
00000150: 7c7c 0b49 d113 e448 cc96 0349 980d 4b48
00000160: b48c 8048 dcf0 a048 5ec0 8249 faae 0149
00000170: 3b2c 5d48 924e 5648 2cd1 8549 4f13 5749
00000180: 5a1b 7b49 1399 5e48 6dbd 9848 3428 eb48
2568.37 2691.172 2659.2495 2697.3394 2725.071 2772.0522 2670.2966 2719.9072
2448.917 2639.8264 127544.086 47479.188 18647.701 25963.537 131312.7 97244.0
120785.086 20342.617 43523.14 65124.965 539815.5 240526.03 104066.21 107905.62
553173.4 430626.6 516093.78 107089.85 157999.27 254247.81 155947.23 99315.625
74057.02 74507.28 158507.16 135147.17 151424.61 74488.88 82704.23 98875.445
122.4919 131.36163 130.9405 133.03493 131.11897 134.40706 128.37805 134.08669
119.70131 130.20815 9869.078 3785.9167 1672.161 2325.9202 10158.669 7555.3535
9350.4 1805.8663 3691.735 5241.912 3983.4502 3774.142 3595.826 3599.6226
4084.5618 3998.6824 4018.2107 3627.141 3474.4814 3633.3567 452449.38 176018.8
55851.48 68261.414 465203.7 350779.44 429918.7 59755.168 124090.055 208053.03
559611.8 310175.8 204591.31 216424.72 571335.75 467102.53 538988.75 207926.38
263269.62 329606.88 1.0711158e+06 531183.6 226480.92 219450.28 1.0962295e+06 880948.94
1.0285336e+06 227940.3 312811.4 481601.62

exp_avg f4 [10]
00000000: e6cb c542 e202 e3c3 f2d9 8e44 f271 4d44
00000010: 72dc 6ec1 a730 05c3 2701 2843 58f3 4f44
00000020: 6c3b ac44 74cd c3c4
98.89824 -454.02252 1142.8108 821.7804 -14.92882 -133.19005 168.0045 831.80225
1377.8569 -1566.4204

exp_avg_sq f4 [10]
00000000: e1ab 0346 b2e3 f449 3905 764a 00f9 544a
00000010: c1a1 6a43 163e 3848 e354 0b47 4c5b 6c4a
00000020: 43a4 8f4a 8b28 ae4a
8426.97 2.0061342e+06 4.0307982e+06 3.489344e+06 234.63185 188664.34 35668.887 3.872467e+06
4.7068495e+06 5.7068215e+06

exp_avg f4 [10]
00000000: e6cb c542 e202 e3c3 f2d9 8e44 f271 4d44
00000010: 70dc 6ec1 a730 05c3 2801 2843 58f3 4f44
00000020: 6c3b ac44 74cd c3c4
98.89824 -454.02252 1142.8108 821.7804 -14.928818 -133.19005 168.00452 831.80225
1377.8569 -1566.4204

exp_avg_sq f4 [10]
00000000: e0ab 0346 b2e3 f449 3805 764a 00f9 544a
00000010: c1a1 6a43 183e 3848 e154 0b47 4c5b 6c4a
00000020: 42a4 8f4a 8c28 ae4a
8426.969 2.0061342e+06 4.030798e+06 3.489344e+06 234.63185 188664.38 35668.88 3.872467e+06
4.706849e+06 5.706822e+06

exp_avg f4 [20, 10]
00000000: 0000 0000 0000 0000 0000 0000 0000 0000
00000010: 0000 0000 0000 0000 0000 0000 0000 0000
00000020: 0000 0000 0000 0000 3ab6 9e46 a66e 9ec6
00000030: 6d22 9e46 cd5a 9e46 38c4 9ec6 ceab 9ec6
00000040: f8ad 9e46 8e26 9e46 3ae9 9d46 81d1 9dc6
00000050: d9e3 9f46 bf9b 9fc6 f24e 9f46 be87 9f46
00000060: f1f1 9fc6 59d9 9fc6 87db 9f46 1b53 9f46
00000070: 5415 9f46 6cfd 9ec6 4573 a646 3628 a6c6
00000080: 44d8 a546 6413 a646 f381 a6c6 5868 a6c6
00000090: 9e6a a646 99dc a546 489c a546 6483 a5c6
000000a0: 0000 0000 0000 0000 0000 0000 0000 0000
000000b0: 0000 0000 0000 0000 0000 0000 0000 0000
000000c0: 0000 0000 0000 0000 5f12 9d46 8bcb 9cc6
000000d0: 1d80 9c46 e8b7 9c46 3a20 9dc6 1108 9dc6
000000e0: 360a 9d46 3284 9c46 8147 9c46 0630 9cc6
000000f0: 0000 0000 0000 0000 0000 0000 0000 0000
00000100: 0000 0000 0000 0000 0000 0000 0000 0000
00000110: 0000 0000 0000 0000 0000 0000 0000 0000
00000120: 0000 0000 0000 0000 0000 0000 0000 0000
00000130: 0000 0000 0000 0000 0000 0000 0000 0000
00000140: 1141 8b46 4702 8bc6 66bf 8a46 ddf0 8a46
00000150: 584d 8bc6 ed37 8bc6 d439 8b46 06c3 8a46
00000160: 378d 8a46 6878 8ac6 9a7f a446 6c35 a4c6
00000170: 6ce6 a346 da20 a446 1c8e a4c6 ce74 a4c6
00000180: 0d77 a446 b1ea a346 22ab a346 8992 a3c6
00000190: 87ba e2be 9827 8b3e e981 9dbd 5d01 3cbe
000001a0: 8ca3 e43e e930 c93e dfcc debe f2d6 d43b
000001b0: 47b2 21bd e132 50be 96be 9b46 5a78 9bc6
000001c0: 8e2d 9b46 e164 9b46 51cc 9bc6 5cb4 9bc6
000001d0: 7cb6 9b46 9b31 9b46 6ef5 9a46 26de 9ac6
000001e0: 87e1 9a46 af9b 9ac6 4c51 9a46 5088 9a46
000001f0: 2def 9ac6 5bd7 9ac6 78d9 9a46 5455 9a46
00000200: 7a19 9a46 5302 9ac6 97a6 9f46 9a5e 9fc6
00000210: ec11 9f46 a24a 9f46 abb4 9fc6 1c9c 9fc6
00000220: 499e 9f46 1416 9f46 63d8 9e46 84c0 9ec6
00000230: 6d65 9546 0e22 95c6 4eda 9446 5f0f 9546
00000240: 9972 95c6 9e5b 95c6 a85d 9546 32de 9446
00000250: 77a4 9446 228e 94c6 0000 0000 0000 0000
00000260: 0000 0000 0000 0000 0000 0000 0000 0000
00000270: 0000 0000 0000 0000 0000 0000 0000 0000
00000280: b5e4 e4c4 7980 e444 de15 e4c4 e264 e4c4
00000290: e4f8 e444 95d6 e444 d8d8 e4c4 6b1d e4c4
000002a0: 02c3 e3c4 6ea5 e344 0400 0080 0400 0000
000002b0: 0400 0080 0400 0080 0400 0000 0400 0000
000002c0: 0400 0080 0400 0080 0400 0080 0400 0000
000002d0: ced7 a846 aa8b a8c6 913a a846 8d76 a846
000002e0: b1e6 a8c6 b8cc a8c6 06cf a846 f53e a846
000002f0: b9fd a746 7ae4 a7c6 0000 0000 0000 0000
00000300: 0000 0000 0000 0000 0000 0000 0000 0000
00000310: 0000 0000 0000 0000 0000 0000 0000 0000
0.0 0.0 0.0 0.0 0.0 0.0 0.0 0.0
0.0 0.0 20315.113 -20279.324 20241.213 20269.4 -20322.11 -20309.902
20310.984 20243.277 20212.613 -20200.752 20465.924 -20429.873 20391.473 20419.871
-20472.97 -20460.674 20461.764 20393.553 20362.664 -20350.71 21305.635 -21268.105
21228.133 21257.695 -21312.975 -21300.172 21301.309 21230.299 21198.14 -21185.695
0.0 0.0 0.0 0.0 0.0 0.0 0.0 0.0
0.0 0.0 20105.186 -20069.771 20032.057 20059.953 -20112.113 -20100.033
20101.105 20034.098 20003.752 -19992.012 0.0 0.0 0.0 0.0
0.0 0.0 0.0 0.0 0.0 0.0 0.0 0.0
0.0 0.0 0.0 0.0 0.0 0.0 0.0 0.0
17824.533 -17793.139 17759.7 17784.432 -17830.672 -17819.963 17820.914 17761.512
17734.607 -17724.203 21055.8 -21018.71 20979.21 21008.426 -21063.055 -21050.402
21051.525 20981.346 20949.566 -20937.268 -0.44282934 0.27178645 -0.07690794 -0.18359895
0.44656026 0.39295128 -0.4351568 0.00649535 -0.03947666 -0.20331909 19935.293 -19900.176
19862.777 19890.44 -19942.158 -19930.18 19931.242 19864.803 19834.715 -19823.074
19824.764 -19789.842 19752.648 19780.156 -19831.588 -19819.678 19820.734 19754.664
19724.738 -19713.162 20435.295 -20399.3 20360.96 20389.316 -20442.334 -20430.055
20431.143 20363.04 20332.193 -20320.258 19122.713 -19089.027 19053.152 19079.686
-19129.299 -19117.809 19118.828 19055.098 19026.232 -19015.066 0.0 0.0
0.0 0.0 0.0 0.0 0.0 0.0 0.0 0.0
-1831.1471 1828.0148 -1824.6833 -1827.1526 1831.7778 1830.7057 -1830.7764 -1824.9193
-1822.094 1821.1697 -6e-45 6e-45 -6e-45 -6e-45 6e-45 6e-45
-6e-45 -6e-45 -6e-45 6e-45 21611.902 -21573.832 21533.283 21563.275
-21619.346 -21606.36 21607.512 21535.479 21502.861 -21490.238 0.0 0.0
0.0 0.0 0.0 0.0 0.0 0.0 0.0 0.0
