models/10/model-Bakery.pth (torch, 34898 bytes, 45 tensors)

rnn.weight_ih_l0 f4 [10, 6]
0	0x3e5224a3	0.20521788
1	0x3cbfd956	0.023419064
2	0xbd851768	-0.06498605
3	0x3d836400	0.06415558
4	0xbe2a7996	-0.16647944
5	0xbe6d9b87	-0.2320386
6	0x3e689e9e	0.22716758
7	0xbe7fa143	-0.2496386
8	0xbe05de0f	-0.1307299
9	0x3e56b1e6	0.209663
10	0x3e0fb278	0.14032924
11	0xbdacdc39	-0.08440442
12	0x3dc85cef	0.09783351
13	0xbe14d044	-0.14532572
14	0xbdf52b5d	-0.119711615
15	0xbd4c2372	-0.04983849
16	0xbe50da1a	-0.20395699
17	0x3dc5b131	0.09652937
18	0xbe8118d3	-0.25214252
19	0x3e161593	0.14656667
20	0x3d69bc06	0.05706408
21	0xbe005126	-0.12530956
22	0xbd5d26b1	-0.053991977
23	0xbe6314ec	-0.2217595
24	0x3e27bf90	0.16381669
25	0xbcd27a86	-0.02569319
26	0x3df2ce48	0.11855751
27	0x3e5d0ac6	0.21586141
28	0x3e00e860	0.12588644
29	0xbc1c2dc8	-0.0095323995
30	0xbe9699b3	-0.29414138
31	0xbd09bff1	-0.033630315
32	0xbd9ba19d	-0.07599185
33	0x3e10c1c1	0.14136411
34	0xbe8b373d	-0.2719058
35	0xbbeae7c5	-0.0071687424
36	0x3c0e293b	0.008676822
37	0x3e93f1dd	0.28895465
38	0xbe72f301	-0.23725511
39	0xbdeb2643	-0.11481907
40	0x3deac413	0.114631794
41	0x3e2d226d	0.16907664
42	0x3d9ee225	0.077579774
43	0x3ddac57b	0.10682198
44	0xbe8b9990	-0.27265596
45	0x3e32171a	0.17391625
46	0x3cb94bd3	0.022619164
47	0xbd4cd3b4	-0.050006583
48	0x3e9719b0	0.29511786
49	0x3e19f171	0.15033509
50	0x3e9dbf97	0.30810234
51	0xbe16d9e2	-0.14731553
52	0xbe568bb4	-0.2095173
53	0xbd8bc3d9	-0.06824464
54	0xbcdfbea0	-0.027312577
55	0xbd6d8cc6	-0.05799558
56	0xbebb51c7	-0.3658583
57	0x3e405360	0.18781805
58	0xbe8a739b	-0.27041325
59	0xbe83ba44	-0.25728047

rnn.weight_hh_l0 f4 [10, 10]
0	0xbd24e979	-0.04026172
1	0x3e936350	0.28786707
2	0xbe8d0d1b	-0.2754906
3	0xbe2ee52b	-0.17079608
4	0x3da77843	0.08177235
5	0x3e52ab6b	0.20573203
6	0xbe08761e	-0.13326308
7	0x3d66fcf9	0.056393597
8	0xbd566ecf	-0.05235177
9	0xbde2c675	-0.11073009
10	0xbd8bfc41	-0.06835223
11	0xbe9ab682	-0.30217367
12	0xbce8e7f4	-0.028430916
13	0xbe5552a8	-0.20832312
14	0x3e8934c2	0.26798064
15	0xbe7b2176	-0.24524483
16	0xbe979c67	-0.29611513
17	0x3d2b7eb1	0.04186887
18	0x3e275f87	0.16345035
19	0x3e845926	0.25849265
20	0xbda4f435	-0.08054391
21	0x3e290704	0.16506582
22	0xbd315be7	-0.043300536
23	0x3e45d10d	0.19318028
24	0x3e6790e0	0.22613859
25	0xbdf7d5ce	-0.12101327
26	0x3e4d6ac0	0.20060253
27	0xbe5227f3	-0.20523052
28	0xbe2ba6f3	-0.16762905
29	0xbe0f6332	-0.14002684
30	0xbdfbedd8	-0.123012245
31	0x3d066e98	0.032820314
32	0xbe819755	-0.2531077
33	0xbe834648	-0.25639558
34	0xbe6b11cf	-0.22956012
35	0xbe39c6f7	-0.18142305
36	0x3d3f4a29	0.046701584
37	0xbd618165	-0.05505504
38	0xbd47edbe	-0.048810713
39	0x3d9643e7	0.0733717
40	0x3e3d18a1	0.18466426
41	0x3c93a1b9	0.018021451
42	0xbea1778b	-0.31536517
43	0x3e98630d	0.2976307
44	0x3e2caaf6	0.16862091
45	0xbe4ec2a6	-0.2019144
46	0x3dd1b68a	0.10239895
47	0x3e661cbf	0.22471903
48	0x3e194113	0.1496623
49	0xbe374751	-0.17898299
50	0xbe0d56f5	-0.13802703
51	0x3c1ee438	0.009697966
52	0xbd9e1bf3	-0.07720175
53	0x3d435671	0.04768986
54	0x3e945f07	0.2897875
55	0xbe988571	-0.29789308
56	0xbdfc2992	-0.123126164
57	0x3e91f654	0.28508246
58	0xbe9269f3	-0.28596458
59	0x3ea0841f	0.313508
60	0xbe55846f	-0.208513
61	0xbe85de96	-0.26146382
62	0x3e6af457	0.22944771
63	0xbdf164db	-0.11786815
64	0xbd0327cd	-0.03202038
65	0xbe14e351	-0.1453984
66	0xbe49ab3c	-0.19694227
67	0xbd3065ff	-0.04306602
68	0x3e8f0f5b	0.27941403
69	0xbd97c192	-0.074099675
70	0x3e7a4cb3	0.24443321
71	0x3dd90938	0.105974615
72	0x3de92691	0.11384309
73	0x3e5a557f	0.21321677
74	0x3da223d7	0.07916992
75	0x3e944429	0.28958252
76	0x3e87eb6d	0.26546803
77	0xbe988fa7	-0.29797098
78	0xbe84bb2b	-0.25924048
79	0xbdf10ca5	-0.1176999
80	0x3e3dbc61	0.18528892
81	0xbe11983a	-0.14218226
82	0x3ea06f0e	0.31334728
83	0xbe84e9e4	-0.25959694
84	0xbd9d0dc5	-0.07668642
85	0xbe2eb9a8	-0.1706301
86	0xbcdecd5f	-0.027197538
87	0xbb985493	-0.004648754
88	0xbda2879c	-0.07936022
89	0xbe71f034	-0.23626786
90	0x3e7f6cd8	0.24943864
91	0x3dfad705	0.12248043
92	0xbc68a769	-0.01420007
93	0xbe811cd7	-0.25217316
94	0xbe178586	-0.14797029
95	0x3e115aca	0.1419479
96	0xbe4c311f	-0.19940613
97	0xbd9a9f1b	-0.07549878
98	0x3cd6701f	0.02617651
99	0xbe1644bb	-0.14674656

rnn.bias_ih_l0 f4 [10]
0	0xbe027aee	-0.12742206
1	0xbe1192ff	-0.14216231
2	0x3d97f745	0.0742021
3	0x3e8dae16	0.2767188
4	0xbe1d6b9d	-0.15373082
5	0xbe84a4fe	-0.2590713
6	0xbe5a13ab	-0.21296565
7	0xbe91e05f	-0.28491494
8	0x3e78919b	0.24274294
9	0x3ddccf7f	0.10781764

rnn.bias_hh_l0 f4 [10]
0	0xbe2784c4	-0.1635924
1	0xbe192c76	-0.14958367
2	0x3ddc4b3b	0.107565366
3	0xbe410db5	-0.18852885
4	0xbe49602e	-0.19665596
5	0xbd92d7ad	-0.07170043
6	0xbb9c969d	-0.0047786967
7	0xbea0fd0c	-0.3144306
8	0xbdec28c3	-0.11531212
9	0x3df682a9	0.1203664

rnn.weight_ih_l1 f4 [10, 10]
0	0x3ebce86d	0.36896077
1	0x3ee6e571	0.45096925
2	0x3ec366fe	0.38164514
3	0xbe994787	-0.29937384
4	0x3dea8b7c	0.11452386
5	0xbed2f7c7	-0.41204664
6	0x3e80b01f	0.2513437
7	0x3e0f1320	0.1397214
8	0x3e29b070	0.16571212
9	0x3e05256c	0.13002557
10	0xbea72090	-0.3264203
11	0xbed531e6	-0.41639632
12	0x3d0ba238	0.03409025
13	0x3e9d7d0a	0.3075946
14	0xbd303f2c	-0.043028995
15	0x3d913151	0.070894845
16	0x3d243b84	0.04009582
17	0x3d2a5394	0.041583613
18	0xbe8fee7e	-0.28111643
19	0xbd860f2b	-0.06545862
20	0x3dc5b514	0.096536785
21	0x3dd4f30b	0.10397919
22	0x3d817678	0.06321424
23	0xbdf9f0ed	-0.12204156
24	0x3c2d577c	0.01057994
25	0xbef59506	-0.47965258
26	0x3e23d6d7	0.15999924
27	0x3e6852d7	0.22687851
28	0x3e4704e3	0.19435458
29	0xbde81424	-0.113319665
30	0x3c23717c	0.009975787
31	0xbde029d7	-0.1094548
32	0xbe23906e	-0.15973064
33	0xbc71e9bd	-0.0147652
34	0xbd9c70ed	-0.076387264
35	0x3de8015b	0.113283835
36	0x3e125a34	0.14292222
37	0x3d308cc0	0.04310298
38	0xbebb96c4	-0.36638463
39	0xbe0d8369	-0.1381966
40	0x3f396bc8	0.72430086
41	0x3f3b2116	0.7309736
42	0x3f004262	0.5010129
43	0xbf48f065	-0.7849181
44	0x3f1db2c5	0.61600906
45	0xbf4be182	-0.7964097
46	0x3e8dbe8a	0.27684432
47	0x3f431f54	0.7621968
48	0x3ef0cc27	0.47030756
49	0xbe925422	-0.28579813
50	0x3d1879ad	0.037225414
51	0xbd7b827f	-0.061403748
52	0x3d10b0bd	0.0353248
53	0xbd49f635	-0.049307067
54	0x3e05c445	0.13063152
55	0xbecf9e2a	-0.40550357
56	0x3e80e5fd	0.25175467
57	0x3d9115b7	0.0708422
58	0x3ef8b16f	0.4857287
59	0xbd830242	-0.06396915
60	0x3e3a2497	0.1817802
61	0x3e23f36d	0.16010828
62	0xbb2dcc85	-0.0026519608
63	0xbec65cc5	-0.38742653
64	0x3e9ba77b	0.30401215
65	0xbe414541	-0.18874075
66	0xbab3f0f2	-0.0013728424
67	0x3e16b810	0.14718652
68	0x3e91e756	0.28496808
69	0xbdf121b7	-0.11774009
70	0x3e6c385e	0.23068377
71	0x3e8ae215	0.27125612
72	0x3dd72d63	0.10506704
73	0xbeb32f9d	-0.34997264
74	0x3e5b55ba	0.21419421
75	0xbdb240bd	-0.08703754
76	0x3e0baab1	0.13639332
77	0x3e6f9ef0	0.23400474
78	0xbd1405cb	-0.036138337
79	0xbe9e5c8b	-0.3092998
80	0x3d8428d2	0.06453098
81	0xbe2a9be0	-0.16661024
82	0xbd8538ee	-0.06504999
83	0x3e9588cf	0.2920594
84	0xbcac9053	-0.021064913
85	0x3d94aaee	0.07259165
86	0x3e284b1a	0.16434899
87	0xbe25c025	-0.16186579
88	0x3d8a83c2	0.06763412
89	0x3e8fe518	0.28104472
90	0x3f02e974	0.5113747
91	0x3f18dba5	0.5971015
92	0x3f0c96f5	0.5491784
93	0xbef7cbce	-0.48397678
94	0x3e84947b	0.25894532
95	0xbed89660	-0.42302227
96	0x3f36b413	0.7136852
97	0x3f0aeb49	0.54265267
98	0x3edddf64	0.43334496
99	0xbee78013	-0.452149

rnn.weight_hh_l1 f4 [10, 10]
0	0x3f0e6a98	0.556314
1	0xbf0d6b5a	-0.5524193
2	0x3f1efc2b	0.6210353
3	0xbf54773f	-0.82994455
4	0xbf2b9762	-0.67027867
5	0x3f9d8ae9	1.2308017
6	0x3f79db20	0.97599983
7	0x3f65a95d	0.8971155
8	0xbf4a227b	-0.78958863
9	0xbee99fc3	-0.456297
10	0xbf23630c	-0.6382301
11	0x3ecf8472	0.40530735
12	0xbf631639	-0.88705784
13	0x3f2f4ae8	0.6847367
14	0x3ec19857	0.3781154
15	0xbf29055a	-0.6602379
16	0xbf880d27	-1.0629014
17	0xbf42a44f	-0.76031965
18	0x3f1ea294	0.61966825
19	0x3f491111	0.78541666
20	0x3f887f6a	1.0663884
21	0xbe9b9e08	-0.30394006
22	0x3f8083f2	1.0040267
23	0xbea4a634	-0.32158053
24	0xbf32d7ed	-0.69860727
25	0x3f8a946d	1.0826546
26	0x3f7e3c9e	0.99311244
27	0x3f86d5ec	1.0534034
28	0xbe85947f	-0.26089856
29	0xbe9edb13	-0.31026515
30	0xbf6a64c4	-0.91560006
31	0x3f584a53	0.8448841
32	0xbf433cd5	-0.762647
33	0x3ed5b654	0.41740668
34	0x3e29b22d	0.16571875
35	0xbf4067b0	-0.75158215
36	0xbf9ae913	-1.2102379
37	0xbf9b4dc5	-1.2133108
38	0x3f2946b4	0.6612351
39	0x3e961d13	0.29319057
40	0xbefe5181	-0.49671558
41	0x3dbe1005	0.09280399
42	0xbecd7e36	-0.40135354
43	0x3e38fa33	0.18064193
44	0x3f354dbd	0.70821744
45	0xbda7087f	-0.081559174
46	0xbedf67b4	-0.43633807
47	0xbe3ccd23	-0.18437628
48	0xbda44b40	-0.08022165
49	0x3eaf20fd	0.34204856
50	0x3f332969	0.6998506
51	0xbf4e5167	-0.8059296
52	0x3f8bfd0b	1.0936598
53	0xbe6ddae5	-0.23228033
54	0xbf56aa08	-0.838532
55	0x3f70b2fc	0.9402311
56	0x3f04707c	0.5173414
57	0x3f6199c4	0.8812525
58	0xbf3a85c2	-0.7286035
59	0xbf0d55be	-0.5520896
60	0x3f128aee	0.5724324
61	0xbf233fd8	-0.6376929
62	0x3f766222	0.9624349
63	0xbe827b64	-0.25484765
64	0xbf232e59	-0.63742596
65	0x3f929e0f	1.1454486
66	0x3f81de5b	1.0145983
67	0x3f6b13eb	0.9182727
68	0xbf300e82	-0.6877214
69	0xbf426ea5	-0.7595008
70	0x3f1d0e5e	0.6135005
71	0xbf36c114	-0.71388364
72	0x3f51ee9b	0.8200471
73	0xbf39fd15	-0.726518
74	0xbf4d030c	-0.80082774
75	0x3f94de1e	1.1630285
76	0x3f2677ed	0.6502674
77	0x3f894cfc	1.0726619
78	0xbf025121	-0.5090504
79	0xbf31d139	-0.69459873
80	0xbf179d2e	-0.5922421
81	0x3f1c0064	0.60938096
82	0xbf5c6f90	-0.8610773
83	0x3f2fbb61	0.6864529
84	0x3f03cf82	0.51488507
85	0xbf4aee30	-0.79269695
86	0xbf465efc	-0.77488685
87	0xbf771a1b	-0.9652421
88	0x3ef80c52	0.484469
89	0x3eadac29	0.3392041
90	0x3e0ab35d	0.13544984
91	0x3eb31733	0.34978637
92	0xbeeb1a1b	-0.45918354
93	0xbce46854	-0.027881779
94	0x3e4a3f12	0.19750622
95	0x3dba9345	0.09110121
96	0x3d31938c	0.043353602
97	0xbe3be184	-0.18347746
98	0xbda1f3ed	-0.07907853
99	0x3e97a0fd	0.29615012

rnn.bias_ih_l1 f4 [10]
0	0xbe12d9d6	-0.1434091
1	0x3dd50ef4	0.10403243
2	0x3ed6ad1f	0.41928956
3	0x3e48c8a9	0.19607796
4	0x3f188bda	0.59588397
5	0x3e68e70a	0.22744384
6	0x3ed1b74f	0.40960166
7	0x3ccf9219	0.02533822
8	0x3e7b0988	0.24515355
9	0x3f392319	0.7231918

rnn.bias_hh_l1 f4 [10]
0	0x3ee02bbc	0.43783367
1	0xbe14ba0a	-0.14524093
2	0xbdd30d1b	-0.10305234
3	0x3e830397	0.25588676
4	0x3ea615a7	0.32438394
5	0x3cb5b9ce	0.022183325
6	0x3eff770f	0.49895522
7	0x3f0113ce	0.50420845
8	0xbd58a536	-0.052891932
9	0x3f4b6543	0.7945139

fc1.weight f4 [20, 10]
0	0xbf260004	-0.64843774
1	0x3f6a2cfb	0.91474885
2	0xbf41836b	-0.7559115
3	0x3f6cba74	0.92472005
4	0x3f75b678	0.9598155
5	0xbf0c9d13	-0.54927176
6	0xbf863286	-1.0484169
7	0xbf69204e	-0.9106492
8	0x3f83478d	1.025621
9	0x3f7c97a7	0.98668903
10	0xbe015f9a	-0.12634125
11	0x3e4b373b	0.19845288
12	0x3e742018	0.23840368
13	0x3e02b8e2	0.1276584
14	0xbe175b52	-0.1478093
15	0xbd2236df	-0.03960311
16	0x3d747815	0.05968483
17	0x3e4bf701	0.19918443
18	0x3d94b7b5	0.07261602
19	0xbe0dad1a	-0.13835564
20	0x3f1f9e83	0.62351245
21	0xbf6dec14	-0.9293835
22	0x3f1639d5	0.58681995
23	0xbf6f3c31	-0.9345122
24	0x3f370143	0.714863
25	0x3eb4b09f	0.35291
26	0x3f76c326	0.9639152
27	0x3f5a3e65	0.85251456
28	0xbf03e394	-0.5151913
29	0x3f1bd96c	0.60878634
30	0x3ee58eef	0.44835612
31	0xbf1cd8ae	-0.61268127
32	0x3f5f48f4	0.8722069
33	0xbf66aa1f	-0.90103334
34	0x3f3e01b1	0.7422133
35	0x3f0fa4f3	0.5611107
36	0x3f4226e5	0.758406
37	0x3f3d7a5a	0.7401482
38	0xbf79613e	-0.97414005
39	0x3f5b2a10	0.8561106
40	0xbe0f8d68	-0.14018786
41	0xbe8e58cc	-0.27802122
42	0xbd8139a1	-0.0630982
43	0x3ded9dde	0.116023764
44	0xbd8d2ca6	-0.06893282
45	0x3e2afe26	0.16698512
46	0x3e28af9b	0.16473238
47	0xbe413f03	-0.18871693
48	0xbb5e2741	-0.003389791
49	0xbd8ef2e8	-0.069799244
50	0x3f0456be	0.5169486
51	0xbeee18b1	-0.46503213
52	0x3f2fd8b0	0.68690014
53	0xbf08e7bd	-0.53478605
54	0x3f1dc844	0.61633706
55	0x3f895056	1.0727642
56	0x3f6d0c6f	0.925971
57	0x3f321521	0.6956349
58	0xbf4f5a91	-0.8099757
59	0x3f0a4f7f	0.5402755
60	0x3ee61f7d	0.449459
61	0xbf39948e	-0.724923
62	0x3edb0923	0.42780408
63	0xbf6f083b	-0.93371934
64	0x3f40fdb7	0.7538714
65	0x3f50e667	0.81601566
66	0x3f2114a4	0.6292212
67	0x3f7a9f3b	0.97899216
68	0xbf539639	-0.82651097
69	0x3f2a89b9	0.666164
70	0xbf338138	-0.7011905
71	0x3f7053aa	0.9387766
72	0xbf0ff7c8	-0.5623746
73	0x3f7083b8	0.93950987
74	0x3ef07a95	0.46968523
75	0xbf25c92b	-0.6476008
76	0xbf5ce80c	-0.86291575
77	0xbf578f13	-0.8420269
78	0x3f5e0ab7	0.867351
79	0x3f5bc9bf	0.85854715
80	0xbe623171	-0.22089173
81	0x3dc42885	0.09578041
82	0xbf07dd8d	-0.53072435
83	0xbdb3ba6a	-0.0877579
84	0xbe41ea88	-0.18937123
85	0xbec44b65	-0.3833877
86	0xbd0e69a8	-0.03476873
87	0xbe39e8f9	-0.18155278
88	0x3cf9c9ec	0.030491792
89	0xbea37d78	-0.31931663
90	0xbf659dfb	-0.89694184
91	0x3f03d2e4	0.5149367
92	0xbf3d8baa	-0.74041235
93	0x3f2d0d41	0.6759835
94	0x3f559749	0.8343397
95	0xbf8757cc	-1.0573668
96	0xbf7b82c7	-0.98246425
97	0xbf04822c	-0.51761127
98	0x3f57a13b	0.84230393
99	0x3f4426ab	0.766215
100	0xbd5db266	-0.054125212
101	0xbe3e2909	-0.18570341
102	0x3d9ba36d	0.0759953
103	0xbd620961	-0.055184726
104	0xbe4ec2e3	-0.20191531
105	0xbea2a36a	-0.317653
106	0x3cf7fd31	0.030272098
107	0x3c9a339c	0.018823437
108	0xbe60997d	-0.21933551
109	0xbe414883	-0.18875317
110	0xbed5efab	-0.41784415
111	0x3c7773f0	0.015103325
112	0xbea35638	-0.31901717
113	0xbe516e7d	-0.20452304
114	0xbe9ef2cd	-0.31044617
115	0x3c089d1f	0.008338242
116	0xbe00afbc	-0.12567037
117	0xbf1c88c3	-0.6114618
118	0x3e5a6d6a	0.213308
119	0xbea56b96	-0.32308644
120	0xbe2e0349	-0.1699344
121	0x3d4e0be9	0.050304327
122	0xbd87b09b	-0.06625482
123	0xbe910615	-0.28324953
124	0xbe87ce5a	-0.2652462
125	0xbf0160a2	-0.50538075
126	0xbe8cb610	-0.27482653
127	0xbd320ac3	-0.043467294
128	0x3e59948d	0.21248074
129	0xbed80fc6	-0.42199534
130	0xbe9adbd2	-0.30245835
131	0x3e98eb0d	0.2986683
132	0x3e65665f	0.22402333
133	0xbe224add	-0.1584887
134	0xbe244e6c	-0.1604554
135	0x3e623126	0.22089061
136	0xbe740e2d	-0.23833533
137	0xbd00b170	-0.031419218
138	0xbe319108	-0.17340481
139	0xbe6f9025	-0.2339483
140	0xbde04422	-0.10950495
141	0xbe767e26	-0.2407156
142	0xbe58702a	-0.21136537
143	0xbd5fc1be	-0.054628126
144	0xbcd8c9fd	-0.026463503
145	0xbc1a904e	-0.009433819
146	0x3e4a5bd7	0.19761597
147	0xbe68e35e	-0.22742984
148	0xbe050924	-0.12991768
149	0x3dad71af	0.08468949
150	0xbea2dee1	-0.31810668
151	0xbde3e033	-0.11126747
152	0xbf317467	-0.6931824
153	0xbc8e2058	-0.017349407
154	0xbe862c9e	-0.26205915
155	0xbea60e31	-0.32432702
156	0xbe2f29da	-0.17105809
157	0xbe4e3b87	-0.20139895
158	0x3e1b6baf	0.15177797
159	0xbed83386	-0.4222681
160	0x3f113fa1	0.56737715
161	0xbf086a5a	-0.5328728
162	0x3f7209c5	0.9454616
163	0xbf36789f	-0.71277803
164	0x3ec4b5e7	0.3842003
165	0x3f61581b	0.88025063
166	0x3f6b0df2	0.91818154
167	0x3ef4e067	0.47827455
168	0xbf6ec052	-0.9326221
169	0x3f6669b7	0.9000506
170	0xbe58bbb0	-0.21165347
171	0x3e89db52	0.2692514
172	0xbd090f3c	-0.033461794
173	0xbdbc30a8	-0.09188968
174	0xbe6ea1d4	-0.2330392
175	0xbed64473	-0.41849098
176	0xbdb0d4b3	-0.08634319
177	0xbe285e04	-0.16442114
178	0xbda80b4b	-0.08205279
179	0xbc9a0663	-0.018801874
180	0xbef85981	-0.48505786
181	0xbe311fb6	-0.17297253
182	0xbe93536a	-0.28774577
183	0x3cdc19be	0.026867744
184	0xbd877d32	-0.06615676
185	0x3d90c9fa	0.07069774
186	0xba144365	-0.00056557945
187	0x3d70f6c3	0.05882908
188	0x3e3f1c8b	0.18663232
189	0xbe17201a	-0.1475834
190	0xbec84f4c	-0.39123
191	0xbe6d6738	-0.23183906
192	0xbe86d981	-0.26337817
193	0x3e146f87	0.1449567
194	0xbde839f9	-0.113391824
195	0xbeae2f86	-0.34020633
196	0xbbc4b7f4	-0.0060033742
197	0xbcc4c687	-0.024020446
198	0x3e77e2ad	0.24207564
199	0xbf1fe27e	-0.62454975

fc1.bias f4 [20]
0	0x3f801816	1.000735
1	0xbe376d5f	-0.17912816
2	0x3f047f86	0.51757085
3	0x3f1f327f	0.62186426
4	0xbe46a386	-0.19398317
5	0x3f15fbf3	0.5858757
6	0x3f624c2e	0.8839749
7	0x3f19df2e	0.6010617
8	0xbee8fb2b	-0.45504126
9	0x3f85fff5	1.0468737
10	0xbe922837	-0.28546306
11	0xbe800937	-0.2500703
12	0xbeec317b	-0.461315
13	0x3d854e4b	0.06509074
14	0xbe95a932	-0.29230648
15	0xbe2695ed	-0.1626813
16	0x3f3e4555	0.7432454
17	0xbea6e7e3	-0.3259879
18	0xbf249928	-0.642962
19	0xbe406257	-0.18787514

fc2.weight f4 [32, 20]
0	0x3f636776	0.88829744
1	0xbd033f0c	-0.032042548
2	0x3f01d7ca	0.5071989
3	0x3f134e38	0.5754123
4	0xbce5f9c5	-0.028073201
5	0x3f21e4c2	0.6323968
6	0x3f0377e4	0.51354814
7	0x3f4e8ba7	0.8068184
8	0x3ceb4100	0.028717518
9	0x3f0d328a	0.5515524
10	0xbe0da3af	-0.13831972
11	0x3e27b61c	0.16378063
12	0xbd89f1db	-0.067355834
13	0x3dceb91e	0.10093902
14	0x3d9acf09	0.0755902
15	0x3d43d440	0.04780984
16	0x3f5eb27f	0.86991113
17	0xbd3b3643	-0.045706045
18	0xbe240dbf	-0.16020869
19	0xbc2a6316	-0.0103996005
20	0xbdf4ad7c	-0.11947152
21	0xbdf0b37e	-0.117529854
22	0xbe537ad7	-0.20652328
23	0xbe1c3d62	-0.1525779
24	0x3c9ae794	0.018909253
25	0x3d9bf7be	0.076156124
26	0xbe51d6c3	-0.20492081
27	0xbe3fe4a8	-0.18739569
28	0xbe2ec122	-0.17065862
29	0x3cc0321f	0.0234614
30	0x3caf32f9	0.02138661
31	0xbd5ec8a4	-0.054390565
32	0x3d597401	0.053089146
33	0xbe027917	-0.12741505
34	0x3e054f66	0.1301857
35	0xbd86e974	-0.065874964
36	0xbd8b5283	-0.06802847
37	0x3cad1cb0	0.021131843
38	0xbe18270f	-0.1485865
39	0xbd988eb3	-0.07449093
40	0x3f516fe4	0.81811357
41	0xbc9bae9d	-0.01900416
42	0x3f15f96f	0.5858373
43	0x3f693d25	0.91108924
44	0x3ae7156a	0.0017630283
45	0x3f6bcf91	0.92113596
46	0x3f150680	0.58213043
47	0x3f480b17	0.7814192
48	0x3e76bebc	0.24096197
49	0x3f349612	0.7054149
50	0x3df1510a	0.11783035
51	0x3df605a8	0.120127976
52	0x3e99f38a	0.30068618
53	0xbe3ee6fa	-0.18642798
54	0x3dce4577	0.10071843
55	0x3ecb96d9	0.39763525
56	0x3efae214	0.4900061
57	0x3de331a9	0.11093456
58	0xbd1b3670	-0.037893713
59	0xbd9f3e36	-0.07775538
60	0xbd86fa0e	-0.06590663
61	0x3e098396	0.13429102
62	0x3f0dadbc	0.5534322
63	0x3f0fbb56	0.56145227
64	0xbd5c0129	-0.053712044
65	0x3efa9e9c	0.48949134
66	0x3f38c7db	0.72179955
67	0xbe7dd764	-0.24789196
68	0xbe84c0eb	-0.25928435
69	0xbca3a811	-0.019977601
70	0xbd508bc1	-0.05091453
71	0xbe204ddc	-0.15654701
72	0xbdece1e3	-0.11566522
73	0xbe233790	-0.15939164
74	0x3d3ba558	0.04581198
75	0xbd73fbed	-0.059566427
76	0x3ebad8d4	0.36493552
77	0x3c63d526	0.013905799
78	0xbdee13e4	-0.116248876
79	0xbdd12b35	-0.10213319
80	0xbd0d86c6	-0.034552358
81	0xbce118c2	-0.027477626
82	0x3edc3106	0.43006152
83	0x3f3bade9	0.7331224
84	0xbd90291d	-0.07039092
85	0x3f07a7e0	0.5299053
86	0x3ef75b3e	0.483118
87	0xbe82963d	-0.25505248
88	0x3e92c681	0.2866707
89	0x3d6c7416	0.057727896
90	0xbc13e281	-0.009026171
91	0x3ca55097	0.02018003
92	0xbd170d48	-0.0368779
93	0x3d30ca19	0.043161485
94	0xbe90378c	-0.2816738
95	0x3c8adece	0.016951945
96	0x3f19fbc9	0.6014982
97	0xbc9b53d4	-0.01896087
98	0xbdd5bf39	-0.104368635
99	0xbcad0bf0	-0.021123856
100	0xbe8e72af	-0.27821872
101	0x3e5a48bb	0.21316807
102	0x3c7cea2d	0.015436691
103	0xbdf1aabc	-0.11800143
104	0x3dd94d83	0.10610487
105	0xbe4400a8	-0.19140875
106	0xbb3b6e04	-0.002859951
107	0x3dc232df	0.09482359
108	0xbe26f659	-0.16304912
109	0xbd311d98	-0.043241113
110	0xbddbb846	-0.10728507
111	0xbce3652e	-0.027758207
112	0x3e43c41b	0.19117777
113	0xbe32ea14	-0.17472106
114	0x3d81fa8d	0.06346617
115	0x3dfc008b	0.12304791
116	0xbe8c4a72	-0.27400547
117	0xbe5aa0ed	-0.21350451
118	0xbe47902f	-0.19488595
119	0xbddd7cd4	-0.10814825
120	0xbb1ecd81	-0.0024231377
121	0x3ded4031	0.11584509
122	0x3f02c453	0.51080817
123	0x3e76cd93	0.24101858
124	0xbe45a00d	-0.19299336
125	0x3f0c738e	0.5486382
126	0x3ef88c9f	0.48544785
127	0xbd330bca	-0.043712415
128	0xbe5cccd6	-0.21562514
129	0x3ae57581	0.0017506332
130	0xbe3e69ac	-0.18594998
131	0xbc1bbec5	-0.009505932
132	0xbdaf7a37	-0.085682325
133	0xbd9a8525	-0.075449266
134	0x3e5e1fff	0.21691893
135	0x3e32cfb9	0.17462052
136	0x3e9e6a1a	0.30940324
137	0x3defa417	0.117012195
138	0xbcb7e5c9	-0.022448437
139	0x3da97415	0.08274094
140	0xbe0287ef	-0.12747167
141	0xbde70ec6	-0.11282115
142	0xbdf3ae49	-0.11898477
143	0xbd942ab7	-0.0723471
144	0xbb16ddd0	-0.0023020394
145	0xbe229b59	-0.15879573
146	0xbe3ddb33	-0.18540649
147	0xbe4c5a52	-0.1995633
148	0x3e36893e	0.17825791
149	0x3de1f23e	0.11032532
150	0xbe2b882b	-0.16751163
151	0xbe4dc543	-0.2009478
152	0xbdc9457d	-0.09827707
153	0x3e3aa214	0.1822589
154	0x3d55c04d	0.052185345
155	0x3e42ef5d	0.19036622
156	0x3e344384	0.1760388
157	0x3d933d57	0.07189434
158	0xbdb2cba4	-0.087302476
159	0xbe1f98c9	-0.15585627
160	0x3dd61309	0.104528494
161	0x3d5a1a88	0.05324796
162	0xbe61268b	-0.21987359
163	0x3cd23ed4	0.025664724
164	0xbda17369	-0.07883341
165	0xbe0e3cbf	-0.1389036
166	0xbdbec144	-0.09314206
167	0xbe560d92	-0.20903614
168	0x3d752e5f	0.059858676
169	0xbe1c2dc5	-0.15251835
170	0xbdc0b76a	-0.094099835
171	0xbd3d5896	-0.04622706
172	0xbd56cb83	-0.052440178
173	0xbc421fd4	-0.011848409
174	0xbda52df9	-0.08065409
175	0xbdb112d7	-0.086461715
176	0x3c69c18a	0.014267335
177	0xbe076022	-0.13220266
178	0xbd6e10ed	-0.05812161
179	0xbe5d6fb8	-0.21624649
180	0xbdb89403	-0.09012606
181	0xbe0bb5f3	-0.13643627
182	0xbe6b0592	-0.22951344
183	0xbe945041	-0.2896748
184	0xbbeec4ee	-0.0072866594
185	0xbe460081	-0.1933613
186	0xbd93205d	-0.07183907
187	0xbdfa91ef	-0.12234866
188	0x3e0da576	0.1383265
189	0xbe5b5dff	-0.21422575
190	0x3d7960a1	0.060883168
191	0xbe2171fe	-0.15766141
192	0x3ddc1af1	0.10747326
193	0xbe144a7b	-0.14481537
194	0x3db55647	0.08854347
195	0x3e8bfb48	0.2734015
196	0x3d061803	0.032737743
197	0xbd1f6970	-0.038918912
198	0x3e934285	0.28761688
199	0xbbf816e7	-0.0075710895
200	0xbe57b831	-0.21066357
201	0xbdcea01a	-0.10089131
202	0xbe7c0c90	-0.24614167
203	0xbcfb47a2	-0.030673806
204	0xbe19370d	-0.14962406
205	0xbd7e5a5e	-0.0620979
206	0xbea75990	-0.32685518
207	0xbdcb476c	-0.09925732
208	0xbe9300c2	-0.28711516
209	0xbced4885	-0.028965244
210	0xbe1ea5c6	-0.15492925
211	0xbecdd7b3	-0.40203628
212	0xbeba0d79	-0.36338404
213	0xbe40ec8f	-0.1884024
214	0x39b782e5	0.00035002004
215	0xbe7bb5e4	-0.24581105
216	0xbed23708	-0.4105761
217	0x3d88b717	0.066755466
218	0xbd4f59e1	-0.050622825
219	0xbcacb98c	-0.02108457
220	0xbe192461	-0.14955284
221	0xbdf9728d	-0.12180052
222	0xbe13e644	-0.14443308
223	0xbe036365	-0.12830885
224	0x3e2a1925	0.16611154
225	0xbe60f3b4	-0.21967965
226	0xbda9db52	-0.08293785
227	0xbe56f4cd	-0.20991822
228	0xbdecd5ec	-0.1156424
229	0xbe5fd9b3	-0.2186039
230	0xbd508f93	-0.050918173
231	0xbe136176	-0.14392647
232	0xbd70ab31	-0.05875701
233	0xbce6eb35	-0.028188327
234	0x3df21516	0.11820428
235	0xbea3102d	-0.3184828
236	0xbddf812c	-0.109133095
237	0x3cf5b5fd	0.029994005
238	0x3e3530ec	0.17694443
239	0xbd847eaa	-0.06469472
240	0xbd712bd0	-0.058879673
241	0x3e2aac79	0.16667356
242	0xbd3e5a44	-0.046472803
243	0xbdf169df	-0.117877714
244	0xbe4cd9f1	-0.20005013
245	0x3e49cf46	0.19707975
246	0x3b32c858	0.0027280059
247	0xbd3f87d4	-0.046760395
248	0xbe0a0666	-0.13479003
249	0xbc8004bb	-0.015627256
250	0x3d90c8c2	0.070695415
251	0x3e1de358	0.15418756
252	0xbe1a7095	-0.15082009
253	0x3bacfb17	0.0052789557
254	0xb9f3589d	-0.00046414594
255	0xbe6956c5	-0.22787006

fc2.bias f4 [32]
0	0x3f677feb	0.9042956
1	0xbc729f74	-0.014808524
2	0x3f416a22	0.7555257
3	0x3efd38a7	0.49457285
4	0x3ef112ba	0.470846
5	0xbea44077	-0.32080433
6	0x3eb9841c	0.36233604
7	0xbd913ed5	-0.070920624
8	0xbe607cd9	-0.21922626
9	0x3d059f24	0.03262247
10	0xbcbfa236	-0.023392778
11	0xbe5c8cf5	-0.21538146
12	0xbdfeb464	-0.124367505
13	0x3f8aeddd	1.085384
14	0x3f56107c	0.83618903
15	0x3f29372f	0.6609983
16	0x3f009963	0.5023405
17	0x3f21e5d6	0.63241327
18	0x3f5c259f	0.85994905
19	0x3f853599	1.0406982
20	0x3f6e0ad7	0.9298529
21	0x3ed4b5f8	0.4154508
22	0x3f808638	1.004096
23	0x3f8206a4	1.0158277
24	0x3f642644	0.8912089
25	0x3f436a09	0.7633367
26	0x3f770dff	0.9650573
27	0x3e4f15e8	0.202232
28	0xbdb0a578	-0.08625311
29	0xbe42c158	-0.19019067
30	0x3f7ac334	0.97954106
31	0x3ef9c498	0.48782802

fc3.weight f4 [16, 32]
0	0xbc604d70	-0.013690338
1	0xbc4637a9	-0.012098231
2	0xbe574118	-0.21020925
3	0xbd4b0974	-0.049569562
4	0xbdf868d7	-0.121293716
5	0x3e150d5c	0.14555877
6	0xbd7fc9d8	-0.062448353
7	0x3dec9587	0.115519576
8	0x3d84794b	0.06468447
9	0xbdabaa1a	-0.08382054
10	0x3dd1545a	0.10221167
11	0xbe1eca49	-0.15506853
12	0x3df40f45	0.11916975
13	0x3d029c37	0.03188726
14	0xbe6c29b7	-0.23062788
15	0x3dba3162	0.0909145
16	0xbdceed9f	-0.101039164
17	0x3da8a371	0.08234299
18	0x3ccb2ca6	0.024801563
19	0xbe643c98	-0.2228874
20	0x3d2806d4	0.041022137
21	0xbe163e95	-0.1467231
22	0x3d70d90a	0.058800735
23	0x3d41f2dd	0.047350753
24	0xbdc334ec	-0.095315784
25	0x3da54f62	0.08071782
26	0xbe06caf1	-0.13163354
27	0xbd5f03d3	-0.054447006
28	0x3ded66cd	0.11591873
29	0xbe25a3af	-0.16175722
30	0xbe609cb6	-0.2193478
31	0x3d31e049	0.043426786
32	0xbdeb2e71	-0.11483467
33	0x3e1924a9	0.14955391
34	0x3d26d7d0	0.04073316
35	0xbd76ca71	-0.060251657
36	0x3d85e977	0.065386705
37	0xbd9d17d3	-0.0767056
38	0x3d531903	0.051537525
39	0xbc333215	-0.010937233
40	0x3c76ea65	0.015070532
41	0xbdd668cc	-0.10469207
42	0xbd66254f	-0.056187924
43	0xbe306430	-0.17225718
44	0x3de7bde5	0.113155164
45	0xbd2da286	-0.042391323
46	0x3dff33a9	0.12461025
47	0xbc89e487	-0.016832603
48	0x3cd13340	0.025537133
49	0xbddf47ea	-0.109023884
50	0x3d5dc641	0.054144148
51	0x3dce7dbe	0.10082577
52	0xbe159136	-0.14606175
53	0x3dd52426	0.104072854
54	0xbd82d63c	-0.06388518
55	0xbe286ce2	-0.16447785
56	0xbda51baa	-0.08061917
57	0x3969c8db	0.00022295436
58	0xbcd07647	-0.025447024
59	0x3e211ce3	0.15733676
60	0xbd46cf3f	-0.04853749
61	0xbde66443	-0.11249592
62	0xbd9c42d6	-0.076299354
63	0x3e0c7daf	0.1371982
64	0x3f305653	0.6888172
65	0xbde72fd0	-0.112884164
66	0x3f108940	0.56459427
67	0x3ee5a54b	0.4485267
68	0x3eb6b91e	0.35688108
69	0x3d89631c	0.06708357
70	0x3eaf6cdf	0.3426275
71	0xbd2e7505	-0.042592067
72	0xbda8d890	-0.08244431
73	0x3e3bf011	0.18353297
74	0x3d901600	0.07035446
75	0x3e31219f	0.17297982
76	0xbc864e3b	-0.016394725
77	0x3f471d9c	0.77779555
78	0x3f1a69e3	0.6031782
79	0x3f27ae31	0.6550017
80	0x3e9adf6c	0.30248582
81	0x3ea861c8	0.328871
82	0x3f4130ee	0.75465286
83	0x3f335d79	0.700645
84	0x3f4f0972	0.8087379
85	0x3ea847f8	0.32867408
86	0x3f0a40b6	0.5400499
87	0x3f45cbdd	0.77264196
88	0x3f5901eb	0.8476855
89	0x3f49a2fd	0.78764325
90	0x3f51168f	0.81675047
91	0x3eeae08a	0.45874435
92	0xbe28022c	-0.16407079
93	0x3de25ce3	0.11052873
94	0x3f5189dd	0.8185099
95	0x3f37ac92	0.71747696
96	0x3f606a62	0.8766233
97	0x3d73143a	0.05934546
98	0x3f595a7c	0.84903693
99	0x3ef8f24a	0.48622352
100	0x3ed5aed0	0.41734934
101	0x3e1ebf9f	0.15502785
102	0x3ef31fa2	0.4748507
103	0x3db72fc0	0.089446545
104	0x3e1f5615	0.15560181
105	0x3e7f420e	0.24927542
106	0x3e2c78c6	0.16842946
107	0x3db9b79e	0.09068225
108	0xbda3a5a4	-0.07990578
109	0x3f5b2008	0.8559575
110	0x3f4696ca	0.77573836
111	0x3f2f2d69	0.68428665
112	0x3ecd7ea3	0.4013568
113	0x3f3ccd09	0.7375036
114	0x3f68a766	0.9088043
115	0x3f7372d0	0.95097065
116	0x3f6b404b	0.9189498
117	0x3ead4063	0.33838186
118	0x3f53f821	0.8280049
119	0x3f786611	0.9703074
120	0x3f7878d5	0.97059375
121	0x3f762a00	0.96157837
122	0x3f630402	0.8867799
123	0x3f00c3fa	0.50299037
124	0xbe196498	-0.1497978
125	0x3e78461d	0.24245496
126	0x3f7262ab	0.94681805
127	0x3f3004ed	0.68757516
128	0x3f6fef13	0.93724173
129	0x3e0ad216	0.13556704
130	0x3f227a21	0.63467604
131	0x3f47fee5	0.78123313
132	0x3f04553e	0.5169257
133	0xbd014b45	-0.031565923
134	0x3ec89462	0.39175707
135	0x3dcbfae8	0.09959966
136	0xbe2c54f0	-0.16829276
137	0x3e2f2325	0.1710325
138	0x3ec5effd	0.3865966
139	0xbcaa7a73	-0.020810341
140	0xbb3b91d8	-0.0028620865
141	0x3f646469	0.89215714
142	0x3f646bfa	0.8922726
143	0x3f5d3d78	0.8642192
144	0x3ef311dd	0.47474566
145	0x3f1b0433	0.6055328
146	0x3f6d990a	0.92811644
147	0x3f6c86fc	0.9239347
148	0x3f4a8ed1	0.7912417
149	0x3ee85932	0.4538055
150	0x3f3467c9	0.70470864
151	0x3f23a9dc	0.6393106
152	0x3f4fc1e3	0.8115522
153	0x3f65d8c3	0.8978388
154	0x3f27fe0e	0.6562203
155	0x3f317a55	0.6932729
156	0xbdadf4ae	-0.084939346
157	0x3d94d701	0.07267571
158	0x3f5cd122	0.8625661
159	0x3f01776c	0.5057285
160	0x3f500c35	0.81268626
161	0x3dfbf53c	0.12302634
162	0x3f38b973	0.72157973
163	0x3ef5fd60	0.48044872
164	0x3f2bafc1	0.67065054
165	0x3d064d21	0.0327884
166	0x3f0092c6	0.5022396
167	0xbd6ada70	-0.057337224
168	0x3b6432b0	0.0034820251
169	0x3cfb0c7f	0.030645607
170	0x3e55be28	0.2087332
171	0x3e98bd49	0.29831913
172	0x3d57f80f	0.0527268
173	0x3f37fd20	0.71870613
174	0x3f1b930d	0.60771257
175	0x3f5d952a	0.8655573
176	0x3e8add71	0.2712207
177	0x3f18ae7f	0.5964126
178	0x3f17084d	0.5899704
179	0x3f693914	0.9110272
180	0x3f4e2686	0.8052753
181	0x3ee9da6b	0.45674452
182	0x3f4a4151	0.79005915
183	0x3f3288ca	0.69739974
184	0x3f5046c7	0.81358
185	0x3f62f8bf	0.88660806
186	0x3f67dee7	0.90574497
187	0x3effade3	0.49937353
188	0x3e0cdcd6	0.13756117
189	0x3c7476fc	0.014920946
190	0x3f427dcb	0.75973195
191	0x3f1fb877	0.62390846
192	0xbe527ae6	-0.20554695
193	0xbda53da3	-0.08068397
194	0xbdca8959	-0.09889478
195	0x3c1625a1	0.009164245
196	0x3cae72e3	0.021295017
197	0xbdb20144	-0.08691648
198	0xbdab10ca	-0.08352812
199	0x3d3fe8f6	0.04685303
200	0xbd04e518	-0.032445043
201	0xbe142af1	-0.14469506
202	0x3e1361c6	0.14392766
203	0x3e20bb1d	0.15696378
204	0xbe03af18	-0.12859762
205	0xbea1f640	-0.31633186
206	0x39d74d50	0.00041065598
207	0xbe8f1068	-0.27942204
208	0xbdd049f0	-0.101703525
209	0xbd548a38	-0.05188963
210	0xbe98be93	-0.29832897
211	0x3cea2814	0.028583564
212	0xbe70f072	-0.23529223
213	0xbde9882c	-0.11402926
214	0xbe49167b	-0.19637482
215	0xbb288b00	-0.0025717616
216	0xbe034c60	-0.12822104
217	0xbe276584	-0.16347319
218	0xbe542110	-0.20715737
219	0xbdac8962	-0.08424641
220	0xbb1b876a	-0.0023731836
221	0x3dcb8908	0.09938246
222	0xbe07746a	-0.13228002
223	0xbe970061	-0.29492477
224	0x3dfbae0e	0.12289058
225	0x3d080716	0.033209883
226	0xbe1290df	-0.14313076
227	0x3d3e402b	0.046447914
228	0x3d91c53a	0.07117696
229	0x3bc8843d	0.0061192797
230	0x3d95f646	0.073223636
231	0x3df96638	0.121777
232	0xbd91bcb0	-0.071160674
233	0xbe0482d7	-0.12940536
234	0xbdaacee0	-0.083402395
235	0x3e1e0259	0.15430583
236	0x3e2bd821	0.16781665
237	0x3cbeba6e	0.023282256
238	0x3d04cf05	0.03242399
239	0x3d37a804	0.044837967
240	0xbe09d957	-0.13461815
241	0x3e0bb17c	0.13641924
242	0xbdf5fabb	-0.12010714
243	0xbd7ec584	-0.062200084
244	0x3d0e2274	0.034700826
245	0x3e2393d4	0.1597436
246	0xbe0f29f6	-0.1398085
247	0xbc79f70b	-0.015256654
248	0xbd492ac9	-0.04911307
249	0xbe333930	-0.17502284
250	0xbe068c14	-0.13139373
251	0x3d423639	0.047414992
252	0x3d68b0a4	0.056809083
253	0x3de86c19	0.11348743
254	0xbc635b1b	-0.013876702
255	0xbdc85066	-0.0978096

fc3.bias f4 [16]
0	0xbe61716c	-0.22015923
1	0xbdf4c924	-0.11952427
2	0x3f41896d	0.7560032
3	0x3f8c40ce	1.0957277
4	0x3f7fe9d5	0.99966174
5	0x3f357ce2	0.7089368
6	0xbe668e88	-0.22515309
7	0xbb92e801	-0.0044832234
8	0x3f3ee27c	0.7456434
9	0x3f4aa03b	0.7915074
10	0xbe3fe793	-0.18740682
11	0xbe226fc6	-0.1586295
12	0xbd6f023e	-0.058351748
13	0x3f5e5d21	0.86860853
14	0x3f842a42	1.0325396
15	0xbe1968ee	-0.14981434

output.weight f4 [1, 16]
0	0xbd7c7982	-0.061639316
1	0xbbbbd8fd	-0.005732654
2	0x3f3db785	0.74108154
3	0x3f7d81bc	0.99026084
4	0x3f516ac5	0.8180354
5	0x3f69cf44	0.9133189
6	0x3d2f4cbe	0.042797796
7	0xbe2c7d4c	-0.16844672
8	0x3f4e629f	0.80619234
9	0x3f7bf91a	0.98426974
10	0xbe06aa5d	-0.13150926
11	0x3e1e8a3e	0.15482423
12	0x3d564bcb	0.052318376
13	0x3f5df588	0.86702776
14	0x3f725377	0.9465861
15	0xbd8ccd7d	-0.06875131

exp_avg f4 [10, 6]
0	0x00000000	0.0
1	0x00000000	0.0
2	0x00000000	0.0
3	0x00000000	0.0
4	0x00000000	0.0
5	0x00000000	0.0
6	0x00000000	0.0
7	0x00000000	0.0
8	0x00000000	0.0
9	0x00000000	0.0
10	0x00000000	0.0
11	0x00000000	0.0
12	0x00000000	0.0
13	0x00000000	0.0
14	0x00000000	0.0
15	0x00000000	0.0
16	0x00000000	0.0
17	0x00000000	0.0
18	0x00000000	0.0
19	0x00000000	0.0
20	0x00000000	0.0
21	0x00000000	0.0
22	0x00000000	0.0
23	0x00000000	0.0
24	0x00000000	0.0
25	0x00000000	0.0
26	0x00000000	0.0
27	0x00000000	0.0
28	0x00000000	0.0
29	0x00000000	0.0
30	0x00000000	0.0
31	0x00000000	0.0
32	0x00000000	0.0
33	0x00000000	0.0
34	0x00000000	0.0
35	0x00000000	0.0
36	0x00000000	0.0
37	0x00000000	0.0
38	0x00000000	0.0
39	0x00000000	0.0
40	0x00000000	0.0
41	0x00000000	0.0
42	0x00000000	0.0
43	0x00000000	0.0
44	0x00000000	0.0
45	0x00000000	0.0
46	0x00000000	0.0
47	0x00000000	0.0
48	0x00000000	0.0
49	0x00000000	0.0
50	0x00000000	0.0
51	0x00000000	0.0
52	0x00000000	0.0
53	0x00000000	0.0
54	0x2dc6d4a8	2.2604432e-11
55	0x2c045279	1.880411e-12
56	0x2bf1c0a2	1.7177546e-12
57	0x2c41dc89	2.7549371e-12
58	0x2c05b6b3	1.9001855e-12
59	0x2bf8ee1e	1.7687551e-12

exp_avg_sq f4 [10, 6]
0	0x00000000	0.0
1	0x00000000	0.0
2	0x00000000	0.0
3	0x00000000	0.0
4	0x00000000	0.0
5	0x00000000	0.0
6	0x00000000	0.0
7	0x00000000	0.0
8	0x00000000	0.0
9	0x00000000	0.0
10	0x00000000	0.0
11	0x00000000	0.0
12	0x00000000	0.0
13	0x00000000	0.0
14	0x00000000	0.0
15	0x00000000	0.0
16	0x00000000	0.0
17	0x00000000	0.0
18	0x00000000	0.0
19	0x00000000	0.0
20	0x00000000	0.0
21	0x00000000	0.0
22	0x00000000	0.0
23	0x00000000	0.0
24	0x00000000	0.0
25	0x00000000	0.0
26	0x00000000	0.0
27	0x00000000	0.0
28	0x00000000	0.0
29	0x00000000	0.0
30	0x00000000	0.0
31	0x00000000	0.0
32	0x00000000	0.0
33	0x00000000	0.0
34	0x00000000	0.0
35	0x00000000	0.0
36	0x00000000	0.0
37	0x00000000	0.0
38	0x00000000	0.0
39	0x00000000	0.0
40	0x00000000	0.0
41	0x00000000	0.0
42	0x00000000	0.0
43	0x00000000	0.0
44	0x00000000	0.0
45	0x00000000	0.0
46	0x00000000	0.0
47	0x00000000	0.0
48	0x00000000	0.0
49	0x00000000	0.0
50	0x00000000	0.0
51	0x00000000	0.0
52	0x00000000	0.0
53	0x00000000	0.0
54	0x444babdd	814.68536
55	0x40b575d7	5.6706347
56	0x4093ba92	4.6165247
57	0x4145742c	12.340862
58	0x40b915dc	5.7839184
59	0x40a3449d	5.1021256

exp_avg f4 [10, 10]
0	0x00000000	0.0
1	0x00000000	0.0
2	0x00000000	0.0
3	0x00000000	0.0
4	0x00000000	0.0
5	0x00000000	0.0
6	0x00000000	0.0
7	0x00000000	0.0
8	0x00000000	0.0
9	0x00000000	0.0
10	0x00000000	0.0
11	0x00000000	0.0
12	0x00000000	0.0
13	0x00000000	0.0
14	0x00000000	0.0
15	0x00000000	0.0
16	0x00000000	0.0
17	0x00000000	0.0
18	0x00000000	0.0
19	0x00000000	0.0
20	0x00000000	0.0
21	0x00000000	0.0
22	0x00000000	0.0
23	0x00000000	0.0
24	0x00000000	0.0
25	0x00000000	0.0
26	0x00000000	0.0
27	0x00000000	0.0
28	0x00000000	0.0
29	0x00000000	0.0
30	0x00000000	0.0
31	0x00000000	0.0
32	0x00000000	0.0
33	0x00000000	0.0
34	0x00000000	0.0
35	0x00000000	0.0
36	0x00000000	0.0
37	0x00000000	0.0
38	0x00000000	0.0
39	0x00000000	0.0
40	0x00000000	0.0
41	0x00000000	0.0
42	0x00000000	0.0
43	0x00000000	0.0
44	0x00000000	0.0
45	0x00000000	0.0
46	0x00000000	0.0
47	0x00000000	0.0
48	0x00000000	0.0
49	0x00000000	0.0
50	0x00000000	0.0
51	0x00000000	0.0
52	0x00000000	0.0
53	0x00000000	0.0
54	0x00000000	0.0
55	0x00000000	0.0
56	0x00000000	0.0
57	0x00000000	0.0
58	0x00000000	0.0
59	0x00000000	0.0
60	0x00000000	0.0
61	0x00000000	0.0
62	0x00000000	0.0
63	0x00000000	0.0
64	0x00000000	0.0
65	0x00000000	0.0
66	0x00000000	0.0
67	0x00000000	0.0
68	0x00000000	0.0
69	0x00000000	0.0
70	0x00000000	0.0
71	0x00000000	0.0
72	0x00000000	0.0
73	0x00000000	0.0
74	0x00000000	0.0
75	0x00000000	0.0
76	0x00000000	0.0
77	0x00000000	0.0
78	0x00000000	0.0
79	0x00000000	0.0
80	0x00000000	0.0
81	0x00000000	0.0
82	0x00000000	0.0
83	0x00000000	0.0
84	0x00000000	0.0
85	0x00000000	0.0
86	0x00000000	0.0
87	0x00000000	0.0
88	0x00000000	0.0
89	0x00000000	0.0
90	0x279c5e18	4.3400715e-15
91	0x279c5e18	4.3400715e-15
92	0x279c5e18	4.3400715e-15
93	0xa79c5e18	-4.3400715e-15
94	0x279c5e18	4.3400715e-15
95	0xa79c5e18	-4.3400715e-15
96	0x279c5e18	4.3400715e-15
97	0x279c5e18	4.3400715e-15
98	0x279c5e18	4.3400715e-15
99	0xa7936583	-4.0910755e-15

exp_avg_sq f4 [10, 10]
0	0x00000000	0.0
1	0x00000000	0.0
2	0x00000000	0.0
3	0x00000000	0.0
4	0x00000000	0.0
5	0x00000000	0.0
6	0x00000000	0.0
7	0x00000000	0.0
8	0x00000000	0.0
9	0x00000000	0.0
10	0x00000000	0.0
11	0x00000000	0.0
12	0x00000000	0.0
13	0x00000000	0.0
14	0x00000000	0.0
15	0x00000000	0.0
16	0x00000000	0.0
17	0x00000000	0.0
18	0x00000000	0.0
19	0x00000000	0.0
20	0x00000000	0.0
21	0x00000000	0.0
22	0x00000000	0.0
23	0x00000000	0.0
24	0x00000000	0.0
25	0x00000000	0.0
26	0x00000000	0.0
27	0x00000000	0.0
28	0x00000000	0.0
29	0x00000000	0.0
30	0x00000000	0.0
31	0x00000000	0.0
32	0x00000000	0.0
33	0x00000000	0.0
34	0x00000000	0.0
35	0x00000000	0.0
36	0x00000000	0.0
37	0x00000000	0.0
38	0x00000000	0.0
39	0x00000000	0.0
40	0x00000000	0.0
41	0x00000000	0.0
42	0x00000000	0.0
43	0x00000000	0.0
44	0x00000000	0.0
45	0x00000000	0.0
46	0x00000000	0.0
47	0x00000000	0.0
48	0x00000000	0.0
49	0x00000000	0.0
50	0x00000000	0.0
51	0x00000000	0.0
52	0x00000000	0.0
53	0x00000000	0.0
54	0x00000000	0.0
55	0x00000000	0.0
56	0x00000000	0.0
57	0x00000000	0.0
58	0x00000000	0.0
59	0x00000000	0.0
60	0x00000000	0.0
61	0x00000000	0.0
62	0x00000000	0.0
63	0x00000000	0.0
64	0x00000000	0.0
65	0x00000000	0.0
66	0x00000000	0.0
67	0x00000000	0.0
68	0x00000000	0.0
69	0x00000000	0.0
70	0x00000000	0.0
71	0x00000000	0.0
72	0x00000000	0.0
73	0x00000000	0.0
74	0x00000000	0.0
75	0x00000000	0.0
76	0x00000000	0.0
77	0x00000000	0.0
78	0x00000000	0.0
79	0x00000000	0.0
80	0x00000000	0.0
81	0x00000000	0.0
82	0x00000000	0.0
83	0x00000000	0.0
84	0x00000000	0.0
85	0x00000000	0.0
86	0x00000000	0.0
87	0x00000000	0.0
88	0x00000000	0.0
89	0x00000000	0.0
90	0x37fd071d	3.0163263e-05
91	0x37fd071d	3.0163263e-05
92	0x37fd071d	3.0163263e-05
93	0x37fd071d	3.0163263e-05
94	0x37fd071d	3.0163263e-05
95	0x37fd071d	3.0163263e-05
96	0x37fd071d	3.0163263e-05
97	0x37fd071d	3.0163263e-05
98	0x37fd071d	3.0163263e-05
99	0x37fd071d	3.0163263e-05

exp_avg f4 [10]
0	0x00000000	0.0
1	0x00000000	0.0
2	0x00000000	0.0
3	0x00000000	0.0
4	0x00000000	0.0
5	0x00000000	0.0
6	0x00000000	0.0
7	0x00000000	0.0
8	0x00000000	0.0
9	0x279c5e18	4.3400715e-15

exp_avg_sq f4 [10]
0	0x00000000	0.0
1	0x00000000	0.0
2	0x00000000	0.0
3	0x00000000	0.0
4	0x00000000	0.0
5	0x00000000	0.0
6	0x00000000	0.0
7	0x00000000	0.0
8	0x00000000	0.0
9	0x37fd071d	3.0163263e-05

exp_avg f4 [10]
0	0x00000000	0.0
1	0x00000000	0.0
2	0x00000000	0.0
3	0x00000000	0.0
4	0x00000000	0.0
5	0x00000000	0.0
6	0x00000000	0.0
7	0x00000000	0.0
8	0x00000000	0.0
9	0x279c5e18	4.3400715e-15

exp_avg_sq f4 [10]
0	0x00000000	0.0
1	0x00000000	0.0
2	0x00000000	0.0
3	0x00000000	0.0
4	0x00000000	0.0
5	0x00000000	0.0
6	0x00000000	0.0
7	0x00000000	0.0
8	0x00000000	0.0
9	0x37fd071d	3.0163263e-05

exp_avg f4 [10, 10]
0	0x3ded2f54	0.11581293
1	0x3ded2f54	0.11581293
2	0x3ded2f54	0.11581293
3	0xbded2f54	-0.11581293
4	0x3ded2f54	0.11581293
5	0xbded2f54	-0.11581293
6	0x3ded2f54	0.11581293
7	0x3ded2f54	0.11581293
8	0x3ded2f54	0.11581293
9	0xbded2f54	-0.11581293
10	0x3f6e53f4	0.9309685
11	0x3f6e53f4	0.9309685
12	0x3f6e53f4	0.9309685
13	0xbf6e53f4	-0.9309685
14	0x3f6e53f4	0.9309685
15	0xbf6e53f4	-0.9309685
16	0x3f6e53f4	0.9309685
17	0x3f6e53f4	0.9309685
18	0x3f6e53f4	0.9309685
19	0xbf6e53f4	-0.9309685
20	0xc01d1ecc	-2.4550047
21	0xc01d1ecc	-2.4550047
22	0xc01d1ecc	-2.4550047
23	0x401d1ecc	2.4550047
24	0xc01d1ecc	-2.4550047
25	0x401d1ecc	2.4550047
26	0xc01d1ecc	-2.4550047
27	0xc01d1ecc	-2.4550047
28	0xc01d1ecc	-2.4550047
29	0x401d1ecc	2.4550047
30	0x41a0e86f	20.113493
31	0x41a0e86f	20.113493
32	0x41a0e86f	20.113493
33	0xc1a0e86f	-20.113493
34	0x41a0e86f	20.113493
35	0xc1a0e86f	-20.113493
36	0x41a0e86f	20.113493
37	0x41a0e86f	20.113493
38	0x41a0e86f	20.113493
39	0xc1a0e86f	-20.113493
40	0xc1ac893e	-21.567013
41	0xc1ac893e	-21.567013
42	0xc1ac893e	-21.567013
43	0x41ac893e	21.567013
44	0xc1ac893e	-21.567013
45	0x41ac893e	21.567013
46	0xc1ac893e	-21.567013
47	0xc1ac893e	-21.567013
48	0xc1ac893e	-21.567013
49	0x41ac893e	21.567013
50	0xc0176dc6	-2.366075
51	0xc0176dc6	-2.366075
52	0xc0176dc6	-2.366075
53	0x40176dc6	2.366075
54	0xc0176dc6	-2.366075
55	0x40176dc6	2.366075
56	0xc0176dc6	-2.366075
57	0xc0176dc6	-2.366075
58	0xc0176dc6	-2.366075
59	0x40176dc6	2.366075
60	0x3e4b9684	0.19881636
61	0x3e4b9684	0.19881636
62	0x3e4b9684	0.19881636
63	0xbe4b9684	-0.19881636
64	0x3e4b9684	0.19881636
65	0xbe4b9684	-0.19881636
66	0x3e4b9684	0.19881636
67	0x3e4b9684	0.19881636
68	0x3e4b9684	0.19881636
69	0xbe4b9684	-0.19881636
70	0xbfba3a1c	-1.4548984
71	0xbfba3a1c	-1.4548984
72	0xbfba3a1c	-1.4548984
73	0x3fba3a1c	1.4548984
74	0xbfba3a1c	-1.4548984
75	0x3fba3a1c	1.4548984
76	0xbfba3a1c	-1.4548984
77	0xbfba3a1c	-1.4548984
78	0xbfba3a1c	-1.4548984
79	0x3fba3a1c	1.4548984
80	0x3f5e93b2	0.86944115
81	0x3f5e93b2	0.86944115
82	0x3f5e93b2	0.86944115
83	0xbf5e93b2	-0.86944115
84	0x3f5e93b2	0.86944115
85	0xbf5e93b2	-0.86944115
86	0x3f5e93b2	0.86944115
87	0x3f5e93b2	0.86944115
88	0x3f5e93b2	0.86944115
89	0xbf5e93b2	-0.86944115
90	0xbff4df17	-1.9130582
91	0xbff4df17	-1.9130582
92	0xbff4df17	-1.9130582
93	0x3ff4df17	1.9130582
94	0xbff4df17	-1.9130582
95	0x3ff4df17	1.9130582
96	0xbff4df17	-1.9130582
97	0xbff4df17	-1.9130582
98	0xbff4df17	-1.9130582
99	0x3ff4df17	1.9130582

exp_avg_sq f4 [10, 10]
0	0x48bf4b03	391768.1
1	0x48bf4b03	391768.1
2	0x48bf4b03	391768.1
3	0x48bf4b03	391768.1
4	0x48bf4b03	391768.1
5	0x48bf4b03	391768.1
6	0x48bf4b03	391768.1
7	0x48bf4b03	391768.1
8	0x48bf4b03	391768.1
9	0x48bf4b03	391768.1
10	0x496cbd46	969684.4
11	0x496cbd46	969684.4
12	0x496cbd46	969684.4
13	0x496cbd46	969684.4
14	0x496cbd46	969684.4
15	0x496cbd46	969684.4
16	0x496cbd46	969684.4
17	0x496cbd46	969684.4
18	0x496cbd46	969684.4
19	0x496cbd46	969684.4
20	0x49c2e13e	1.5964558e+06
21	0x49c2e13e	1.5964558e+06
22	0x49c2e13e	1.5964558e+06
23	0x49c2e13e	1.5964558e+06
24	0x49c2e13e	1.5964558e+06
25	0x49c2e13e	1.5964558e+06
26	0x49c2e13e	1.5964558e+06
27	0x49c2e13e	1.5964558e+06
28	0x49c2e13e	1.5964558e+06
29	0x49c2e13e	1.5964558e+06
30	0x455b98e9	3513.557
31	0x455b98e9	3513.557
32	0x455b98e9	3513.557
33	0x455b98e9	3513.557
34	0x455b98e9	3513.557
35	0x455b98e9	3513.557
36	0x455b98e9	3513.557
37	0x455b98e9	3513.557
38	0x455b98e9	3513.557
39	0x455b98e7	3513.5564
40	0x45ea28d5	7493.104
41	0x45ea28d5	7493.104
42	0x45ea28d5	7493.104
43	0x45ea28d5	7493.104
44	0x45ea28d5	7493.104
45	0x45ea28d5	7493.104
46	0x45ea28d5	7493.104
47	0x45ea28d5	7493.104
48	0x45ea28d5	7493.104
49	0x45ea28bb	7493.0913
50	0x49cf37b9	1.6975271e+06
51	0x49cf37b9	1.6975271e+06
52	0x49cf37b9	1.6975271e+06
53	0x49cf37b9	1.6975271e+06
54	0x49cf37b9	1.6975271e+06
55	0x49cf37b9	1.6975271e+06
56	0x49cf37b9	1.6975271e+06
57	0x49cf37b9	1.6975271e+06
58	0x49cf37b9	1.6975271e+06
59	0x49cf37b9	1.6975271e+06
60	0x494617e0	811390.0
61	0x494617e0	811390.0
62	0x494617e0	811390.0
63	0x494617e0	811390.0
64	0x494617e0	811390.0
65	0x494617e0	811390.0
66	0x494617e0	811390.0
67	0x494617e0	811390.0
68	0x494617e0	811390.0
69	0x494617df	811389.94
70	0x4933838a	735288.6
71	0x4933838a	735288.6
72	0x4933838a	735288.6
73	0x4933838a	735288.6
74	0x4933838a	735288.6
75	0x4933838a	735288.6
76	0x4933838a	735288.6
77	0x4933838a	735288.6
78	0x4933838a	735288.6
79	0x4933838a	735288.6
80	0x485295e3	215639.55
81	0x485295e3	215639.55
82	0x485295e3	215639.55
83	0x485295e3	215639.55
84	0x485295e3	215639.55
85	0x485295e3	215639.55
86	0x485295e3	215639.55
87	0x485295e3	215639.55
88	0x485295e3	215639.55
89	0x485295e1	215639.52
90	0x41e79cad	28.951502
91	0x41e79cad	28.951502
92	0x41e79cad	28.951502
93	0x41e79cad	28.951502
94	0x41e79cad	28.951502
95	0x41e79cad	28.951502
96	0x41e79cad	28.951502
97	0x41e79cad	28.951502
98	0x41e79cad	28.951502
99	0x41e77d9f	28.936338

exp_avg f4 [10, 10]
0	0xbff5a370	-1.9190502
1	0x3f79e196	0.9760984
2	0xbfb1e467	-1.3897828
3	0x3efdf5ad	0.49601498
4	0x3efa140c	0.4884342
5	0xbfa15204	-1.2603154
6	0xbff1d2cd	-1.8892456
7	0xbfde7677	-1.7379903
8	0x3f22c096	0.6357511
9	0x3ef912f8	0.48647285
10	0x3f8afefe	1.0859067
11	0xbf681ab4	-0.90665746
12	0x3f7c8370	0.9863806
13	0xbf50cc7d	-0.81562024
14	0xbf9a7f3a	-1.2070076
15	0x3f75e597	0.9605345
16	0x3f8a4ddb	1.080501
17	0x3f86898b	1.0510725
18	0xbf579ef1	-0.842269
19	0xbf9aa34a	-1.2081082
20	0xbf674353	-0.90337104
21	0x3e181ab9	0.14853944
22	0xbef62d6e	-0.48081535
23	0xbe710e9b	-0.23540728
24	0xbe431906	-0.19052514
25	0xbec056b6	-0.37566155
26	0xbf614030	-0.8798857
27	0xbf41f508	-0.75764513
28	0xbdfd250a	-0.1236058
29	0xbe450310	-0.1923945
30	0x41a199cf	20.200102
31	0xc1a1540c	-20.166039
32	0x41a17303	20.181158
33	0xc1a10da8	-20.131668
34	0x419f5d8d	19.92068
35	0x41a16961	20.176455
36	0x41a19795	20.199015
37	0x41a18ca1	20.193666
38	0xc1a13915	-20.152872
39	0x419fac69	19.959185
40	0xc18bdbb1	-17.482271
41	0x418be8f8	17.488754
42	0xc18be23b	-17.485464
43	0x418b5a50	17.419098
44	0xc16f4e3a	-14.956598
45	0xc18be4c9	-17.486712
46	0xc18bdc25	-17.482492
47	0xc18bde05	-17.483408
48	0x418bed1b	17.490774
49	0xc1ac4f53	-21.538733
50	0xbf0f93f3	-0.5608513
51	0x3ebf3438	0.37344527
52	0xbee951b9	-0.45570162
53	0x3e8e4d1b	0.27793202
54	0x3ee571ee	0.44813484
55	0xbedc236f	-0.42995784
56	0xbf0e0e92	-0.5549098
57	0xbf065f6d	-0.5248936
58	0x3e9c949c	0.3058213
59	0x3ee526ec	0.44756258
60	0xc0328a35	-2.7896855
61	0x3fc8522a	1.5650074
62	0xc006ed8e	-2.1082492
63	0x3f71a0c6	0.94385946
64	0x3f70e4e5	0.94099265
65	0xbff75f2e	-1.9325922
66	0xc0302de6	-2.7528014
67	0xc02346f6	-2.551206
68	0x3f8ff417	1.1246365
69	0x3f704775	0.93859035
70	0xbf37bbec	-0.7177112
71	0x3e8dfce3	0.27732
72	0xbef0365d	-0.46916476
73	0x3d574230	0.052553356
74	0x3da5a49b	0.080880366
75	0xbed21ea1	-0.41038993
76	0xbf340eb2	-0.70334923
77	0xbf224491	-0.63385874
78	0x3df1a994	0.117999226
79	0x3da39445	0.079872645
80	0x3fc5437d	1.5411221
81	0xbfba4fb6	-1.4555576
82	0x3fbf26d9	1.493373
83	0xbfb49d42	-1.4110491
84	0xbe04a60a	-0.12953964
85	0x3fbd9e37	1.4813908
86	0x3fc4eb7d	1.5384365
87	0x3fc32953	1.5246986
88	0xbfb65d02	-1.4247134
89	0xbe022c3a	-0.12712184
90	0xbfe96e72	-1.823683
91	0x3fe97bf0	1.8240948
92	0xbfe973bf	-1.8238448
93	0x3fe92e0c	1.8217177
94	0xbfdcbc1b	-1.7244905
95	0xbfe978c8	-1.8239985
96	0xbfe96e15	-1.8236719
97	0xbfe97284	-1.8238072
98	0x3fe97e85	1.8241736
99	0xbff4bc99	-1.9120055

exp_avg_sq f4 [10, 10]
0	0x47afdfcb	90047.586
1	0x46547d55	13599.333
2	0x459b1fa8	4963.957
3	0x47cf99e6	106291.8
4	0x47d81e56	110652.67
5	0x44126d6e	585.70984
6	0x47a0ec4f	82392.62
7	0x473e7dd5	48765.832
8	0x4788fa77	70132.93
9	0x47d97e2e	111356.36
10	0x454d0acf	3280.6755
11	0x440e6985	569.64874
12	0x4375d50f	245.83226
13	0x45754d2e	3924.8237
14	0x457f29b8	4082.6074
15	0x42a757e0	83.67163
16	0x453cc633	3020.3875
17	0x44de6e58	1779.4482
18	0x4523b43f	2619.2654
19	0x458061ae	4108.21
20	0x475f9550	57237.312
21	0x46045849	8470.071
22	0x453534bf	2899.2966
23	0x47848bbd	67863.48
24	0x478a0165	70658.79
25	0x42815af3	64.677635
26	0x474cc004	52416.016
27	0x46f00629	30723.08
28	0x472ea55e	44709.367
29	0x478ae31e	71110.234
30	0x434fa895	207.65852
31	0x42dd43d3	110.63247
32	0x42c79d90	99.80774
33	0x4363b36e	227.7009
34	0x4365a818	229.65662
35	0x42bc9f60	94.31128
36	0x43460df3	198.05449
37	0x431bc25b	155.7592
38	0x43360f95	182.06087
39	0x436a1119	234.06679
40	0x45e6a434	7380.5254
41	0x45e68c50	7377.539
42	0x45e68f41	7377.9067
43	0x45e55d5c	7339.67
44	0x45640686	3648.4077
45	0x45e68bd4	7377.4785
46	0x45e6a72b	7380.896
47	0x45e69d49	7379.6606
48	0x45e69eb8	7379.84
49	0x45e5912e	7346.1475
50	0x455dcf81	3548.969
51	0x44043ebe	528.98035
52	0x433c2d9e	188.17819
53	0x4582edc7	4189.722
54	0x45884f4d	4361.9126
55	0x4171c1c7	15.109809
56	0x454aeb45	3246.7043
57	0x44efc6c9	1918.212
58	0x452c9a63	2761.6492
59	0x45892dbb	4389.7163
60	0x48124a2e	149800.72
61	0x46b2e8b8	22900.36
62	0x45f68848	7889.035
63	0x482f3981	179430.02
64	0x48366b8b	186798.17
65	0x43a00b74	320.08948
66	0x4806582b	137568.67
67	0x479bbd11	79738.13
68	0x47e77378	118502.94
69	0x48379591	187990.27
70	0x4699b3a7	19673.826
71	0x453026c2	2818.4224
72	0x447476c9	977.856
73	0x46b3c546	23010.637
74	0x46bb3121	23960.564
75	0x4211d425	36.457172
76	0x468c37be	17947.871
77	0x462739d3	10702.456
78	0x466c4830	15122.047
79	0x46bc6351	24113.658
80	0x444cadb0	818.71387
81	0x43447ccf	196.48753
82	0x42f80c0b	124.02352
83	0x44700d72	960.2101
84	0x4478acf2	994.7023
85	0x42afa226	87.816696
86	0x443dcd35	759.20636
87	0x43f04a9c	480.5829
88	0x4425826d	662.0379
89	0x447a14d0	1000.3252
90	0x4196ad99	18.834764
91	0x41d81cd2	27.014072
92	0x41d651a4	26.789864
93	0x41d78039	26.937609
94	0x419c49cf	19.53604
95	0x41d5c8f3	26.72312
96	0x41de1b32	27.763279
97	0x41e078dc	28.059013
98	0x41c9a4d2	25.205479
99	0x419ca513	19.580603

exp_avg f4 [10]
0	0x3ded2f5a	0.11581297
1	0x3f6e53f2	0.9309684
2	0xc01d1ecc	-2.4550047
3	0x41a0e86f	20.113493
4	0xc1ac893e	-21.567013
5	0xc0176dc6	-2.366075
6	0x3e4b9685	0.19881637
7	0xbfba3a1c	-1.4548984
8	0x3f5e93a2	0.8694402
9	0xbff4df17	-1.9130582

exp_avg_sq f4 [10]
0	0x48bf4b02	391768.06
1	0x496cbd48	969684.5
2	0x49c2e13e	1.5964558e+06
3	0x455b98e9	3513.557
4	0x45ea28d4	7493.1035
5	0x49cf37b6	1.6975268e+06
6	0x494617e0	811390.0
7	0x4933838a	735288.6
8	0x485295df	215639.48
9	0x41e79cab	28.951498

exp_avg f4 [10]
0	0x3ded2f5b	0.11581298
1	0x3f6e53f4	0.9309685
2	0xc01d1ece	-2.4550052
3	0x41a0e86f	20.113493
4	0xc1ac893e	-21.567013
5	0xc0176dc6	-2.366075
6	0x3e4b9683	0.19881634
7	0xbfba3a1c	-1.4548984
8	0x3f5e93b0	0.86944103
9	0xbff4df13	-1.9130577

exp_avg_sq f4 [10]
0	0x48bf4b02	391768.06
1	0x496cbd46	969684.4
2	0x49c2e140	1.596456e+06
3	0x455b98ea	3513.5571
4	0x45ea28d4	7493.1035
5	0x49cf37b6	1.6975268e+06
6	0x494617e1	811390.06
7	0x49338389	735288.56
8	0x485295df	215639.48
9	0x41e79cac	28.9515
