models/5/model-Bakery.pth (torch, 34898 bytes, 45 tensors)

rnn.weight_ih_l0 f4 [10, 6]
000000 d8 1b 37 be 1d e6 6b be 74 03 84 be 36 1f e2 3d
       -0.17881715 -0.23037 -0.25783885 0.11041109
000010 2e 29 21 be 7a 49 93 3d ce aa 2e 3e 2f 02 9d be
       -0.15738365 0.07191749 0.17057344 -0.30665728
000020 19 7a 95 be f1 b8 49 3d 89 67 70 3d 9a f2 84 be
       -0.29194716 0.04924864 0.05869249 -0.2596634
000030 42 ed 4e be d6 59 8d be 32 94 72 3e 59 33 53 be
       -0.20207694 -0.27607602 0.23689345 -0.20625056
000040 51 07 0e bd ac 5e 96 be a6 f8 94 be 9e 53 3f be
       -0.034674946 -0.29369104 -0.29095954 -0.18684241
000050 20 1a ad bd c0 75 3d ba 76 d3 8f 3e 6b 8a 8f 3e
       -0.084522486 -0.0007227324 0.2809102 0.28035292
000060 e4 67 16 be 09 cd de 3d 13 67 c8 3d eb 9d 8e bc
       -0.14688069 0.10878951 0.09785285 -0.017409286
000070 0f 22 8d be 10 cc 57 3e a5 5d ab bc bf c0 99 3e
       -0.27565047 0.21073937 -0.020918677 0.30029866
000080 d0 bb 83 3e a4 c8 f4 3c 6a c1 94 3e ce 69 2c ba
       0.25729227 0.02988083 0.29053813 -0.00065770454
000090 25 8c e3 3c ca a1 9b 3d a5 de 3a be 5c 89 0e 3e
       0.027776787 0.07599218 -0.18248995 0.13919586
0000a0 49 1c 9a be 97 88 62 be 91 7b 8d 3e cb ba 01 3e
       -0.30099705 -0.22122417 0.27633336 0.12668912
0000b0 2a f8 47 be fa f2 9a bd b4 fd a6 bd 3f f3 b2 bd
       -0.19528261 -0.07565875 -0.08153859 -0.08737802
0000c0 ea c8 a6 3c 2d 3f 59 3d d1 5a 78 3d 25 81 62 bd
       0.020359475 0.053038765 0.060633484 -0.055298943
0000d0 44 fb 01 3d 5c 4e da 3d d3 38 9b 3d 45 c9 7d bd
       0.031733766 0.10659477 0.07579198 -0.061959524
0000e0 7f 35 77 be 70 77 68 be 8a 42 90 3d a4 db 75 3e
       -0.24141501 -0.22701812 0.07043941 0.24009567

rnn.weight_hh_l0 f4 [10, 10]
000000 97 59 3c 3e 88 6c 3d 3e e5 2a fc bc 41 de ec 3d
       0.18393551 0.18498433 -0.030782172 0.11565829
000010 06 4d a0 be 9a fe a0 be f9 3c 36 3e d5 d7 15 3e
       -0.31308764 -0.31444246 0.17796697 0.14633115
000020 c9 ab 80 bd 79 cb 3c be 73 5e f1 bd 3a e7 8b be
       -0.062827654 -0.18436994 -0.11785593 -0.2732485
000030 b5 09 4d 3e 92 9f 5a 3c 3b e1 44 3e 83 eb 95 be
       0.20023234 0.013343709 0.19226544 -0.29281244
000040 25 8d a0 be f9 3a 1d 3d 9c e8 fc 3d 2b fa 1e 3e
       -0.31357685 0.03838632 0.12349054 0.15525119
000050 ea 3f 37 3e 51 4d 44 3e 88 ed 67 3e 90 68 5b 3e
       0.17895475 0.19170119 0.22649205 0.21426606
000060 aa 34 4b 3e 1f 4a f2 3d 4c f3 71 3e 7a 9e 79 3e
       0.19844308 0.11830544 0.23627967 0.2437686
000070 86 d6 d8 bd 64 0c 8e be ee 0e 85 3e 0c d9 7c be
       -0.10587792 -0.27743828 0.25987953 -0.24692172
000080 07 c6 04 3e e4 88 77 be 8a 76 9e be e5 61 98 3e
       0.12966166 -0.24173313 -0.30949813 0.29762188
000090 bd 48 3a be d2 27 e7 3d fb e2 d6 3a 50 02 75 be
       -0.1819181 0.11286892 0.001639455 -0.23926663
0000a0 19 fd 8e 3e 03 9d 64 3e 2d 1a 5c bd e0 1b 7e be
       0.27927473 0.2232552 -0.0537359 -0.24815321
0000b0 ca 21 ea bd 09 f4 b2 bd fc 2d 4d be 24 bb 3d be
       -0.11432226 -0.08737952 -0.20037073 -0.1852842
0000c0 2c 0b 55 3b 40 df 8a 3e 09 15 3c be be 0e 37 3e
       0.003250788 0.2712345 -0.183674 0.17876717
0000d0 45 9c 28 3e 96 90 a3 3c fa 19 d9 bb 9a 18 ca bc
       0.16465862 0.019966405 -0.006625411 -0.024669934
0000e0 7a 04 81 be a3 16 93 be 4c 5d 6e 3e 12 26 9c 3e
       -0.25198728 -0.28728208 0.23277777 0.30497795
0000f0 95 70 22 be 2a 25 64 be d2 b9 ad 3e e6 43 09 bd
       -0.15863259 -0.22279802 0.33930832 -0.03351202
000100 f0 dd de 3c 2f 3c 41 bd 40 b8 0d be 7e f3 44 3e
       0.027205437 -0.047176536 -0.13839817 0.1923351
000110 d9 ca 3f be 93 65 28 3e 72 bd 54 be 0c a8 70 be
       -0.18729724 0.16444997 -0.20775393 -0.23501605
000120 84 6e 45 be 87 1d 9c 3e 99 81 7a be 47 d9 49 bd
       -0.1928044 0.30491278 -0.244635 -0.049279477
000130 d9 39 90 3e fb 72 60 3e d8 32 9e be 39 9f 81 3e
       0.28169134 0.21918862 -0.30898166 0.2531679
000140 91 b4 ab 3d d8 13 49 be 1b 55 eb 3c d7 00 70 bc
       0.0838405 -0.19636476 0.028727105 -0.014648638
000150 5c e1 5c 3d 8b 8f 91 3e 02 d5 8f be 94 d1 17 3e
       0.053925857 0.28429827 -0.280922 0.14826041
000160 e2 5f 88 be a5 30 d5 3d ae 80 57 3e b2 e8 46 be
       -0.26635653 0.10409669 0.21045181 -0.19424704
000170 97 72 8b be 2d 7e 8e 3d 8a ef 3a 3c c0 a3 bb 3d
       -0.27235863 0.0695766 0.01140965 0.09162092
000180 c2 21 be bd 60 e6 8b bd c3 fe 65 3d 5c ab 88 3c
       -0.092837825 -0.0683105 0.056151163 0.016683273

rnn.bias_ih_l0 f4 [10]
000000 6e a9 b6 3d 13 79 0a 3e 4d 2b 39 3e 70 87 fa bd
       0.08919035 0.13522749 0.18082924 -0.12232864
000010 7a 64 7c 3e 63 db 28 bd fb 6a 5e 3e d0 c6 93 be
       0.24647704 -0.04122485 0.21720497 -0.2886262
000020 cd 30 7f be a7 20 2e 3d
       -0.2492096 0.04251161

rnn.bias_hh_l0 f4 [10]
000000 aa a0 58 3d 3b c0 c5 3d 32 4e 93 3e 27 94 29 3e
       0.052887596 0.09655806 0.28770596 0.16560422
000010 a3 b9 f3 3c 39 75 94 3e 85 9f 2c be 91 e8 50 be
       0.029751604 0.28995684 -0.16857727 -0.20401217
000020 31 66 99 bc 55 73 37 3e
       -0.018725486 0.1791509

rnn.weight_ih_l1 f4 [10, 10]
000000 56 59 13 bd 03 03 03 be db dd a5 bb 9b 6d c6 3e
       -0.03597387 -0.12794118 -0.0050618476 0.38755497
000010 f1 e6 ea 3e f9 39 db 3d b1 ce b9 be df cd 16 3d
       0.4587932 0.10704417 -0.36290506 0.036817428
000020 b7 76 ba bd 55 26 b9 be 87 b4 8f 3e d8 a2 07 be
       -0.09104674 -0.36162058 0.2806742 -0.13245714
000030 c4 9e 17 3d af 5a ff 3e 48 8d 72 bd 34 8b 6f be
       0.037016645 0.49873874 -0.059216768 -0.23392946
000040 95 48 03 3c a3 32 d2 be 36 ca b7 be 02 1c 8b 3d
       0.00801291 -0.41054258 -0.35896462 0.067924514
000050 03 8a be bd d3 1c ca bd e2 81 98 be a8 12 c1 be
       -0.093036674 -0.09868779 -0.29786593 -0.37709546
000060 f3 81 93 bd 9b da d8 3e c6 23 83 3e 7d e5 94 bd
       -0.0720252 0.42354283 0.2561323 -0.07270334
000070 00 0e c6 3e ea a2 fb bc f1 3c d3 be 83 bb 86 3e
       0.38682556 -0.030717332 -0.41257432 0.26314935
000080 eb cf c0 be aa 77 84 3d 69 4d 00 bf 5d 0e 8d 3e
       -0.3765863 0.064681366 -0.5011812 0.2755002
000090 3c 31 ec 3e 01 a3 a0 3e f7 42 02 3f f3 ae b1 3e
       0.46131313 0.31374362 0.5088343 0.34703788
0000a0 de 3e 71 3e 42 84 82 be 1c b2 f0 3e 64 0b cb 3e
       0.23559138 -0.2549153 0.47010887 0.39657128
0000b0 bc 6d cc bc c5 50 eb bd bb fe a0 bc 65 5f ef bd
       -0.02495467 -0.11490015 -0.019652715 -0.11688117
0000c0 68 be 6f be f7 03 06 be ac 30 8c be a6 e0 d7 3e
       -0.23412478 -0.1308745 -0.27380884 0.4216358
0000d0 2e 1f f2 be 40 e9 a2 be 5b 61 2d bd 71 1e 96 3e
       -0.47289413 -0.3181858 -0.042329174 0.293201
0000e0 dc 6a 9b bd 5a d2 e9 3e 54 3d b0 bd 10 87 1a bc
       -0.07588741 0.45668298 -0.086054474 -0.0094316155
0000f0 15 38 bb 3e 37 eb 45 be 2e c4 81 3e 7d 7c 6d 3e
       0.36566225 -0.19328009 0.25344986 0.2319202
000100 e9 7a 7f 3e 0d ad 9f be 60 1e c4 bd 43 9b 95 3d
       0.2494923 -0.31186715 -0.09576106 0.073050044
000110 bf 8f e4 be 5f 18 e2 be 4f 4b 9a 3d 00 bb ba bc
       -0.4464092 -0.4415922 0.07533895 -0.022794247
000120 8e 00 3e 3e b5 40 27 3e 69 f2 ab bb 0c b0 8b be
       0.18554899 0.16333278 -0.0052474034 -0.2728275
000130 c2 b5 3d be 66 f2 80 be be 73 3c be 8b 1f e5 be
       -0.18526366 -0.25184935 -0.18403527 -0.44750628
000140 ae d2 d9 be e8 1a bf 3e 44 f5 9f 3d 82 ae c8 be
       -0.42543548 0.37325215 0.078104526 -0.3919564
000150 1d c2 2a be 5c e3 ff 3e c5 c3 76 bc 88 61 df 3e
       -0.16675611 0.4997815 -0.0150613235 0.43629098
000160 4b 3e be 3c 02 6b e6 3e 88 92 c6 bd 2b f5 d1 be
       0.023223063 0.45003515 -0.09695917 -0.4100736
000170 a0 d4 ec 3e c4 1a 5f 3e ef a7 42 3e f0 3b 79 be
       0.4625597 0.21787554 0.19009374 -0.2433927
000180 76 f7 86 be b5 cf bf be 67 8c 4c bc 3b d9 e4 be
       -0.26360673 -0.37463155 -0.012484646 -0.44696984

rnn.weight_hh_l1 f4 [10, 10]
000000 ff 98 3e 3e 70 1d 91 3e c0 9e 6a bd 04 c0 fd be
       0.18613051 0.28342772 -0.057280302 -0.4956056
000010 ab 0d 61 3e 00 b3 07 bf 50 ad 9a 3d 2a 6d d6 3e
       0.2197787 -0.5300751 0.07552588 0.4188016
000020 96 eb 0a bf 79 63 c7 3e 03 c9 b3 3e bf c4 a6 3e
       -0.54265726 0.3894308 0.35114297 0.3257198
000030 3d d8 14 bf e1 97 ec be 3b 9f 37 3e 97 52 cb bd
       -0.58142453 -0.46209624 0.17931835 -0.09927862
000040 66 b6 e0 3e 19 99 15 3d 61 14 94 be 41 a1 11 3f
       0.4388916 0.03652296 -0.28921798 0.5688668
000050 31 09 d7 be 55 5c 0f bf c8 7e 39 3e 5f d9 ff 3e
       -0.419992 -0.5600026 0.1811477 0.49970528
000060 6e a5 b4 be 8f b4 cd 3e 67 2e 4f bd 2b 24 ff be
       -0.35282463 0.40176818 -0.050581362 -0.4983228
000070 3d 75 52 3e 13 06 d0 be 99 c2 4a bb 64 f1 ac be
       0.20552535 -0.40629634 -0.0030938743 -0.33777916
000080 f8 90 78 3e b9 40 01 3f f8 b4 02 bf 29 e7 c6 3c
       0.24274051 0.50489384 -0.51057386 0.024280148
000090 29 72 ec bc ce 04 da be 0a ef 12 3e be 4c 5f be
       -0.02886303 -0.4258179 0.14348999 -0.21806619
0000a0 4d 71 06 3f 37 f8 17 3e 96 e6 bb be 1d 64 db be
       0.52516633 0.1484078 -0.3669936 -0.42849818
0000b0 70 61 c7 3e 6f 27 0f bf a2 78 93 3d 59 44 56 bb
       0.38941526 -0.55919546 0.07200743 -0.0032694547
0000c0 51 42 d3 be e3 9f 8d 3e 6e c0 3a be 3f 29 10 bf
       -0.41261533 0.27661046 -0.18237469 -0.56312937
0000d0 23 52 b1 3e c0 01 ee 3e fa 72 8f 3c 91 5a 44 3d
       0.34632978 0.4648571 0.01751088 0.047937933
0000e0 fa 14 ab be f3 4c c4 bd d7 9c 67 3e 30 ae 67 be
       -0.3341444 -0.095849894 0.22618423 -0.22625041
0000f0 47 90 0c 3f 9e 50 1b 3e a1 23 6e 3b dd 42 06 bf
       0.5490765 0.15167472 0.0036337154 -0.52445775
000100 72 1d cd 3e 5b dd 03 bf 1f f7 f7 3e 07 5a 8a 3e
       0.40061527 -0.51509637 0.48430726 0.2702181
000110 a1 51 00 bf b9 86 13 3f 48 ad 0e 3f 77 98 cf 3e
       -0.50124556 0.57627445 0.55733156 0.4054601
000120 e1 d5 09 bd bd f3 cd be 61 13 8c 3e 9e 2d 13 bf
       -0.033651236 -0.4022502 0.27358535 -0.5749148
000130 10 64 87 3e 6e 35 da 3e 0a 3e dc be f6 08 4d 3e
       0.2644353 0.4261889 -0.43016082 0.2002295
000140 a8 0a 52 be eb d0 57 be a7 57 5f bb 1b eb b6 3e
       -0.20511878 -0.2107579 -0.0034079344 0.35726246
000150 72 3e 14 be 95 c3 10 3f 10 3c eb be 82 22 14 bf
       -0.14476946 0.56548434 -0.45944262 -0.57865155
000160 3b f3 19 3e 96 24 88 bd 1e 22 ae 3e 90 ac d5 3e
       0.15034191 -0.06647603 0.34010404 0.41733217
000170 76 ef ec be 05 ea 0c bf ad aa 11 3e 92 c0 73 be
       -0.46276444 -0.55044585 0.14225264 -0.23803928
000180 0a b5 9f 3c 1f 51 67 3e b0 04 ea be be de 07 3e
       0.019495506 0.22589539 -0.457067 0.13268563

rnn.bias_ih_l1 f4 [10]
000000 f3 ce b7 be 3a 09 0f 3c e4 77 3e 3d 65 5b f7 3e
       -0.35900077 0.008730227 0.046501055 0.48311916
000010 ae d1 6e be 8c 64 e5 3e 03 2f ca be e9 2b 78 be
       -0.23322174 0.44803274 -0.39488992 -0.242355
000020 ba 24 d9 3e 3b 0c ec be
       0.42410833 -0.4610308

rnn.bias_hh_l1 f4 [10]
000000 51 08 57 be 9a ad 69 be 6e fc 1b 3d 0b 3b 35 bd
       -0.20999266 -0.2282013 0.038082533 -0.04424576
000010 8c 8c fe be d8 3a c5 3e 69 e6 f8 bd e1 d2 eb be
       -0.49716604 0.38521457 -0.12153322 -0.46059325
000020 09 58 59 3e 0c 6f b0 be
       0.21224989 -0.34459722

fc1.weight f4 [20, 10]
000000 e2 26 b4 be e0 12 c4 be 31 b2 01 3f e1 78 c9 3e
       -0.35185915 -0.3829565 0.50662524 0.39350036
000010 0d c4 ff be 49 9a 3f 3f 41 4d 42 bf fd c4 32 bf
       -0.49954262 0.74844795 -0.7589913 -0.6983183
000020 2c 95 c4 3e fb 20 d3 be d0 85 6e be a4 d4 de 3b
       0.3839506 -0.412361 -0.23293233 0.006800251
000030 ce 79 76 3e a4 8a 99 be bf 7f 81 be 05 78 01 3e
       0.24069902 -0.29988587 -0.25292775 0.1264344
000040 39 d4 2b 3e 53 e6 38 3e ba 8b 84 be 46 3b 78 3e
       0.16780175 0.18056612 -0.25887853 0.24241361
000050 ba f4 3a bf 37 9e 0f bf 96 e2 42 3f 8e c8 ce 3e
       -0.73029673 -0.5610079 0.7612699 0.40387386
000060 56 b6 18 bf fb 9d 1c 3f 13 54 49 bf d0 f2 4a bf
       -0.5965322 0.6117856 -0.7864391 -0.7927675
000070 40 f9 36 3f e2 60 cd be 28 86 20 bf f0 d0 de be
       0.71474075 -0.40112978 -0.62704706 -0.43518782
000080 1f a9 d5 3e fd fa f8 3e 44 b8 b9 be 97 a6 05 3f
       0.41730592 0.4862899 -0.36273396 0.5220732
000090 1f 2a 10 bf b9 0e 25 bf a6 3c 4f 3f 36 bf ae be
       -0.5631427 -0.6447559 0.8095192 -0.34130257
0000a0 3e 98 f6 be cd c0 cc be d7 00 1a 3f 58 42 b6 3e
       -0.48163027 -0.39990845 0.6015753 0.3559749
0000b0 9a d9 06 bf ed 83 54 3f d4 c1 97 be 90 98 42 bf
       -0.52675784 0.830138 -0.29640067 -0.7601404
0000c0 26 e3 27 3f cc 86 ec be d4 fb 2e bf 8f 9c a4 be
       0.65580976 -0.46196592 -0.6835301 -0.32150695
0000d0 bb d8 a7 3e e0 d8 e2 3e 40 26 b9 be b1 66 fa 3e
       0.3278254 0.44306087 -0.36161995 0.48906472
0000e0 ef 4d 88 be c4 24 df be 1f 86 2d 3f 81 88 4e bf
       -0.2662196 -0.43582737 0.6778278 -0.8067704
0000f0 b8 c1 f1 be 88 11 3b bf a8 6d fd 3e 83 4d 2e 3f
       -0.47218108 -0.73073626 0.49497724 0.68087023
000100 89 c5 26 bf f9 7c 4f 3f 9b 98 c3 be 06 06 ce be
       -0.65145165 0.8105007 -0.38202366 -0.4023897
000110 d9 a0 ce 3e 8f cf 4a bf 3b d2 2e bf ef 72 93 be
       0.40357092 -0.7922296 -0.68289536 -0.28798625
000120 d2 13 04 3f c2 c7 e4 3e da 77 3a bf fe 69 26 3f
       0.51592743 0.44683653 -0.7283913 0.6500548
000130 5a 56 1d bf b5 d8 15 bf ff c9 84 3e 1a c8 e4 be
       -0.6145989 -0.58533794 0.2593536 -0.44683915
000140 c8 a9 9b 3c 12 ad 3f 3e c1 93 27 3c c4 4b b8 bc
       0.019001856 0.18718365 0.010228098 -0.022497065
000150 e2 6a 56 3e 91 af 8a be e9 ef 02 be e5 ba 9c 3e
       0.2093921 -0.27087072 -0.12786831 0.3061134
000160 9a 41 1a 3e f2 f7 06 be 73 34 d7 3d 42 d0 38 3c
       0.15064088 -0.13180521 0.10508051 0.011280121
000170 cd 4a b3 bd 44 da 49 be 93 39 8e 3d a4 60 3b 3e
       -0.087545015 -0.19712168 0.06944575 0.18298584
000180 e3 27 94 3e d8 70 e0 3d dc c3 32 3e b7 52 9b 3d
       0.2893668 0.10959023 0.17457527 0.07584136
000190 fb 8d 08 3e df c6 33 be 9a 9c 89 3e 06 34 a8 3c
       0.13335411 -0.17556332 0.2687729 0.02053262
0001a0 37 b6 0c bd 91 d7 2a 3e 00 be 25 be e7 66 59 3d
       -0.03435346 0.16683795 -0.1618576 0.05307665
0001b0 6c db 9d be 18 7d 4f 3e b3 2c e0 3c 7d 59 9d bc
       -0.30831468 0.20262563 0.027365064 -0.01920771
0001c0 98 8d 30 3e b0 80 8b bd 58 82 87 3d f2 1a 2f be
       0.17241514 -0.068116546 0.06616658 -0.17100123
0001d0 c8 dc 90 3d cb b8 34 3d ef 97 18 be a3 b4 13 3e
       0.07073361 0.044121545 -0.14901708 0.14424376
0001e0 2a ff dc bd 67 c3 25 be 0c 1e 72 3e 99 d6 0f be
       -0.10790856 -0.16187821 0.23644274 -0.14046706
0001f0 52 e3 2e be e4 25 18 be 26 66 82 bd 11 96 91 3e
       -0.17078903 -0.14858204 -0.063671395 0.28434804
000200 00 77 8d be 75 fe 91 3e b0 35 17 bf f3 bf 25 bf
       -0.27629852 0.28514448 -0.59066296 -0.64746016
000210 53 98 ed 3e da 15 4b 3f 9c 93 f8 be a0 a3 c8 3e
       0.46405277 0.7933022 -0.48550117 0.39187336
000220 93 88 eb be ce 28 e2 be 19 d3 4b 3f 77 f7 32 bf
       -0.46002635 -0.44171757 0.79618984 -0.6990885
000230 5f 23 27 bf 2c d3 0c bf be 7e d7 3e 66 d5 dc 3e
       -0.65288347 -0.5500972 0.42088884 0.4313156
000240 9b b2 07 bf 44 27 81 3e d9 ea f6 be 6c 25 cd be
       -0.53006905 0.2522527 -0.4822605 -0.40067613
000250 e3 11 58 3f 9c 5e 12 bf 85 10 34 bf a3 09 19 bf
       0.8440229 -0.5717561 -0.70337707 -0.5978033
000260 65 fb 0a 3f d3 62 59 3f b6 9f 3c bf 0f 50 7b 3e
       0.5428985 0.8491642 -0.736812 0.24542259
000270 87 0e 18 bf d4 d9 3f bf b8 68 0a 3f 55 7e 13 bf
       -0.59397167 -0.74941754 0.5406604 -0.5761464
000280 97 d0 42 bf 2d 26 90 be 45 cd 16 3f e6 76 17 3f
       -0.7609953 -0.28154126 0.58906966 0.591658
000290 e9 5b 2a bf a1 bc 1b 3f 09 ee 4d bf 23 88 52 bf
       -0.66546494 0.608347 -0.8044134 -0.8223898
0002a0 94 1a b1 3e 48 fa 30 bf 75 78 af be 0d 24 31 bf
       0.3459059 -0.691319 -0.3427159 -0.69195634
0002b0 5c c6 0c 3f e2 e0 14 3f cf 36 18 bf 7b 87 0e 3f
       0.5499017 0.58155644 -0.5945863 0.55675477
0002c0 bb 97 a7 be 4a 04 4b bf 66 9f 21 3f 70 84 49 bf
       -0.3273295 -0.7930342 0.6313385 -0.7871771
0002d0 0f aa c6 be 7e 05 2c bf 5e d5 f3 3e 1e 8e 57 3e
       -0.3880162 -0.6719588 0.47623724 0.21050307
0002e0 ec 2b 92 be 85 01 2c 3f 9d ae 08 bf b1 26 45 bf
       -0.28549135 0.6718982 -0.5339144 -0.77012163
0002f0 67 57 1b 3f 74 b6 fe be 77 77 a2 be b1 f4 39 bf
       0.6068024 -0.49748576 -0.3173177 -0.72638994
000300 dc 1f c0 3e 6e ca a3 3e 1a b1 47 bf 8f 7e 32 3f
       0.37524307 0.3199038 -0.7800461 0.69724363
000310 0e b8 93 be de 2e 9f be 70 66 43 3f 1d 65 b6 be
       -0.2885136 -0.31090444 0.7632818 -0.35624018

fc1.bias f4 [20]
000000 59 26 50 3f d7 23 32 3e 95 86 dd 3e 79 19 c5 3e
       0.81308514 0.17396484 0.4326674 0.38495997
000010 c9 60 3a 3f 8e 13 39 3f 8e 4e fb 3e 23 75 20 3f
       0.7280393 0.72295463 0.4908337 0.62678736
000020 ed 1b 61 3d 9f a1 66 bb 5c 7f 96 be 2d f6 11 be
       0.054958273 -0.0035191549 -0.29394042 -0.14254065
000030 94 00 4f be 7a f3 2e 3f 31 f1 2a 3f b6 97 56 3f
       -0.20215064 0.68340266 0.6677428 0.8382524
000040 d6 22 b6 3e a3 b5 41 3f c2 f1 e8 3e 9e d9 d7 3e
       0.35573453 0.7566778 0.45496947 0.42158216

fc2.weight f4 [32, 20]
000000 dc 0a a5 bc 72 f2 15 be af f9 79 bd 97 76 fa 3d
       -0.02014678 -0.14643267 -0.061029132 0.122296505
000010 bd b2 b2 3d 99 7c 2a bc 60 5e cc 3d 72 16 56 be
       0.08725498 -0.010405683 0.09978938 -0.20907
000020 49 97 7d bd 7a 18 49 3e dd 98 cf bd ac ba 57 be
       -0.061911855 0.19638243 -0.10136578 -0.21067303
000030 de 13 8f 3d 89 3e 47 3d 7d 88 05 3d be 1b 05 3e
       0.06986211 0.048643623 0.03260087 0.12998864
000040 49 6a b8 bd cb 34 a0 bd e5 1c ad bd a1 51 89 3d
       -0.09004647 -0.078225695 -0.08452777 0.067050226
000050 99 b6 87 3d 98 5f 4b 3e 73 0e 82 bd 16 05 23 3e
       0.066266246 0.19860685 -0.06350412 0.15919909
000060 ee 7f 06 be 0e f2 29 3d d7 e5 20 be ab ef 84 3d
       -0.13134739 0.041490607 -0.15712677 0.064910255
000070 b5 ce 55 be ee d4 af 3d 39 90 26 3e 3d 2d a0 3c
       -0.20879634 0.08585535 0.16265954 0.019552821
000080 01 6a de 3c 0a 60 0e be 9e f9 29 3e bd 8f 19 3e
       0.027150156 -0.13903823 0.16599128 0.14996238
000090 24 b5 37 be 7f 2d 05 3d cd c1 5f bc e6 c0 1d be
       -0.17940193 0.03251409 -0.013657046 -0.15405616
0000a0 b8 35 1f 3f 02 fe df bd 40 6c 02 3f 24 c9 f9 3e
       0.62191343 -0.1093712 0.50946426 0.4878627
0000b0 6f 4d 48 3f 80 45 31 3f 32 c9 19 3f 76 cc c9 3e
       0.78243154 0.69246674 0.60072625 0.39413804
0000c0 d2 a7 4f be 70 85 38 bd 1a 8b 09 be cb f7 bd bc
       -0.20278862 -0.04504913 -0.1343197 -0.023189446
0000d0 23 58 79 3d 2c c6 cc 3e bb f2 af 3e 46 c0 16 3f
       0.06087507 0.39994943 0.34364876 0.58887136
0000e0 40 fc 3f 3f 26 3b cc 3e 3a a1 f7 3e 05 20 cb 3e
       0.7499428 0.39888877 0.48365194 0.39672866
0000f0 2c 72 a5 3e cd d1 57 be 54 dd 18 3f 7f be 33 3f
       0.3231367 -0.21076126 0.5971272 0.7021255
000100 6e a6 e4 3e 7b 44 31 3f b3 f1 12 3f d2 b9 3c 3f
       0.44658226 0.6924512 0.57400054 0.7372104
000110 a8 5c dd bc 3e 49 0c 3e d7 52 30 be 33 b3 e8 3d
       -0.027021721 0.13699815 -0.17219101 0.113623045
000120 59 1f 4e be 9e 3c 33 3f 6e b9 1c 3f 5e 67 98 3e
       -0.20129146 0.7001437 0.61220443 0.29766363
000130 e5 0c c0 3e a1 c4 32 3f bb 90 08 3f 7e 0e f6 3e
       0.37509838 0.6983128 0.5334584 0.48057932
000140 da 93 4e be b1 c6 ef 3c 2b 47 37 be 68 37 bc bc
       -0.20173588 0.029269548 -0.17898242 -0.022975639
000150 5d cc d7 3d 80 53 0f bd 52 d0 44 be 82 32 a0 bd
       0.10537026 -0.03499174 -0.19220093 -0.078221336
000160 52 49 bb bc 79 99 15 bc 34 88 58 be ed 0e a1 bd
       -0.02286211 -0.009130829 -0.21145707 -0.07864175
000170 57 4d 24 3e 95 68 c2 bd 53 de 5f be 6d 2b 22 3d
       0.16045128 -0.09492604 -0.21862154 0.039592195
000180 ff 82 17 3e d2 c9 22 bd e4 3a 55 3d b7 c3 41 be
       0.14796065 -0.039743252 0.052058116 -0.18922316
000190 b0 20 34 3f 2d 00 0d 3d 12 65 08 3f 6e b2 25 3f
       0.7036238 0.034423996 0.5327922 0.6472539
0001a0 58 4f 2e 3f 39 7e 33 3f 04 c1 e7 3e 85 4c a3 3e
       0.6808982 0.70114475 0.45264447 0.31894317
0001b0 13 6f 62 be fd 63 25 be 25 65 3e 3e a7 c4 e0 bd
       -0.22112684 -0.16151424 0.18593271 -0.109750085
0001c0 95 45 49 be bb 37 13 3f b6 56 0d 3f 48 ba 24 3f
       -0.1965545 0.5750691 0.55210435 0.6434674
0001d0 f9 a0 04 3f 3c 6e 19 3f 77 7a 94 3e 77 96 3a 3f
       0.51808125 0.5993383 0.28999683 0.7288584
0001e0 23 be 06 be 99 81 10 be 74 34 da bd 12 59 21 be
       -0.13158469 -0.14111938 -0.10654536 -0.15756634
0001f0 3d a1 ba 3d 2c 70 b6 3d 18 18 a1 bd c5 c6 27 3e
       0.09112785 0.08908114 -0.07865924 0.16384418
000200 21 f8 b6 bc 91 a4 d8 3d ab e8 c9 3c d4 79 3d be
       -0.022335114 0.105782636 0.024647078 -0.18503505
000210 3e 7a b0 3d 60 96 56 be 93 21 50 3e 60 4f 53 3d
       0.08617066 -0.20955801 0.20325308 0.05158937
000220 22 90 2e 3d 68 18 11 be 47 dd 31 3e 84 32 4e be
       0.042617925 -0.14169466 0.17369567 -0.20136458
000230 f9 cf 08 3e a6 57 0e 3e e1 98 d3 3d a3 6f ff 3c
       0.13360585 0.13900623 0.10331894 0.031181162
000240 7c 2a 2a 3e f5 76 25 3d 89 8d 25 be 7a 8c d6 3d
       0.16617769 0.04039665 -0.16167273 0.104760125
000250 7b 33 bd bd b0 fb ef 3c b5 71 25 3e ab 7f 30 3d
       -0.09238335 0.029294819 0.16156657 0.043090504
000260 92 bf ad 3d fa d2 31 be 63 11 11 be 11 71 47 3e
       0.08483805 -0.17365637 -0.14166789 0.19476725
000270 91 28 52 be c5 d8 13 be 77 a0 c1 bd a6 7c c0 bd
       -0.20523287 -0.1443816 -0.09454434 -0.09398775
000280 a1 30 fa 3e dc 6a 92 bd 7d ad 07 3f 5f 78 44 3f
       0.48865226 -0.07149288 0.529991 0.7674617
000290 6f 79 c0 3e 70 67 2d 3f 8d e9 3e 3f d0 b1 16 3f
       0.37592646 0.6773596 0.7457512 0.5886507
0002a0 47 86 0d 3c f8 d3 83 bd 42 eb 54 3d 01 66 2a 3e
       0.008637971 -0.06436914 0.05198217 0.16640474
0002b0 0c c0 e4 3c 8c f8 08 3f d6 fb 23 3f 1a 03 0e 3f
       0.027923606 0.5350425 0.64056146 0.5547348
0002c0 b6 1d 16 3f 3a 98 e1 3e d9 b8 3c 3f 6a 4f 0a 3f
       0.58639085 0.44061452 0.73719555 0.54027426
0002d0 b8 e2 a9 3e 7e fa b6 bd 98 11 e0 3e 72 b5 17 3f
       0.33180785 -0.08934496 0.43763423 0.5926124
0002e0 8d 97 e5 3e 24 35 0f 3f da b7 3f 3f 2e 83 0b 3f
       0.44842187 0.5594046 0.7488991 0.5449704
0002f0 e7 12 39 3b 96 fa 25 be d6 1e 24 be de 0a 0d 3e
       0.0028240026 -0.16208872 -0.16027388 0.13773677
000300 21 b5 ca 3d 6c 19 13 3f 75 e7 13 3f e2 26 28 3f
       0.09897829 0.57460666 0.5777505 0.6568433
000310 5c ac 43 3f 97 f0 ee 3e 34 97 22 3f ca 55 38 3f
       0.76434875 0.4666793 0.6351197 0.72005904
000320 20 50 93 bd 95 6d 30 bd d2 05 4a bd 96 c2 36 be
       -0.07193017 -0.043073256 -0.049321957 -0.17847666
000330 bc c4 41 3e 93 c8 82 3d 93 d9 46 be 85 08 47 3e
       0.18922704 0.06385913 -0.19418935 0.19436844
000340 c8 6f 42 be b7 08 72 3d 06 87 25 bd de fa bb 3a
       -0.18987954 0.059090342 -0.04041197 0.0014341732
000350 61 18 77 bd 6a 52 d7 bd 40 5f 43 3e ca 03 a1 3d
       -0.060325984 -0.10513766 0.19079304 0.07862051
000360 17 8e 47 be da e6 2c bd 81 97 c5 3d ca 05 83 3d
       -0.19487797 -0.042212345 0.09648038 0.063975886
000370 22 a4 09 3e 98 23 1b 3e 05 ea b1 3b 93 f0 92 3d
       0.13441518 0.15150297 0.0054295086 0.07174792
000380 ae 92 f2 bc 14 a8 ae bd a8 de 3e 3e 27 8c bb 3d
       -0.029610958 -0.08528152 0.18639624 0.09157591
000390 cb be 3c 3e ff 6f 73 bc 2c 63 0a 3e a8 5d ac bd
       0.18432157 -0.014858245 0.13514394 -0.08416301
0003a0 55 03 d9 bc b5 28 2d be b2 56 b3 bd ff a0 42 be
       -0.026490847 -0.1691006 -0.0875677 -0.19006728
0003b0 43 aa 3e bd 72 63 54 be 68 62 08 3e 4a bf c3 3c
       -0.046549093 -0.2074106 0.13318789 0.023894925
0003c0 34 5a da bd 7e b1 5f be fd 21 47 3c d8 1c 59 3e
       -0.10661736 -0.21845052 0.0121540995 0.2120241
0003d0 f1 63 9a 3d 61 95 0f bb ff a9 15 3e 12 c2 e1 3d
       0.075385936 -0.0021909105 0.1461563 0.11023344
0003e0 54 75 04 3d 5a 0e af 3d 3a 68 37 be 12 78 e1 bb
       0.032338455 0.08547659 -0.17910853 -0.0068807686
0003f0 8a eb bd bd cd ee 0a be ab c0 f7 bc 0d d9 ce bd
       -0.09273441 -0.13567658 -0.030243238 -0.10099993

fc2.bias f4 [32]
000000 5f 79 6a be bd f5 0e be 35 91 31 3f 80 f2 cb 3e
       -0.22897862 -0.13960929 0.69362193 0.3983345
000010 de d5 d0 3d 2b 48 15 3f b4 41 16 3d fd ce 71 bc
       0.10197042 0.58313245 0.036683753 -0.0147588225
000020 9e 5c c7 3e 2b e0 c6 3e 2e dd 0d be 72 40 ca 3d
       0.3893785 0.38842902 -0.13853905 0.09875573
000030 aa 1f a6 3d 3f 5b a9 3d 45 55 ee bd 82 23 09 3f
       0.08111508 0.08269357 -0.116373576 0.53569806
000040 9f 58 0b 3f 41 81 3c bc 6b 07 22 be fc 48 a1 3e
       0.544321 -0.011505426 -0.15823142 0.31500995
000050 c7 3e 1b 3c 98 b5 97 bc bd 86 59 3e 93 48 c5 3e
       0.0094754165 -0.018519208 0.21242805 0.38531932
000060 8f 67 f4 bd e6 ec 15 be 7a bb 1a 3f 88 b7 0d 3f
       -0.11933815 -0.14641151 0.60442317 0.5535817
000070 63 94 0d 3f 96 1a 9c bd 32 e1 25 3f 33 91 05 3f
       0.55304545 -0.07622258 0.64796746 0.5217468

fc3.weight f4 [16, 32]
000000 03 51 11 be ce 6d 34 3e 8e 3e 28 3f c1 d9 27 3f
       -0.1419106 0.17620012 0.6572045 0.6556664
000010 7b 34 a0 bd 26 b0 0d 3f 42 7e cf 3c cc d5 c8 ba
       -0.0782251 0.55346906 0.02532876 -0.0015322505
000020 7f e8 05 3f 9c 55 fb 3e eb cc 3b bd 76 54 d3 3d
       0.52307886 0.49088752 -0.045849722 0.10318844
000030 29 1d 07 3e 27 a5 44 bd 37 b6 b8 bd 7d 3d 31 3f
       0.13194717 -0.048009064 -0.0901913 0.6923445
000040 99 2d 2b 3f 4c 5b da 3d 65 63 aa bd e3 00 04 3f
       0.6686645 0.10661945 -0.08319739 0.51563853
000050 6b e0 ec bb 35 4a f7 bb 3b e0 1c 3f a0 2e 09 3f
       -0.007228901 -0.007546688 0.6127965 0.5358677
000060 c1 c9 05 be da 3a a7 bc 20 26 2e 3f 49 ee 0d 3f
       -0.13065244 -0.020413805 0.68026924 0.5544172
000070 0b 5f f5 3e 52 ad 2c 3e 2b e3 11 3f 3c 63 2c 3f
       0.47924075 0.16862991 0.56987256 0.6733892
000080 05 df ed bc 81 de 1b be 12 e0 8c bd 93 0c 41 3d
       -0.029037008 -0.15221597 -0.068786755 0.047131132
000090 55 c9 1e be 5f 29 b8 bc b3 f3 e1 bd 34 35 fe bd
       -0.1550649 -0.022480665 -0.1103281 -0.124124914
0000a0 d5 c0 a6 bd c8 a4 56 bd 51 dd 05 be 71 e4 1a 3e
       -0.081422485 -0.05240324 -0.13072707 0.15126206
0000b0 1a 82 32 3d c7 8d 4e 3d c3 b8 31 3e d4 c1 2d be
       0.043581106 0.05042818 0.17355637 -0.16968471
0000c0 41 19 c4 3d 21 78 09 be 65 d5 31 be e1 a3 92 3d
       0.09575129 -0.13424732 -0.1736656 0.07160164
0000d0 bc 74 21 3e ee 9f 95 bc 1a e3 08 be 6e b1 17 be
       0.15767187 -0.018264737 -0.13367882 -0.14813778
0000e0 3b 75 0c 3e d4 5b 2a 3e 4c 83 2e 3e 13 fb a9 bd
       0.13716595 0.16636592 0.17042273 -0.08299842
0000f0 74 6e 0e 3e d6 b8 75 3d e6 a9 c3 bd 60 7f 2f 3e
       0.13909322 0.059990726 -0.0955389 0.17138433
000100 5a aa 06 3e 7a b1 20 3e 94 78 19 3f 4d 84 01 3f
       0.13150921 0.15692702 0.5994961 0.505925
000110 23 7b 0d 3e d4 ce e1 3e a4 31 9c bd 61 d7 32 3e
       0.13816504 0.4410311 -0.07626656 0.17464973
000120 1d 4f c2 3e 1d c9 07 3f 17 8b 80 3d 37 75 fe bd
       0.37950984 0.5304125 0.06276529 -0.12424701
000130 49 b3 f6 3c ab b7 04 bd 96 c7 c0 ba f0 4e 23 3f
       0.030114787 -0.032401722 -0.0014707919 0.63792324
000140 e5 6f f8 3e 56 d3 32 3e 89 e1 5d bd 16 a8 2f 3f
       0.4852287 0.17463431 -0.054170165 0.68615854
000150 76 5b 95 bd 22 d9 7b bd 04 53 0c 3f 6d df f1 3e
       -0.072928354 -0.06148637 0.5481417 0.47240773
000160 88 eb a2 bd f3 cb 1d be 93 57 32 3f ce 21 08 3f
       -0.0795508 -0.15409832 0.6966488 0.5317658
000170 23 a3 dd 3e bc a3 34 be d3 c9 1a 3f 57 5f d7 3e
       0.43288526 -0.17640585 0.6046421 0.42064926
000180 35 98 1d be b9 1d 26 be ae 6f bb 3d c3 35 23 be
       -0.15390094 -0.16222276 0.091521606 -0.15938477
000190 cd 60 ac 3d 1d 1b dd bd d7 fb 0f be 5f 5a 0c bd
       0.08416901 -0.10796187 -0.14060913 -0.034265872
0001a0 a7 89 2b be cd 3d 96 bd 35 9b 6c 3d 76 cd 17 3e
       -0.16751729 -0.07336006 0.057765204 0.14824471
0001b0 44 f6 04 3c 4d 9b a6 bd 75 61 1b 3e 43 9b 16 bc
       0.008115355 -0.0813509 0.15173896 -0.009192291
0001c0 98 24 bd bc 3d c7 5d 3d 0b 1f f7 3d f5 01 2d be
       -0.023088738 0.054145087 0.12066468 -0.16895278
0001d0 b6 14 33 3e a7 92 c9 bd 8e f5 26 3d 0a 8c f4 bd
       0.1748837 -0.09842425 0.040761523 -0.11940773
0001e0 3e 3d 22 be 61 9c b1 ba f8 e3 cd 3d 71 fa cd bd
       -0.15843675 -0.0013550633 0.10053247 -0.100575335
0001f0 3b 74 0c be 1d fb cc bd d8 44 20 3e cf fe 01 bd
       -0.13716213 -0.100088336 0.15651262 -0.031737145
000200 70 51 f6 3c b0 4a 9a 3d 52 04 1e 3f 5d 36 2d 3f
       0.03006813 0.07533777 0.6172534 0.67661077
000210 66 4b 2c be 08 31 f8 3e 64 5c 36 bd 01 cb 28 3e
       -0.16825637 0.48474908 -0.044521704 0.1648369
000220 7c a3 25 3f d4 9c 07 3f b8 10 80 3d ba 8d 0f 3e
       0.6470258 0.52973676 0.06253189 0.14018908
000230 9b ce 03 bc 6d d1 0f be cd 57 b9 3b cf 7e 19 3f
       -0.008044864 -0.14044733 0.0056562186 0.5995912
000240 f3 b2 10 3f 6e 03 84 3d 16 60 ec bd 79 e9 35 3f
       0.56523055 0.06445967 -0.115417644 0.71059376
000250 d7 43 d1 bd 41 e2 bd 3d 37 dd 99 3e 38 0a 0e 3f
       -0.102180175 0.0927167 0.30051586 0.5548434
000260 41 47 43 bd 65 b8 36 3d 28 32 23 3f 5d f3 2c 3f
       -0.047675375 0.044609446 0.6374841 0.6755884
000270 3d 9a 22 3f 20 d3 07 3e c1 a0 28 3f 42 c5 17 3f
       0.635166 0.13264132 0.6587029 0.59285367
000280 44 dd 92 3d d6 9f 27 3b bc dd 3f bd 14 7a c5 3d
       0.07171109 0.0025577447 -0.04684232 0.09642425
000290 06 ba ca bd e5 f6 2c be 54 2c 67 bc 9c 13 1e bd
       -0.098987624 -0.16891058 -0.01410969 -0.03859292
0002a0 a8 ed 82 bd fb c4 f7 3c 84 df 97 bc e1 d5 ce bd
       -0.063929856 0.030245295 -0.018539198 -0.10099388
0002b0 82 9c 6d bc f8 73 82 bd b3 f4 2f be e8 0b 19 be
       -0.014502646 -0.063697755 -0.17183189 -0.14945948
0002c0 63 0a 13 3d 4f 1b ec bd a8 f3 30 be 0b ce 8f 3d
       0.035898577 -0.11528646 -0.17280447 0.070217215
0002d0 9a 64 4b bc 8e f2 21 3e dd 00 82 bb 3e 80 76 bd
       -0.012414122 0.15815184 -0.003967388 -0.060180895
0002e0 9b 75 34 bd 9e c9 30 bd 23 87 06 be d4 9e 32 bb
       -0.04405747 -0.043161027 -0.13137488 -0.0027255313
0002f0 a3 05 cc bd e3 c6 e5 3d 90 33 09 3e 50 21 22 bc
       -0.099620126 0.11219575 0.13398576 -0.009895638
000300 49 f5 e2 bc 33 fa f5 bd bf 7f 19 be 07 2d 96 bd
       -0.027704852 -0.12010612 -0.14990138 -0.07332807
000310 2a 2f 0d 3e 31 68 1c be 4b f4 1e 3d 87 3d a9 bd
       0.13787523 -0.15274121 0.038807195 -0.082636885
000320 3b 14 0f 3e af 53 17 3e 9c ae 06 be 37 f7 1d be
       0.13972561 0.14778017 -0.13152546 -0.15426336
000330 72 12 0a be 54 7e b1 bc fc 41 1b 3d 19 64 9d bc
       -0.13483599 -0.021666683 0.037904724 -0.01921277
000340 14 98 8d 3d 5e a7 f3 3d a2 67 d1 bd 86 f7 bd 3d
       0.06913772 0.11897157 -0.102248445 0.09275727
000350 83 24 cf bd 73 8a 00 be 43 70 23 3e 18 42 1a be
       -0.10114386 -0.12552814 0.15960793 -0.15064275
000360 78 8d ac 3d f6 be 7d 3d 86 f4 00 3e b1 1e 04 be
       0.084254205 0.061949693 0.12593278 -0.12902333
000370 05 7b c1 bc 28 f0 a7 3d 1d 4c 89 bd aa ed 24 3d
       -0.02361823 0.08200103 -0.067039706 0.040265717
000380 9c d8 26 3c 30 08 27 be e1 e8 42 3d d4 53 0e be
       0.01018348 -0.16311717 0.047585372 -0.13899165
000390 ae 3e 0e be e2 4a fc bd 1f f5 bb 3d e6 21 e5 3d
       -0.13891098 -0.1231897 0.091776125 0.11188106
0003a0 8d ba e0 bc 02 51 b4 bd 1e 43 db bd ff 79 db ba
       -0.027432704 -0.088045135 -0.10706161 -0.0016744732
0003b0 fb 22 0e be 6f 22 95 3c f0 fd 0b bd 18 ba 73 bd
       -0.13880531 0.018204896 -0.03417772 -0.059503645
0003c0 33 fd fe 3d fe 04 68 3d 16 39 e8 3d 84 a9 04 be
       0.12450638 0.056645386 0.11339013 -0.1295529
0003d0 67 fa a3 3d 85 84 d6 3d 91 c9 39 bd d4 6f e2 3d
       0.08006745 0.10474495 -0.045358244 0.11056486
0003e0 78 10 e2 3d ea 35 fb 3d 23 89 3a be 8e d4 bf bd
       0.110382974 0.12266143 -0.18216376 -0.093667135
0003f0 b1 00 ca bd b4 5c 66 bd 61 e8 b2 3d 34 5e bb 3d
       -0.09863413 -0.056240752 0.08735729 0.09148827

fc3.bias f4 [16]
000000 88 ef bf 3e 5a 4a cf bd b5 fd d1 3e 2f 3a 97 3c
       0.37487435 -0.10121603 0.41013876 0.018460361
000010 58 6e 0f 3f c8 43 b5 3d fd 1d 92 bd 07 82 05 3e
       0.56027746 0.08850819 -0.07134626 0.13037883
000020 20 d9 e3 bd dc db 8c bd 4a ad b8 3d 5e b1 9b bd
       -0.11125398 -0.06877872 0.09017427 -0.076021895
000030 87 a4 05 3e 05 fd 0c 3d e6 09 6a 3d 35 b5 80 3e
       0.13051043 0.034420986 0.057138346 0.2513825

output.weight f4 [1, 16]
000000 68 29 20 3f c0 81 a5 bb 48 45 1d 3f 00 a3 2c 3b
       0.6256318 -0.005050868 0.6143384 0.0026342273
000010 6e 43 43 3f a0 d2 15 be 1f d5 b9 bb 2e f2 73 be
       0.76274765 -0.14631128 -0.005671158 -0.23822853
000020 46 22 80 bd a0 3a 73 be 48 7e 61 be 60 12 cc bc
       -0.06256537 -0.23752832 -0.22020829 -0.024911106
000030 4f 6c 52 bd d7 54 1a be cd 8c 09 be 39 b9 20 3f
       -0.051372822 -0.15071426 -0.13432617 0.6278263

exp_avg f4 [10, 6]
000000 00 00 00 00 00 00 00 00 00 00 00 00 00 00 00 00
       0.0 0.0 0.0 0.0
000010 00 00 00 00 00 00 00 00 00 00 00 00 00 00 00 00
       0.0 0.0 0.0 0.0
000020 00 00 00 00 00 00 00 00 00 00 00 00 00 00 00 00
       0.0 0.0 0.0 0.0
000030 00 00 00 00 00 00 00 00 00 00 00 00 00 00 00 00
       0.0 0.0 0.0 0.0
000040 00 00 00 00 00 00 00 00 00 00 00 00 00 00 00 00
       0.0 0.0 0.0 0.0
000050 00 00 00 00 00 00 00 00 00 00 00 00 00 00 00 00
       0.0 0.0 0.0 0.0
000060 00 00 00 00 00 00 00 00 00 00 00 00 00 00 00 00
       0.0 0.0 0.0 0.0
000070 00 00 00 00 00 00 00 00 00 00 00 00 00 00 00 00
       0.0 0.0 0.0 0.0
000080 00 00 00 00 00 00 00 00 00 00 00 00 00 00 00 00
       0.0 0.0 0.0 0.0
000090 aa 09 69 2c ce 71 91 2a ba f9 5a 2a f7 15 f3 2a
       3.3116656e-12 2.5836142e-13 1.9448931e-13 4.3180712e-13
0000a0 0d 1d 90 2a 5a 94 a5 2a 00 00 00 00 00 00 00 00
       2.5599697e-13 2.9412827e-13 0.0 0.0
0000b0 00 00 00 00 00 00 00 00 00 00 00 00 00 00 00 00
       0.0 0.0 0.0 0.0
0000c0 00 00 00 00 00 00 00 00 00 00 00 00 00 00 00 00
       0.0 0.0 0.0 0.0
0000d0 00 00 00 00 00 00 00 00 00 00 00 00 00 00 00 00
       0.0 0.0 0.0 0.0
0000e0 00 00 00 00 00 00 00 00 00 00 00 00 00 00 00 00
       0.0 0.0 0.0 0.0

exp_avg_sq f4 [10, 6]
000000 00 00 00 00 00 00 00 00 00 00 00 00 00 00 00 00
       0.0 0.0 0.0 0.0
000010 00 00 00 00 00 00 00 00 00 00 00 00 00 00 00 00
       0.0 0.0 0.0 0.0
000020 00 00 00 00 00 00 00 00 00 00 00 00 00 00 00 00
       0.0 0.0 0.0 0.0
000030 00 00 00 00 00 00 00 00 00 00 00 00 00 00 00 00
       0.0 0.0 0.0 0.0
000040 00 00 00 00 00 00 00 00 00 00 00 00 00 00 00 00
       0.0 0.0 0.0 0.0
000050 00 00 00 00 00 00 00 00 00 00 00 00 00 00 00 00
       0.0 0.0 0.0 0.0
000060 00 00 00 00 00 00 00 00 00 00 00 00 00 00 00 00
       0.0 0.0 0.0 0.0
000070 00 00 00 00 00 00 00 00 00 00 00 00 00 00 00 00
       0.0 0.0 0.0 0.0
000080 00 00 00 00 00 00 00 00 00 00 00 00 00 00 00 00
       0.0 0.0 0.0 0.0
000090 6a 0e 6c 4e cb 59 62 4a 02 a1 d3 4a 3f dd a0 4a
       9.900919e+08 3.7085308e+06 6.934657e+06 5.2711995e+06
0000a0 5a 13 96 4a 50 67 15 4a 00 00 00 00 00 00 00 00
       4.917677e+06 2.447828e+06 0.0 0.0
0000b0 00 00 00 00 00 00 00 00 00 00 00 00 00 00 00 00
       0.0 0.0 0.0 0.0
0000c0 00 00 00 00 00 00 00 00 00 00 00 00 00 00 00 00
       0.0 0.0 0.0 0.0
0000d0 00 00 00 00 00 00 00 00 00 00 00 00 00 00 00 00
       0.0 0.0 0.0 0.0
0000e0 00 00 00 00 00 00 00 00 00 00 00 00 00 00 00 00
       0.0 0.0 0.0 0.0

exp_avg f4 [10, 10]
000000 00 00 00 00 00 00 00 00 00 00 00 00 00 00 00 00
       0.0 0.0 0.0 0.0
000010 00 00 00 00 00 00 00 00 00 00 00 00 00 00 00 00
       0.0 0.0 0.0 0.0
000020 00 00 00 00 00 00 00 00 00 00 00 00 00 00 00 00
       0.0 0.0 0.0 0.0
000030 00 00 00 00 00 00 00 00 00 00 00 00 00 00 00 00
       0.0 0.0 0.0 0.0
000040 00 00 00 00 00 00 00 00 00 00 00 00 00 00 00 00
       0.0 0.0 0.0 0.0
000050 00 00 00 00 00 00 00 00 00 00 00 00 00 00 00 00
       0.0 0.0 0.0 0.0
000060 00 00 00 00 00 00 00 00 00 00 00 00 00 00 00 00
       0.0 0.0 0.0 0.0
000070 00 00 00 00 00 00 00 00 00 00 00 00 00 00 00 00
       0.0 0.0 0.0 0.0
000080 00 00 00 00 00 00 00 00 00 00 00 00 00 00 00 00
       0.0 0.0 0.0 0.0
000090 00 00 00 00 00 00 00 00 00 00 00 00 00 00 00 00
       0.0 0.0 0.0 0.0
0000a0 00 00 00 00 00 00 00 00 00 00 00 00 00 00 00 00
       0.0 0.0 0.0 0.0
0000b0 00 00 00 00 00 00 00 00 00 00 00 00 00 00 00 00
       0.0 0.0 0.0 0.0
0000c0 00 00 00 00 00 00 00 00 00 00 00 00 00 00 00 00
       0.0 0.0 0.0 0.0
0000d0 00 00 00 00 00 00 00 00 00 00 00 00 00 00 00 00
       0.0 0.0 0.0 0.0
0000e0 00 00 00 00 00 00 00 00 00 00 00 00 00 00 00 00
       0.0 0.0 0.0 0.0
0000f0 2b 9f 8d a6 2b 9f 8d 26 2b 9f 8d a6 2b 9f 8d a6
       -9.826983e-16 9.826983e-16 -9.826983e-16 -9.826983e-16
000100 2b 9f 8d a6 2b 9f 8d 26 d7 9e 8d a6 2b 9f 8d 26
       -9.826983e-16 9.826983e-16 -9.826894e-16 9.826983e-16
000110 2b 9f 8d 26 2b 9f 8d 26 00 00 00 00 00 00 00 00
       9.826983e-16 9.826983e-16 0.0 0.0
000120 00 00 00 00 00 00 00 00 00 00 00 00 00 00 00 00
       0.0 0.0 0.0 0.0
000130 00 00 00 00 00 00 00 00 00 00 00 00 00 00 00 00
       0.0 0.0 0.0 0.0
000140 00 00 00 00 00 00 00 00 00 00 00 00 00 00 00 00
       0.0 0.0 0.0 0.0
000150 00 00 00 00 00 00 00 00 00 00 00 00 00 00 00 00
       0.0 0.0 0.0 0.0
000160 00 00 00 00 00 00 00 00 00 00 00 00 00 00 00 00
       0.0 0.0 0.0 0.0
000170 00 00 00 00 00 00 00 00 00 00 00 00 00 00 00 00
       0.0 0.0 0.0 0.0
000180 00 00 00 00 00 00 00 00 00 00 00 00 00 00 00 00
       0.0 0.0 0.0 0.0

exp_avg_sq f4 [10, 10]
000000 00 00 00 00 00 00 00 00 00 00 00 00 00 00 00 00
       0.0 0.0 0.0 0.0
000010 00 00 00 00 00 00 00 00 00 00 00 00 00 00 00 00
       0.0 0.0 0.0 0.0
000020 00 00 00 00 00 00 00 00 00 00 00 00 00 00 00 00
       0.0 0.0 0.0 0.0
000030 00 00 00 00 00 00 00 00 00 00 00 00 00 00 00 00
       0.0 0.0 0.0 0.0
000040 00 00 00 00 00 00 00 00 00 00 00 00 00 00 00 00
       0.0 0.0 0.0 0.0
000050 00 00 00 00 00 00 00 00 00 00 00 00 00 00 00 00
       0.0 0.0 0.0 0.0
000060 00 00 00 00 00 00 00 00 00 00 00 00 00 00 00 00
       0.0 0.0 0.0 0.0
000070 00 00 00 00 00 00 00 00 00 00 00 00 00 00 00 00
       0.0 0.0 0.0 0.0
000080 00 00 00 00 00 00 00 00 00 00 00 00 00 00 00 00
       0.0 0.0 0.0 0.0
000090 00 00 00 00 00 00 00 00 00 00 00 00 00 00 00 00
       0.0 0.0 0.0 0.0
0000a0 00 00 00 00 00 00 00 00 00 00 00 00 00 00 00 00
       0.0 0.0 0.0 0.0
0000b0 00 00 00 00 00 00 00 00 00 00 00 00 00 00 00 00
       0.0 0.0 0.0 0.0
0000c0 00 00 00 00 00 00 00 00 00 00 00 00 00 00 00 00
       0.0 0.0 0.0 0.0
0000d0 00 00 00 00 00 00 00 00 00 00 00 00 00 00 00 00
       0.0 0.0 0.0 0.0
0000e0 00 00 00 00 00 00 00 00 00 00 00 00 00 00 00 00
       0.0 0.0 0.0 0.0
0000f0 f9 8b 46 3e f9 8b 46 3e f9 8b 46 3e f9 8b 46 3e
       0.19389333 0.19389333 0.19389333 0.19389333
000100 f9 8b 46 3e f9 8b 46 3e a6 d9 43 3e f9 8b 46 3e
       0.19389333 0.19389333 0.19125995 0.19389333
000110 f9 8b 46 3e f9 8b 46 3e 00 00 00 00 00 00 00 00
       0.19389333 0.19389333 0.0 0.0
000120 00 00 00 00 00 00 00 00 00 00 00 00 00 00 00 00
       0.0 0.0 0.0 0.0
000130 00 00 00 00 00 00 00 00 00 00 00 00 00 00 00 00
       0.0 0.0 0.0 0.0
000140 00 00 00 00 00 00 00 00 00 00 00 00 00 00 00 00
       0.0 0.0 0.0 0.0
000150 00 00 00 00 00 00 00 00 00 00 00 00 00 00 00 00
       0.0 0.0 0.0 0.0
000160 00 00 00 00 00 00 00 00 00 00 00 00 00 00 00 00
       0.0 0.0 0.0 0.0
000170 00 00 00 00 00 00 00 00 00 00 00 00 00 00 00 00
       0.0 0.0 0.0 0.0
000180 00 00 00 00 00 00 00 00 00 00 00 00 00 00 00 00
       0.0 0.0 0.0 0.0

exp_avg f4 [10]
000000 00 00 00 00 00 00 00 00 00 00 00 00 00 00 00 00
       0.0 0.0 0.0 0.0
000010 00 00 00 00 00 00 00 00 2b 9f 8d 26 00 00 00 00
       0.0 0.0 9.826983e-16 0.0
000020 00 00 00 00 00 00 00 00
       0.0 0.0

exp_avg_sq f4 [10]
000000 00 00 00 00 00 00 00 00 00 00 00 00 00 00 00 00
       0.0 0.0 0.0 0.0
000010 00 00 00 00 00 00 00 00 b0 b5 10 42 00 00 00 00
       0.0 0.0 36.17743 0.0
000020 00 00 00 00 00 00 00 00
       0.0 0.0

exp_avg f4 [10]
000000 00 00 00 00 00 00 00 00 00 00 00 00 00 00 00 00
       0.0 0.0 0.0 0.0
000010 00 00 00 00 00 00 00 00 2b 9f 8d 26 00 00 00 00
       0.0 0.0 9.826983e-16 0.0
000020 00 00 00 00 00 00 00 00
       0.0 0.0

exp_avg_sq f4 [10]
000000 00 00 00 00 00 00 00 00 00 00 00 00 00 00 00 00
       0.0 0.0 0.0 0.0
000010 00 00 00 00 00 00 00 00 b0 b5 10 42 00 00 00 00
       0.0 0.0 36.17743 0.0
000020 00 00 00 00 00 00 00 00
       0.0 0.0

exp_avg f4 [10, 10]
000000 22 ec bb c2 22 ec bb 42 22 ec bb c2 22 ec bb c2
       -93.9612 93.9612 -93.9612 -93.9612
000010 22 ec bb c2 22 ec bb 42 f2 eb bb c2 22 ec bb 42
       -93.9612 93.9612 -93.96083 93.9612
000020 22 ec bb 42 22 ec bb 42 94 db a0 c1 94 db a0 41
       93.9612 93.9612 -20.107216 20.107216
000030 94 db a0 c1 94 db a0 c1 94 db a0 c1 94 db a0 41
       -20.107216 -20.107216 -20.107216 20.107216
000040 dd da a0 c1 94 db a0 41 94 db a0 41 94 db a0 41
       -20.106867 20.107216 20.107216 20.107216
000050 a1 b1 60 42 a1 b1 60 c2 a1 b1 60 42 a1 b1 60 42
       56.173466 -56.173466 56.173466 56.173466
000060 a1 b1 60 42 a1 b1 60 c2 47 b1 60 42 a1 b1 60 c2
       56.173466 -56.173466 56.173122 -56.173466
000070 a1 b1 60 c2 a1 b1 60 c2 0e 8c a5 41 0e 8c a5 c1
       -56.173466 -56.173466 20.693386 -20.693386
000080 0e 8c a5 41 0e 8c a5 41 0e 8c a5 41 0e 8c a5 c1
       20.693386 20.693386 20.693386 -20.693386
000090 f0 8b a5 41 0e 8c a5 c1 0e 8c a5 c1 0e 8c a5 c1
       20.693329 -20.693386 -20.693386 -20.693386
0000a0 91 ce 10 c1 91 ce 10 41 91 ce 10 c1 91 ce 10 c1
       -9.050431 9.050431 -9.050431 -9.050431
0000b0 91 ce 10 c1 91 ce 10 41 fe cd 10 c1 91 ce 10 41
       -9.050431 9.050431 -9.050291 9.050431
0000c0 91 ce 10 41 91 ce 10 41 55 10 7a 41 55 10 7a c1
       9.050431 9.050431 15.628987 -15.628987
0000d0 55 10 7a 41 55 10 7a 41 55 10 7a 41 55 10 7a c1
       15.628987 15.628987 15.628987 -15.628987
0000e0 de 0e 7a 41 55 10 7a c1 55 10 7a c1 55 10 7a c1
       15.62863 -15.628987 -15.628987 -15.628987
0000f0 69 07 91 bf 69 07 91 3f 69 07 91 bf 69 07 91 bf
       -1.1330386 1.1330386 -1.1330386 -1.1330386
000100 69 07 91 bf 69 07 91 3f fd 06 91 bf 69 07 91 3f
       -1.1330386 1.1330386 -1.1330258 1.1330386
000110 69 07 91 3f 69 07 91 3f c8 f5 4f c1 c8 f5 4f 41
       1.1330386 1.1330386 -12.997505 12.997505
000120 c8 f5 4f c1 c8 f5 4f c1 c8 f5 4f c1 c8 f5 4f 41
       -12.997505 -12.997505 -12.997505 12.997505
000130 5b f5 4f c1 c8 f5 4f 41 c8 f5 4f 41 c8 f5 4f 41
       -12.997401 12.997505 12.997505 12.997505
000140 39 88 bc 40 39 88 bc c0 39 88 bc 40 39 88 bc 40
       5.8916287 -5.8916287 5.8916287 5.8916287
000150 39 88 bc 40 39 88 bc c0 5a 87 bc 40 39 88 bc c0
       5.8916287 -5.8916287 5.8915224 -5.8916287
000160 39 88 bc c0 39 88 bc c0 3b 4d 1a c1 3b 4d 1a 41
       -5.8916287 -5.8916287 -9.643855 9.643855
000170 3b 4d 1a c1 3b 4d 1a c1 3b 4d 1a c1 3b 4d 1a 41
       -9.643855 -9.643855 -9.643855 9.643855
000180 ff 4c 1a c1 3b 4d 1a 41 3b 4d 1a 41 3b 4d 1a 41
       -9.643798 9.643855 9.643855 9.643855

exp_avg_sq f4 [10, 10]
000000 47 86 29 4a 47 86 29 4a 47 86 29 4a 47 86 29 4a
       2.7774898e+06 2.7774898e+06 2.7774898e+06 2.7774898e+06
000010 47 86 29 4a 47 86 29 4a 70 5d 29 4a 47 86 29 4a
       2.7774898e+06 2.7774898e+06 2.774876e+06 2.7774898e+06
000020 47 86 29 4a 47 86 29 4a 53 53 83 48 53 53 83 48
       2.7774898e+06 2.7774898e+06 268954.6 268954.6
000030 53 53 83 48 53 53 83 48 53 53 83 48 53 53 83 48
       268954.6 268954.6 268954.6 268954.6
000040 5c 33 83 48 53 53 83 48 53 53 83 48 53 53 83 48
       268698.88 268954.6 268954.6 268954.6
000050 4a f6 7e 4a 4a f6 7e 4a 4a f6 7e 4a 4a f6 7e 4a
       4.1772985e+06 4.1772985e+06 4.1772985e+06 4.1772985e+06
000060 4a f6 7e 4a 4a f6 7e 4a df b7 7e 4a 4a f6 7e 4a
       4.1772985e+06 4.1772985e+06 4.1733038e+06 4.1772985e+06
000070 4a f6 7e 4a 4a f6 7e 4a a7 6d fc 45 a7 6d fc 45
       4.1772985e+06 4.1772985e+06 8077.7065 8077.7065
000080 a7 6d fc 45 a7 6d fc 45 a7 6d fc 45 a7 6d fc 45
       8077.7065 8077.7065 8077.7065 8077.7065
000090 47 30 fc 45 a7 6d fc 45 a7 6d fc 45 a7 6d fc 45
       8070.0347 8077.7065 8077.7065 8077.7065
0000a0 08 91 e9 46 08 91 e9 46 08 91 e9 46 08 91 e9 46
       29896.516 29896.516 29896.516 29896.516
0000b0 08 91 e9 46 08 91 e9 46 70 58 e9 46 08 91 e9 46
       29896.516 29896.516 29868.219 29896.516
0000c0 08 91 e9 46 08 91 e9 46 ba ac bc 45 ba ac bc 45
       29896.516 29896.516 6037.591 6037.591
0000d0 ba ac bc 45 ba ac bc 45 ba ac bc 45 ba ac bc 45
       6037.591 6037.591 6037.591 6037.591
0000e0 45 7e bc 45 ba ac bc 45 ba ac bc 45 ba ac bc 45
       6031.7837 6037.591 6037.591 6037.591
0000f0 dd b5 29 46 dd b5 29 46 dd b5 29 46 dd b5 29 46
       10861.466 10861.466 10861.466 10861.466
000100 dd b5 29 46 dd b5 29 46 98 8d 29 46 dd b5 29 46
       10861.466 10861.466 10851.398 10861.466
000110 dd b5 29 46 dd b5 29 46 88 2c 84 48 88 2c 84 48
       10861.466 10861.466 270692.25 270692.25
000120 88 2c 84 48 88 2c 84 48 88 2c 84 48 88 2c 84 48
       270692.25 270692.25 270692.25 270692.25
000130 2b 0d 84 48 88 2c 84 48 88 2c 84 48 88 2c 84 48
       270441.34 270692.25 270692.25 270692.25
000140 72 05 0f 45 72 05 0f 45 72 05 0f 45 72 05 0f 45
       2288.3403 2288.3403 2288.3403 2288.3403
000150 72 05 0f 45 72 05 0f 45 41 e2 0e 45 72 05 0f 45
       2288.3403 2288.3403 2286.1409 2288.3403
000160 72 05 0f 45 72 05 0f 45 17 a2 6b 46 17 a2 6b 46
       2288.3403 2288.3403 15080.522 15080.522
000170 17 a2 6b 46 17 a2 6b 46 17 a2 6b 46 17 a2 6b 46
       15080.522 15080.522 15080.522 15080.522
000180 5c 6a 6b 46 17 a2 6b 46 17 a2 6b 46 17 a2 6b 46
       15066.59 15080.522 15080.522 15080.522

exp_avg f4 [10, 10]
000000 f2 e2 bb c2 09 ea bb c2 0d e6 bb 42 e1 e9 bb 42
       -93.94325 -93.9571 93.94932 93.956795
000010 3f eb bb c2 a9 ea bb 42 04 ec bb c2 fa ea bb c2
       -93.959465 93.95832 -93.96097 -93.95894
000020 9b eb bb 42 32 eb bb c2 b6 d3 a0 c1 c7 d9 a0 c1
       93.96017 -93.959366 -20.103374 -20.106337
000030 5d d6 a0 41 a5 d9 a0 41 d0 da a0 c1 4f da a0 41
       20.10467 20.106272 -20.106842 20.106596
000040 79 db a0 c1 95 da a0 c1 1f db a0 41 c6 da a0 c1
       -20.107164 -20.10673 20.106993 -20.106823
000050 a4 a6 60 42 1f af 60 42 5b aa 60 c2 ee ae 60 c2
       56.162735 56.171017 -56.166363 -56.17083
000060 92 b0 60 42 de af 60 c2 7a b1 60 42 40 b0 60 42
       56.172432 -56.171745 56.173317 56.17212
000070 ff b0 60 c2 83 b0 60 42 f7 83 a5 41 35 8a a5 41
       -56.172848 56.172375 20.689436 20.692484
000080 b3 86 a5 c1 12 8a a5 c1 46 8b a5 41 c1 8a a5 c1
       -20.690771 -20.692417 20.693005 -20.69275
000090 f3 8b a5 41 0a 8b a5 41 98 8b a5 c1 3b 8b a5 41
       20.693335 20.69289 -20.693161 20.692984
0000a0 7d c7 10 c1 f5 cc 10 c1 e0 c9 10 41 d3 cc 10 41
       -9.048703 -9.050038 9.049286 9.050006
0000b0 e2 cd 10 c1 6e cd 10 41 7a ce 10 c1 ac cd 10 c1
       -9.050264 9.050154 -9.050409 -9.050213
0000c0 29 ce 10 41 d6 cd 10 c1 1e 04 7a 41 8b 0d 7a 41
       9.050332 -9.050253 15.626005 15.628306
0000d0 3f 08 7a c1 55 0d 7a c1 2a 0f 7a 41 60 0e 7a c1
       -15.627013 -15.628255 15.628702 -15.6285095
0000e0 2c 10 7a 41 cc 0e 7a 41 a1 0f 7a c1 17 0f 7a 41
       15.628948 15.6286125 -15.628816 15.628684
0000f0 52 00 91 bf cb 05 91 bf b7 02 91 3f aa 05 91 3f
       -1.1328223 -1.1329893 1.1328954 1.1329854
000100 b9 06 91 bf 46 06 91 3f 51 07 91 bf 86 06 91 bf
       -1.1330177 1.133004 -1.1330358 -1.1330116
000110 00 07 91 3f b0 06 91 bf 9d eb 4f c1 76 f3 4f c1
       1.1330261 -1.1330166 -12.995023 -12.996939
000120 0d ef 4f 41 4b f3 4f 41 cc f4 4f c1 27 f4 4f 41
       12.995862 12.996898 -12.997265 12.9971075
000130 a7 f5 4f c1 81 f4 4f c1 30 f5 4f 41 c0 f4 4f c1
       -12.997474 -12.997193 12.99736 -12.997253
000140 00 7f bc 40 1d 86 bc 40 1d 82 bc c0 f4 85 bc c0
       5.890503 5.8913713 -5.890883 -5.8913517
000150 56 87 bc 40 be 86 bc c0 19 88 bc 40 10 87 bc 40
       5.8915205 -5.891448 5.8916135 5.891487
000160 b0 87 bc c0 46 87 bc 40 af 45 1a c1 7f 4b 1a c1
       -5.8915634 5.891513 -9.642013 -9.643432
000170 3c 48 1a 41 60 4b 1a 41 7f 4c 1a c1 03 4c 1a 41
       9.642635 9.643402 -9.643676 9.643558
000180 1f 4d 1a c1 45 4c 1a c1 c9 4c 1a 41 76 4c 1a c1
       -9.643828 -9.6436205 9.643746 -9.643667

exp_avg_sq f4 [10, 10]
000000 a2 18 4d 45 b5 3f 4d 45 d7 10 4d 45 5a 4c 4d 45
       3281.5396 3283.9817 3281.0525 3284.772
000010 44 4d 4d 45 2d 4b 4d 45 db 51 4d 45 34 47 4d 45
       3284.829 3284.6985 3285.116 3284.4502
000020 e9 51 4d 45 82 4f 4d 45 5d 05 20 43 08 21 20 43
       3285.1194 3284.9692 160.02095 160.12903
000030 47 f3 1f 43 a9 41 20 43 b3 3e 20 43 32 28 20 43
       159.9503 160.25648 160.24492 160.15701
000040 52 4c 20 43 35 3f 20 43 65 48 20 43 e6 47 20 43
       160.29813 160.2469 160.28279 160.28085
000050 0a 71 91 44 b6 90 91 44 e6 69 91 44 d5 9a 91 44
       1163.5325 1164.5222 1163.3093 1164.8385
000060 6f 9b 91 44 50 9a 91 44 ab 9e 91 44 ee 95 91 44
       1164.8573 1164.8223 1164.9584 1164.6853
000070 ef 9e 91 44 f8 9c 91 44 8f 03 2a 43 9d 23 2a 43
       1164.9667 1164.9053 170.0139 170.13911
000080 f4 fc 29 43 a0 2e 2a 43 4a 2f 2a 43 2c 2d 2a 43
       169.9881 170.18213 170.18472 170.17645
000090 5b 33 2a 43 65 2a 2a 43 3f 33 2a 43 3d 31 2a 43
       170.2006 170.1656 170.20018 170.19234
0000a0 fa f9 00 42 ab 0a 01 42 e3 e5 00 42 e9 2d 01 42
       32.244118 32.260418 32.2245 32.294834
0000b0 79 28 01 42 93 0e 01 42 b0 38 01 42 42 2d 01 42
       32.289524 32.264233 32.30536 32.294197
0000c0 e7 33 01 42 02 34 01 42 43 89 df 42 25 80 df 42
       32.300686 32.30079 111.76809 111.75028
0000d0 3a 4c df 42 c1 08 e0 42 15 fa df 42 c8 71 df 42
       111.64888 112.0171 111.98844 111.72223
0000e0 f0 33 e0 42 d2 17 e0 42 d3 19 e0 42 73 23 e0 42
       112.10144 112.046524 112.05044 112.06924
0000f0 48 1e f7 3e 10 4d f7 3e 65 0f f7 3e 83 65 f7 3e
       0.4826529 0.48300982 0.48253933 0.48319635
000100 9f 64 f7 3e 94 5a f7 3e 78 6e f7 3e 6a 5f f7 3e
       0.48318955 0.48311293 0.48326468 0.48314983
000110 0d 6d f7 3e 78 6a f7 3e 34 ca 7b 42 44 f8 7b 42
       0.48325387 0.48323417 62.947464 62.992447
000120 57 b6 7b 42 c3 18 7c 42 62 14 7c 42 52 06 7c 42
       62.928066 63.02418 63.019905 63.006172
000130 b8 23 7c 42 c6 12 7c 42 46 21 7c 42 97 1e 7c 42
       63.03488 63.018333 63.032494 63.029873
000140 d3 32 67 41 19 1c 67 41 24 dc 66 41 a9 be 67 41
       14.449908 14.44436 14.428745 14.484048
000150 76 95 67 41 63 11 67 41 9b eb 67 41 1e cb 67 41
       14.4739895 14.441745 14.495021 14.487089
000160 7f d0 67 41 d3 d6 67 41 0f e2 0b 42 10 fe 0b 42
       14.488402 14.489947 34.97076 34.998108
000170 0a d6 0b 42 b2 10 0c 42 2c 0e 0c 42 ee 06 0c 42
       34.959023 35.016304 35.01384 35.006767
000180 d3 16 0c 42 b9 0c 0c 42 b3 15 0c 42 e5 13 0c 42
       35.02229 35.012424 35.02119 35.01943
