models/3/model-Bakery.pth (torch, 16822 bytes, 33 tensors)

rnn.weight_ih_l0 f4 [10, 2]
00000000: 6274 6bbe 3309 3c3e 1e65 7d3e 2d24 693e
00000010: 7e65 4b3e e3e5 29be fcd6 d33d 7055 adbd
00000020: f297 b3bd 4079 b3bc 2902 dc3d 116b e139
00000030: 1e84 a03d d44f a03e c969 a13e 9e3f 9a3e
00000040: aac9 c93d 7ce6 863d c94f e73d 192a a1bd
-0.22993615 0.18362884 0.24745604 0.22767706 0.19862935 -0.16591601 0.103437394 -0.084635615
-0.08769216 -0.021908402 0.107425995 0.00042995115 0.07837699 0.31310904 0.3152602 0.3012666
0.098529175 0.0658693 0.11294515 -0.078693576

rnn.weight_hh_l0 f4 [10, 10]
00000000: 25fd 3a3e 76f5 8fbd 557f 36be 5a31 893e
00000010: 78db a2b8 e437 4fbe 2b75 6f3e af22 873d
00000020: 5f4b 393e a6cc d6bd 9443 1dbe 0fd2 23be
00000030: 438b 603e 7683 19be a2a9 00be 9a14 92bd
00000040: 0ff3 1abd 7400 843e c129 30bd de46 fd3c
00000050: a262 34be ada5 2bbe af4f 863d 4a4a 903d
00000060: 47d3 3fbe dcf0 36be e980 273e 5a17 ac3c
00000070: f2f0 803e 1327 073d e18c 51be 98b7 13be
00000080: ede8 95bd 46d8 bdbd 56cd 5fbe a8ef a0bd
00000090: d029 0e3e ed1e 6abd 2ff4 64bd 2ee4 8ebd
000000a0: 1eb5 de3d 52f0 69bd d5ac 453e 998d 23be
000000b0: 852d 0a3e b33d 7f3e e94b 1c3e 92f8 783e
000000c0: 15ee fabc 3720 bdbe 528b 813e 240f b13b
000000d0: a30a 8c3e 878b 63bd 9dad c23d 8764 793d
000000e0: 6124 963e b860 8abe f957 8ebd 7b01 9a3d
000000f0: 062f 443e 12dc ff3d e6e5 233c 8885 363e
00000100: b1b9 16be ca48 553e 1828 a2be 59d5 5c3e
00000110: 2d72 903e 9866 5bbe 84f4 863d 7899 51be
00000120: 86ca a03e 5032 5a3c b8fb f23d 004a 18be
00000130: 574b 69be 63cf 66be 3032 b5bd e5f5 743e
00000140: c775 6a3e 41ee 86be 0877 2b3e 2a97 2f3e
00000150: 46ea 2cbd 6251 bd3b 70d0 923e 30ad 5a3e
00000160: 32ac f33c 47d0 c83d 1e0e 79be ce17 f3bd
00000170: 64f9 90be 6704 5c3e a18e 19be 1998 033d
00000180: dea1 d43b 32a4 8b3e 83fc 86be c810 263e
0.1826063 -0.0702924 -0.17822011 0.26795465 -7.765641e-05 -0.20236164 0.2338454 0.06598412
0.18095158 -0.10488252 -0.1535781 -0.159981 0.21928124 -0.14991555 -0.1256471 -0.07132836
-0.037829455 0.25781596 -0.04300857 0.030917581 -0.1761575 -0.16762419 0.06558167 0.070454195
-0.1873294 -0.17865318 0.16357769 0.021007229 0.25183827 0.03299625 -0.20463897 -0.14425504
-0.07319818 -0.092697665 -0.21855673 -0.07858211 0.13883138 -0.0571584 -0.055896934 -0.069771156
0.10874389 -0.057113953 0.19304211 -0.15971984 0.13493927 0.2492588 0.15263332 0.24313572
-0.030631104 -0.3693864 0.25301605 0.005403416 0.27351865 -0.055552986 0.0950577 0.060886886
0.2932463 -0.27026916 -0.06950373 0.075198136 0.19158563 0.12493147 0.0100035425 0.17824376
-0.14719273 0.20828548 -0.31671214 0.2156576 0.2821211 -0.21425855 0.065896064 -0.204687
0.31404513 0.0133176595 0.11864418 -0.14871979 -0.22782646 -0.22540049 -0.08847463 0.23921926
0.22896491 -0.26353648 0.16744626 0.17147508 -0.042215608 0.005777524 0.2867465 0.21355128
0.029745195 0.09805351 -0.24321792 -0.11869775 -0.2831527 0.21486054 -0.14995815 0.032127474
0.0064890226 0.2727371 -0.26364526 0.16217339

rnn.bias_ih_l0 f4 [10]
00000000: ba1c 9c3e 6078 8d3e a11d 50be 9118 413e
00000010: a524 e5bc 6b14 29bd ce80 083e 8a2a 08bd
00000020: 0840 1dbd 6014 883e
0.30490667 0.276309 -0.20323803 0.18857028 -0.027971575 -0.041279238 0.13330385 -0.033243693
-0.038391143 0.26578045

rnn.bias_hh_l0 f4 [10]
00000000: 470e 1fbc 18d0 6fbe 7ce2 4cbc b3ba 8e3e
00000010: ebab 34be 01ca 403e 5f13 c6bd 8aa9 843e
00000020: 1f5d 16be 16fb 8e3d
-0.009707994 -0.23419225 -0.01250517 0.27876815 -0.17643707 0.18827058 -0.096716635 0.25910598
-0.1468396 0.069814846

rnn.weight_ih_l1 f4 [10, 10]
00000000: 2541 3dbf e2c8 5e3e 4d3c ef3e 0ebc 063f
00000010: 05ab 6a3e dc55 0d3f a589 493b 8d71 ca3e
00000020: ddcc 973e 8191 913e a3ad b6bd 530b 28be
00000030: a3b5 6fbe 6b62 e0bd 3430 83be 04d6 e9be
00000040: 1c3b d33e a683 91be df4b 38be 7578 93be
00000050: 5aab b0be 6ea9 843e 8e72 edbc fa5d 143f
00000060: f3e5 823e a35a bf3e 3ac8 f2be 68bd 46bc
00000070: 618e fdbc cd25 3b3e 48d1 f43e bc03 84be
00000080: f2d5 b2be 640d e7be d0b4 e4be b712 dbbe
00000090: 5015 c93e 8341 063d b236 85be 2cfd cbbd
000000a0: 6eeb fa3e 16af 2abf 7ed5 7ebe a668 dabe
000000b0: 60fd c1be c7b5 f1be dc92 283e f360 0abe
000000c0: 4094 ffbd 4989 55be d8c8 a4bb cc26 d13e
000000d0: 279b 8d3e d3c7 a23e d763 053f 65a3 473e
000000e0: b102 03bf d86c b53e 1210 a03c f09d d73e
000000f0: 5f7b 87be 8944 c83d 0620 913e 49e2 993e
00000100: 5d21 7d3e 349a df3e 4ac4 0ebe 1712 bfbd
00000110: 3fc1 9c3d ebf3 de3d cb56 b33e 7eea bebe
00000120: 1e80 0abe 657e 90bd b839 463e f582 9abb
00000130: 1571 38bf 4dd8 bb3d 284e da3c b080 43be
00000140: 520e 60be 36de 63be ac50 243e 7955 7e3e
00000150: ab96 02bf 59ce d6bd ebff ef3e 7440 823e
00000160: 7255 42be 2947 98bd e917 88be 39c3 a2bc
00000170: 77c2 633e 08a6 a03e 734f 913d 7e33 e83e
00000180: ccde 7ebe 7e12 dd3e 8cc0 0dbe e3c6 1c3e
-0.7392753 0.21756318 0.46725693 0.526307 0.22916801 0.55209136 0.0030752209 0.39539757
0.29648486 0.28431323 -0.08919837 -0.1641057 -0.23409133 -0.10956272 -0.25622714 -0.45671093
0.41256034 -0.28420752 -0.17997693 -0.2880284 -0.3450573 0.25910515 -0.028985288 0.57955897
0.25566062 0.37373838 -0.47418386 -0.012130119 -0.03095168 0.18276139 0.4781592 -0.257841
-0.34928852 -0.45127404 -0.446692 -0.42787716 0.39274073 0.03277732 -0.26018292 -0.09960398
0.49007744 -0.6667341 -0.24886128 -0.42657965 -0.37888622 -0.47208998 0.16462272 -0.13513546
-0.12479448 -0.20853151 -0.0050288253 0.40849912 0.27657434 0.3179308 0.5210547 0.19495924
-0.5117598 0.35434604 0.019538913 0.42112684 -0.26461312 0.09778697 0.28344744 0.30055454
0.24719758 0.43672335 -0.13942066 -0.09329622 0.07654046 0.108863674 0.35027155 -0.37288278
-0.13525435 -0.07055358 0.19357955 -0.0047153183 -0.7204755 0.091721155 0.026648596 -0.19092059
-0.21880463 -0.22252735 0.16046399 0.24837293 -0.5101115 -0.104885764 0.46874937 0.254398
-0.18977907 -0.07435448 -0.26580742 -0.01986848 0.22242151 0.31376672 0.07095232 0.45351785
-0.24889678 0.4317817 -0.13842982 0.15310244

rnn.weight_hh_l1 f4 [10, 10]
00000000: e3fb 01be 8233 08c0 92f5 c13f 2c3a e9be
00000010: 1917 7fbe bee9 303f 7c20 aa3f 17d2 f73e
00000020: 8f87 10be ee74 2c3e ede1 b13f ad8f 5e3d
00000030: 21f1 60bf bd0d 2c3f 26f8 463f 3153 ebbe
00000040: 614c aabf 6cbe 26bf 3d90 f53e e023 86be
00000050: 892d 95bf ca6c db3e 9bb7 ec3e c662 f5bf
00000060: dde9 a93e ff7a a53f f20a a53f e512 703f
00000070: 0f13 b9bf 657a a73e e269 583f 7822 0dbf
00000080: 45cb 31bf 5a49 4e3d 5e0b efbe 3041 ebbe
00000090: a37e bbbf 1741 bfbe cbb9 023f 62f6 75bf
000000a0: 94c6 163f de98 853e c648 8ebf 21a3 133e
000000b0: f238 06be 3d89 d0be 3cae 9dbf 9212 51bf
000000c0: 2406 1e3f ee5e 58bf 90c7 b1bf 766b 0c3e
000000d0: 13c3 263f b7ac d7bf f01a 4c3e 9277 793f
000000e0: f4e1 183f 94ed d23e 092a c1bf 8f31 b83e
000000f0: 71ab 9dbf 75cf 2b3e 1901 2a3f 5419 febf
00000100: c237 c93e ebe0 9c3f 7850 373f 890f f13e
00000110: 9516 e4bf b7a6 863e 90e0 3bbf 30a1 563e
00000120: 3f79 2c3f ed34 79bf cfc0 f13e aef4 b33f
00000130: cd50 d43f f917 dc3d 6d60 09bf 1a92 5e3f
00000140: aa3c 543f 156a e7be 83ab 15bf bdb0 a53f
00000150: dba3 27bf 76f2 9cbf 0cbe e8bf 8454 2bbf
00000160: 6e1e 05bf d252 84bf 7b8b 62be be70 8bbf
00000170: 9cf2 593f 4d7f a5bf 8fc6 22be ae04 9a3f
00000180: fe7b 793f e7dd e03e 3492 efbf 71ac f7bf
-0.12693743 -2.1281438 1.5153067 -0.45552194 -0.24911155 0.6910666 1.3291163 0.48402473
-0.14114211 0.1684148 1.3897072 0.05433624 -0.87867934 0.6720846 0.77722394 -0.45961908
-1.3304559 -0.6513431 0.47961608 -0.26199245 -1.1654521 0.42856437 0.4623383 -1.9170768
0.33186236 1.292816 1.2893965 0.9377883 -1.4458941 0.32710567 0.84536564 -0.5513072
-0.6945079 0.050362922 -0.4668836 -0.45948172 -1.4648021 -0.37354347 0.5106475 -0.96079075
0.58896756 0.2609319 -1.1115959 0.14417697 -0.1310766 -0.40729704 -1.2318797 -0.8166896
0.6172812 -0.8451985 -1.3889027 0.13712868 0.6514141 -1.6849583 0.19932151 0.97448075
0.5971978 0.41196883 -1.5090953 0.3597531 -1.2317945 0.16778357 0.66407925 -1.985148
0.39300352 1.225614 0.7160716 0.47082165 -1.7819391 0.26299068 -0.7338953 0.20959926
0.67372507 -0.97346383 0.47217414 1.4059045 1.6587158 0.1074676 -0.5366276 0.86941683
0.82905066 -0.45198122 -0.5846483 1.2944561 -0.654844 -1.2261493 -1.8182998 -0.66925836
-0.51999557 -1.0337775 -0.2212352 -1.0893781 0.8513582 -1.2929474 -0.15896057 1.2032678
0.9745482 0.43919298 -1.8716493 -1.93495

rnn.bias_ih_l1 f4 [10]
00000000: d73e 363f 6bdd 35be da65 973c 2385 d93d
00000010: 3040 81be 7426 df3e 71c5 723e 0b65 9ebd
00000020: b4d6 48be e60f b43e
0.71189636 -0.17760246 0.018481184 0.10621097 -0.25244284 0.43584025 0.2370813 -0.07734116
-0.19613153 0.3516838

rnn.bias_hh_l1 f4 [10]
00000000: f0da 563e ec39 a4be baea 023f fee1 32be
00000010: 1248 d8be 60dd 893e 9461 0e3e 5023 3a3e
00000020: 2650 903e 4069 c03e
0.20981956 -0.3207544 0.51139414 -0.17469022 -0.42242485 0.26926708 0.1390441 0.18177533
0.28186148 0.375803

fc1.weight f4 [20, 10]
00000000: d070 db3f 1be8 d0bf 9766 8f3f d8dd 04c0
00000010: 724a f2bf 4864 3d40 1504 0a40 832b b73f
00000020: 62db 93bf 9314 d93f f2f3 7440 5f3b 8ac0
00000030: 8a93 6d40 7d35 88c0 8546 89c0 ff34 a540
00000040: 8ddd 8a40 5cef 6240 f539 36c0 ce8d 7f40
00000050: 6f49 7e40 44a8 92c0 f1ad 6340 b664 83c0
00000060: 1ae9 8bc0 a3e1 9c40 4f6a 8840 f4a1 6040
00000070: 3c21 32c0 dafb 7940 24d4 a33f 30e5 97bf
00000080: 2154 2b3f b21d 91bf 8f10 c7bf 45b7 d63f
00000090: 413f 5c3f 7ee9 203f c131 63be 0e09 6d3f
000000a0: a3c9 7c40 9930 92c0 703e 6040 0a65 82c0
000000b0: 4f20 82c0 d1d9 9940 f431 8040 e75f 6140
000000c0: 4819 2ec0 c548 7740 c6aa acc0 40ed cb40
000000d0: 5d5f d4c0 f664 db40 d914 d340 2f0f dcc0
000000e0: caf0 cac0 af84 ddc0 2fa3 e740 dc67 8dc0
000000f0: 3729 6b40 f9ea 8bc0 cebb 6e40 b673 88c0
00000100: 1267 8ec0 3822 9d40 34c5 8540 4010 4840
00000110: b9d8 39c0 ea45 8540 8b58 7340 ddd7 8dc0
00000120: 841a 6b40 9bf7 85c0 817a 8ac0 9de4 9d40
00000130: 2f58 7e40 4d42 6240 8882 24c0 b1a0 6c40
00000140: 0c4a ff3f 9c36 a4bf 0870 19bf 8918 413f
00000150: 9bc5 81be aad3 70bf 0bcb 17bf 8647 b0be
00000160: 8be3 b83f f417 6240 befb 5e3f 1f3a bfbf
00000170: 2536 ea3e 15ed 6fbf a753 debf ef06 df3f
00000180: de88 a13f f697 593f 53dd 623e 2fae 703f
00000190: 3038 6940 5ff9 88c0 ff54 7940 3578 7ec0
000001a0: b602 8ec0 a93b 9740 0320 7440 7fd2 6a40
000001b0: 8c19 36c0 a3fb 7d40 1ef2 6940 b1d8 8fc0
000001c0: 4bf1 6840 61d3 7ec0 9f80 84c0 ef66 9a40
000001d0: 664e 8340 3baa 5a40 f851 25c0 0e10 6a40
000001e0: f74b 6b40 4e0b 94c0 8b43 7240 2ef1 81c0
000001f0: b264 86c0 c19d a040 ae9f 7a40 adfc 5640
00000200: 9f06 40c0 b4bb 7640 f055 a6c0 df37 c040
00000210: 5473 cbc0 809a db40 9244 c640 f2db d9c0
00000220: a87c c6c0 cb4f d8c0 a992 db40 70af 95c0
00000230: 8d67 ddbe 259d a13d f2e0 9bbe 9542 063f
00000240: fea1 0abe 43d1 28bf b4a2 723e 2680 51bd
00000250: fbb7 803e 588f 703e 4210 acc0 bc12 bb40
00000260: b28a dac0 6b74 db40 65da c340 e274 ddc0
00000270: ed1e c9c0 2f72 cfc0 27c1 e040 8b8e 8bc0
00000280: 101a 773f 05c3 a7bf c97d 6f3f ffb5 8bbf
00000290: 289e 8fbf 1888 8e3f 6ddb 9a3f 0011 a03f
000002a0: 0678 26bf b116 573f d074 6340 f533 92c0
000002b0: 45ec 7840 755a 7fc0 2ebc 86c0 e965 9e40
000002c0: 8973 8640 8e96 6140 39fa 37c0 01b1 7840
000002d0: 54c7 8640 8832 92c0 03ce 6640 4ffa 86c0
000002e0: 2b7f 8ac0 5e97 a040 2496 7d40 de29 5a40
000002f0: 9a46 3dc0 916c 7f40 99b7 6540 d78d 8dc0
00000300: 188c 7540 8be4 73c0 04a1 8dc0 f402 9c40
00000310: 5bf1 8640 fef6 6940 39e8 35c0 3b59 7640
1.7143803 -1.6320833 1.1203183 -2.0760403 -1.8928969 2.9592457 2.1564991 1.4310154
-1.1551325 1.6959404 3.8273892 -4.3197474 3.71213 -4.2565293 -4.2898583 5.1627192
4.339545 3.5458593 -2.8472874 3.99303 3.973232 -4.58304 3.5574915 -4.106044
-4.372205 4.9025435 4.262977 3.5098848 -2.7832785 3.9059968 1.2799115 -1.1866817
0.66925246 -1.1337187 -1.5551928 1.677468 0.8603402 0.6285628 -0.22186948 0.9259194
3.949807 -4.5684323 3.503811 -4.074834 -4.066444 4.807839 4.006098 3.5214784
-2.720293 3.8638165 -5.3958464 6.372711 -6.636641 6.8560743 6.596295 -6.8768535
-6.341893 -6.9224467 7.23867 -4.418928 3.6743906 -4.372433 3.7302127 -4.264125
-4.450082 4.910427 4.1803226 3.1259918 -2.9038527 4.1647844 3.8022792 -4.4326005
3.6734934 -4.1864753 -4.327454 4.934157 3.9741323 3.5352967 -2.570467 3.6973078
1.9944472 -1.2829165 -0.5993657 0.7542806 -0.25346074 -0.94072974 -0.59294194 -0.34429568
1.4444441 3.532712 0.8710288 -1.4939612 0.45744434 -0.93721133 -1.7369279 1.7423991
1.2619894 0.849975 0.22154741 0.94015783 3.6440544 -4.280441 3.8958127 -3.9760869
-4.437831 4.7260327 3.8144538 3.6690977 -2.8453093 3.9684837 3.6554027 -4.4952016
3.6397274 -3.9816515 -4.140701 4.825065 4.10332 3.41664 -2.583128 3.65723
3.6765115 -4.62638 3.7853725 -4.060691 -4.199792 5.019257 3.915996 3.359172
-3.0004041 3.8552065 -5.1979904 6.00682 -6.357828 6.86261 6.1958704 -6.808099
-6.202717 -6.7597404 6.861653 -4.6776657 -0.43243065 0.07891301 -0.30445057 0.52445346
-0.13538358 -0.6594431 0.23694879 -0.051147602 0.25140366 0.23492181 -5.3769846 5.846037
-6.8294306 6.857961 6.1204095 -6.920518 -6.285025 -6.4826884 7.023578 -4.3611503
0.96524143 -1.310639 0.9355131 -1.0914916 -1.122014 1.1135283 1.2098213 1.2505188
-0.6502689 0.84019 3.5540047 -4.5688424 3.8894207 -3.989896 -4.210471 4.94994
4.2016034 3.5248141 -2.8746474 3.8858035 4.211832 -4.5686684 3.606324 -4.2180552
-4.3280234 5.0184774 3.9622889 3.4088054 -2.9574342 3.9910014 3.589331 -4.4235644
3.8366756 -3.8108242 -4.425905 4.8753605 4.2169623 3.6557002 -2.8422987 3.8491962

fc1.bias f4 [20]
00000000: 8d6d ee3f 0e59 8240 3603 8040 f954 883f
00000010: 238e 7740 a9fd d740 ed24 7740 ca73 8640
00000020: a2cd 2140 8578 643f c637 8240 fec7 7d40
00000030: eb88 8840 dcee dc40 036e 0abe 998f d740
00000040: f731 283f f539 8140 730c 7b40 6418 8240
1.8627182 4.073371 4.000392 1.0650932 3.8680503 6.7497144 3.8616288 4.2016344
2.5281758 0.892464 4.0693083 3.9653316 4.2667136 6.9041576 -0.13518529 6.736279
0.6570124 4.038325 3.9226348 4.0654774

output.weight f4 [1, 20]
00000000: 8b6c 2540 a1dd 8e40 39ff 9040 ff8a a73f
00000010: e018 8e40 8c3d d240 888e 9040 3309 9040
00000020: 8a57 323f 6675 a93f e6b1 9040 ff21 9340
00000030: 0549 8f40 c0d9 d740 c189 0e3e 6653 d740
00000040: 11dc a23f 05fb 8c40 ed8a 9040 ddba 9040
2.58475 4.4645543 4.531155 1.3089293 4.4405365 6.570013 4.517399 4.501123
0.69664824 1.3238952 4.521716 4.5979 4.4776635 6.745331 0.13919736 6.7289305
1.2723409 4.405642 4.5169587 4.5228105

exp_avg f4 [10, 2]
00000000: 0000 0000 0000 0000 0000 0000 0000 0000
00000010: 0000 0000 0000 0000 0000 0000 0000 0000
00000020: 0400 0000 0400 0000 0400 0080 0400 0080
00000030: 0400 0080 0400 0080 0000 0000 0000 0000
00000040: 0000 0000 0000 0000 0000 0000 0000 0000
0.0 0.0 0.0 0.0 0.0 0.0 0.0 0.0
6e-45 6e-45 -6e-45 -6e-45 -6e-45 -6e-45 0.0 0.0
0.0 0.0 0.0 0.0

exp_avg_sq f4 [10, 2]
00000000: 0000 0000 0000 0000 0000 0000 0000 0000
00000010: 0000 0000 0000 0000 0000 0000 0000 0000
00000020: f401 0000 f401 0000 f401 0000 f401 0000
00000030: f401 0000 f401 0000 0000 0000 0000 0000
00000040: 0000 0000 0000 0000 0000 0000 0000 0000
0.0 0.0 0.0 0.0 0.0 0.0 0.0 0.0
7e-43 7e-43 7e-43 7e-43 7e-43 7e-43 0.0 0.0
0.0 0.0 0.0 0.0

exp_avg f4 [10, 10]
00000000: 0000 0000 0000 0000 0000 0000 0000 0000
00000010: 0000 0000 0000 0000 0000 0000 0000 0000
00000020: 0000 0000 0000 0000 0000 0000 0000 0000
00000030: 0000 0000 0000 0000 0000 0000 0000 0000
00000040: 0000 0000 0000 0000 0000 0000 0000 0000
00000050: 0000 0000 0000 0000 0000 0000 0000 0000
00000060: 0000 0000 0000 0000 0000 0000 0000 0000
00000070: 0000 0000 0000 0000 0000 0000 0000 0000
00000080: 0000 0000 0000 0000 0000 0000 0000 0000
00000090: 0000 0000 0000 0000 0000 0000 0000 0000
000000a0: 0400 0080 0400 0000 0400 0000 0400 0000
000000b0: 0400 0080 0400 0000 0400 0080 0400 0000
000000c0: 0400 0000 0400 0000 0000 0000 0000 0000
000000d0: 0000 0000 0000 0000 0000 0000 0000 0000
000000e0: 0000 0000 0000 0000 0000 0000 0000 0000
000000f0: 0400 0000 0400 0080 0400 0080 0400 0080
00000100: 0400 0000 0400 0080 0400 0000 0400 0080
00000110: 0400 0080 0400 0080 0000 0000 0000 0000
00000120: 0000 0000 0000 0000 0000 0000 0000 0000
00000130: 0000 0000 0000 0000 0000 0000 0000 0000
00000140: 0000 0000 0000 0000 0000 0000 0000 0000
00000150: 0000 0000 0000 0000 0000 0000 0000 0000
00000160: 0000 0000 0000 0000 0000 0000 0000 0000
00000170: 0000 0000 0000 0000 0000 0000 0000 0000
00000180: 0000 0000 0000 0000 0000 0000 0000 0000
0.0 0.0 0.0 0.0 0.0 0.0 0.0 0.0
0.0 0.0 0.0 0.0 0.0 0.0 0.0 0.0
0.0 0.0 0.0 0.0 0.0 0.0 0.0 0.0
0.0 0.0 0.0 0.0 0.0 0.0 0.0 0.0
0.0 0.0 0.0 0.0 0.0 0.0 0.0 0.0
-6e-45 6e-45 6e-45 6e-45 -6e-45 6e-45 -6e-45 6e-45
6e-45 6e-45 0.0 0.0 0.0 0.0 0.0 0.0
0.0 0.0 0.0 0.0 6e-45 -6e-45 -6e-45 -6e-45
6e-45 -6e-45 6e-45 -6e-45 -6e-45 -6e-45 0.0 0.0
0.0 0.0 0.0 0.0 0.0 0.0 0.0 0.0
0.0 0.0 0.0 0.0 0.0 0.0 0.0 0.0
0.0 0.0 0.0 0.0 0.0 0.0 0.0 0.0
0.0 0.0 0.0 0.0

exp_avg_sq f4 [10, 10]
00000000: 0000 0000 0000 0000 0000 0000 0000 0000
00000010: 0000 0000 0000 0000 0000 0000 0000 0000
00000020: 0000 0000 0000 0000 0000 0000 0000 0000
00000030: 0000 0000 0000 0000 0000 0000 0000 0000
00000040: 0000 0000 0000 0000 0000 0000 0000 0000
00000050: 0000 0000 0000 0000 0000 0000 0000 0000
00000060: 0000 0000 0000 0000 0000 0000 0000 0000
00000070: 0000 0000 0000 0000 0000 0000 0000 0000
00000080: 0000 0000 0000 0000 0000 0000 0000 0000
00000090: 0000 0000 0000 0000 0000 0000 0000 0000
000000a0: f401 0000 f401 0000 f401 0000 f401 0000
000000b0: f401 0000 f401 0000 f401 0000 f401 0000
000000c0: f401 0000 f401 0000 0000 0000 0000 0000
000000d0: 0000 0000 0000 0000 0000 0000 0000 0000
000000e0: 0000 0000 0000 0000 0000 0000 0000 0000
000000f0: f401 0000 f401 0000 f401 0000 f401 0000
00000100: f401 0000 f401 0000 f401 0000 f401 0000
00000110: f401 0000 f401 0000 0000 0000 0000 0000
00000120: 0000 0000 0000 0000 0000 0000 0000 0000
00000130: 0000 0000 0000 0000 0000 0000 0000 0000
00000140: 0000 0000 0000 0000 0000 0000 0000 0000
00000150: 0000 0000 0000 0000 0000 0000 0000 0000
00000160: 0000 0000 0000 0000 0000 0000 0000 0000
00000170: 0000 0000 0000 0000 0000 0000 0000 0000
00000180: 0000 0000 0000 0000 0000 0000 0000 0000
0.0 0.0 0.0 0.0 0.0 0.0 0.0 0.0
0.0 0.0 0.0 0.0 0.0 0.0 0.0 0.0
0.0 0.0 0.0 0.0 0.0 0.0 0.0 0.0
0.0 0.0 0.0 0.0 0.0 0.0 0.0 0.0
0.0 0.0 0.0 0.0 0.0 0.0 0.0 0.0
7e-43 7e-43 7e-43 7e-43 7e-43 7e-43 7e-43 7e-43
7e-43 7e-43 0.0 0.0 0.0 0.0 0.0 0.0
0.0 0.0 0.0 0.0 7e-43 7e-43 7e-43 7e-43
7e-43 7e-43 7e-43 7e-43 7e-43 7e-43 0.0 0.0
0.0 0.0 0.0 0.0 0.0 0.0 0.0 0.0
0.0 0.0 0.0 0.0 0.0 0.0 0.0 0.0
0.0 0.0 0.0 0.0 0.0 0.0 0.0 0.0
0.0 0.0 0.0 0.0

exp_avg f4 [10]
00000000: 0000 0000 0000 0000 0000 0000 0000 0000
00000010: 0400 0000 0400 0080 0400 0080 0000 0000
00000020: 0000 0000 0000 0000
0.0 0.0 0.0 0.0 6e-45 -6e-45 -6e-45 0.0
0.0 0.0

exp_avg_sq f4 [10]
00000000: 0000 0000 0000 0000 0000 0000 0000 0000
00000010: f401 0000 f401 0000 f401 0000 0000 0000
00000020: 0000 0000 0000 0000
0.0 0.0 0.0 0.0 7e-43 7e-43 7e-43 0.0
0.0 0.0

exp_avg f4 [10]
00000000: 0000 0000 0000 0000 0000 0000 0000 0000
00000010: 0400 0000 0400 0080 0400 0080 0000 0000
00000020: 0000 0000 0000 0000
0.0 0.0 0.0 0.0 6e-45 -6e-45 -6e-45 0.0
0.0 0.0

exp_avg_sq f4 [10]
00000000: 0000 0000 0000 0000 0000 0000 0000 0000
00000010: f401 0000 f401 0000 f401 0000 0000 0000
00000020: 0000 0000 0000 0000
0.0 0.0 0.0 0.0 7e-43 7e-43 7e-43 0.0
0.0 0.0

exp_avg f4 [10, 10]
00000000: e14c fd37 e14c fdb7 e14c fdb7 e14c fdb7
00000010: e14c fd37 e14c fdb7 e14c fdb7 e14c fdb7
00000020: e14c fdb7 e14c fdb7 492c dcbf 492c dc3f
00000030: 492c dc3f 492c dc3f 492c dcbf 492c dc3f
00000040: 492c dc3f 492c dc3f 492c dc3f 492c dc3f
00000050: bcae 7a3d bcae 7abd bcae 7abd bcae 7abd
00000060: bcae 7a3d bcae 7abd bcae 7abd bcae 7abd
00000070: bcae 7abd bcae 7abd 96a0 e8c1 96a0 e841
00000080: 96a0 e841 96a0 e841 96a0 e8c1 96a0 e841
00000090: 96a0 e841 96a0 e841 96a0 e841 96a0 e841
000000a0: 1854 f9bc 1854 f93c 1854 f93c 1854 f93c
000000b0: 1854 f9bc 1854 f93c 1854 f93c 1854 f93c
000000c0: 1854 f93c 1854 f93c de33 353f de33 35bf
000000d0: de33 35bf de33 35bf de33 353f de33 35bf
000000e0: de33 35bf de33 35bf de33 35bf de33 35bf
000000f0: f850 263e f850 26be f850 26be f850 26be
00000100: f850 263e f850 26be f850 26be f850 26be
00000110: f850 26be f850 26be 278e 8543 278e 85c3
00000120: 278e 85c3 278e 85c3 278e 8543 278e 85c3
00000130: 278e 85c3 278e 85c3 278e 85c3 278e 85c3
00000140: 365e 96c3 365e 9643 365e 9643 365e 9643
00000150: 365e 96c3 365e 9643 365e 9643 365e 9643
00000160: 365e 9643 365e 9643 58ca aa3c 58ca aabc
00000170: 58ca aabc 58ca aabc 58ca aa3c 58ca aabc
00000180: 58ca aabc 58ca aabc 58ca aabc 58ca aabc
3.019575e-05 -3.019575e-05 -3.019575e-05 -3.019575e-05 3.019575e-05 -3.019575e-05 -3.019575e-05 -3.019575e-05
-3.019575e-05 -3.019575e-05 -1.7201015 1.7201015 1.7201015 1.7201015 -1.7201015 1.7201015
1.7201015 1.7201015 1.7201015 1.7201015 0.061201796 -0.061201796 -0.061201796 -0.061201796
0.061201796 -0.061201796 -0.061201796 -0.061201796 -0.061201796 -0.061201796 -29.078411 29.078411
29.078411 29.078411 -29.078411 29.078411 29.078411 29.078411 29.078411 29.078411
-0.030435607 0.030435607 0.030435607 0.030435607 -0.030435607 0.030435607 0.030435607 0.030435607
0.030435607 0.030435607 0.7078227 -0.7078227 -0.7078227 -0.7078227 0.7078227 -0.7078227
-0.7078227 -0.7078227 -0.7078227 -0.7078227 0.16241825 -0.16241825 -0.16241825 -0.16241825
0.16241825 -0.16241825 -0.16241825 -0.16241825 -0.16241825 -0.16241825 267.11057 -267.11057
-267.11057 -267.11057 267.11057 -267.11057 -267.11057 -267.11057 -267.11057 -267.11057
-300.73602 300.73602 300.73602 300.73602 -300.73602 300.73602 300.73602 300.73602
300.73602 300.73602 0.020848438 -0.020848438 -0.020848438 -0.020848438 0.020848438 -0.020848438
-0.020848438 -0.020848438 -0.020848438 -0.020848438

exp_avg_sq f4 [10, 10]
00000000: b376 4d4d b376 4d4d b376 4d4d b376 4d4d
00000010: b376 4d4d b376 4d4d b376 4d4d b376 4d4d
00000020: b376 4d4d b376 4d4d f9be fb4d f9be fb4d
00000030: f9be fb4d f9be fb4d f9be fb4d f9be fb4d
00000040: f9be fb4d f9be fb4d f9be fb4d f9be fb4d
00000050: 4e75 1a4e 4e75 1a4e 4e75 1a4e 4e75 1a4e
00000060: 4e75 1a4e 4e75 1a4e 4e75 1a4e 4e75 1a4e
00000070: 4e75 1a4e 4e75 1a4e f4d4 f14d f4d4 f14d
00000080: f4d4 f14d f4d4 f14d f4d4 f14d f4d4 f14d
00000090: f4d4 f14d f4d4 f14d f4d4 f14d f4d4 f14d
000000a0: 67cf 324e 67cf 324e 67cf 324e 67cf 324e
000000b0: 67cf 324e 67cf 324e 67cf 324e 67cf 324e
000000c0: 67cf 324e 67cf 324e d989 4b4e d989 4b4e
000000d0: d989 4b4e d989 4b4e d989 4b4e d989 4b4e
000000e0: d989 4b4e d989 4b4e d989 4b4e d989 4b4e
000000f0: 1b98 3f4e 1b98 3f4e 1b98 3f4e 1b98 3f4e
00000100: 1b98 3f4e 1b98 3f4e 1b98 3f4e 1b98 3f4e
00000110: 1b98 3f4e 1b98 3f4e 6af4 414d 6af4 414d
00000120: 6af4 414d 6af4 414d 6af4 414d 6af4 414d
00000130: 6af4 414d 6af4 414d 6af4 414d 6af4 414d
00000140: fbdd 274d fbdd 274d fbdd 274d fbdd 274d
00000150: fbdd 274d fbdd 274d fbdd 274d fbdd 274d
00000160: fbdd 274d fbdd 274d a053 be4d a053 be4d
00000170: a053 be4d a053 be4d a053 be4d a053 be4d
00000180: a053 be4d a053 be4d a053 be4d a053 be4d
2.1544427e+08 2.1544427e+08 2.1544427e+08 2.1544427e+08 2.1544427e+08 2.1544427e+08 2.1544427e+08 2.1544427e+08
2.1544427e+08 2.1544427e+08 5.279496e+08 5.279496e+08 5.279496e+08 5.279496e+08 5.279496e+08 5.279496e+08
5.279496e+08 5.279496e+08 5.279496e+08 5.279496e+08 6.4784474e+08 6.4784474e+08 6.4784474e+08 6.4784474e+08
6.4784474e+08 6.4784474e+08 6.4784474e+08 6.4784474e+08 6.4784474e+08 6.4784474e+08 5.0715814e+08 5.0715814e+08
5.0715814e+08 5.0715814e+08 5.0715814e+08 5.0715814e+08 5.0715814e+08 5.0715814e+08 5.0715814e+08 5.0715814e+08
7.499842e+08 7.499842e+08 7.499842e+08 7.499842e+08 7.499842e+08 7.499842e+08 7.499842e+08 7.499842e+08
7.499842e+08 7.499842e+08 8.537022e+08 8.537022e+08 8.537022e+08 8.537022e+08 8.537022e+08 8.537022e+08
8.537022e+08 8.537022e+08 8.537022e+08 8.537022e+08 8.0360416e+08 8.0360416e+08 8.0360416e+08 8.0360416e+08
8.0360416e+08 8.0360416e+08 8.0360416e+08 8.0360416e+08 8.0360416e+08 8.0360416e+08 2.0337629e+08 2.0337629e+08
2.0337629e+08 2.0337629e+08 2.0337629e+08 2.0337629e+08 2.0337629e+08 2.0337629e+08 2.0337629e+08 2.0337629e+08
1.7602142e+08 1.7602142e+08 1.7602142e+08 1.7602142e+08 1.7602142e+08 1.7602142e+08 1.7602142e+08 1.7602142e+08
1.7602142e+08 1.7602142e+08 3.9914394e+08 3.9914394e+08 3.9914394e+08 3.9914394e+08 3.9914394e+08 3.9914394e+08
3.9914394e+08 3.9914394e+08 3.9914394e+08 3.9914394e+08

exp_avg f4 [10, 10]
00000000: ea94 8537 f24e c2b7 4214 f5b6 34ab ec37
00000010: 3d86 50b7 644b 5ab8 1008 c7b7 7f46 fd37
00000020: a1fd fcb7 e6c0 3437 c924 dc3f f221 dcbf
00000030: 9126 dc3f b20e dcbf e724 dcbf 892a dc3f
00000040: c827 dc3f c9f8 da3f f47a dabf 8f24 dc3f
00000050: 85cc 7abd 8bae 7a3d 5ab9 7abd 2b9e 7a3d
00000060: 79c5 7a3d b7cf 7abd 1bb9 7abd 04a3 77bd
00000070: 0f1c 773d 75c1 7abd 6ca1 e841 dc9f e8c1
00000080: 70a1 e841 4a84 e8c1 5fa1 e8c1 bba0 e841
00000090: 53a1 e841 9567 e741 87e2 e6c1 6ba1 e841
000000a0: 27e1 f83c 91b7 f8bc 8635 f93c e03d f9bc
000000b0: b6e8 f8bc 64cc f93c 0a6f f93c e761 f73c
000000c0: dfd3 f6bc 5ce5 f83c 704a 35bf 3647 353f
000000d0: 2f49 35bf 9f28 353f d048 353f d543 35bf
000000e0: d947 35bf 0928 34bf 72c1 333f 9449 35bf
000000f0: 7366 26be 885a 263e c35f 26be 3c46 263e
00000100: a262 263e e161 26be 5a5e 26be fccf 24be
00000110: 5574 243e dc61 26be 278e 85c3 438d 8543
00000120: 1d8e 85c3 9f7d 8543 228e 8543 d28d 85c3
00000130: 0f8e 85c3 06d9 84c3 148c 8443 248e 85c3
00000140: 365e 9643 365d 96c3 2c5e 9643 9c4b 96c3
00000150: 325e 96c3 d65d 9643 1b5e 9643 3192 9543
00000160: 573b 95c3 335e 9643 287b a9bc 1939 a93c
00000170: 00ca a9bc 564b aa3c 2083 a93c 089e aabc
00000180: 2407 aabc afaf a7bc 0552 a73c 9671 a9bc
1.5924179e-05 -2.3163364e-05 -7.3039273e-06 2.8213115e-05 -1.2429021e-05 -5.2045463e-05 -2.3726403e-05 3.0192778e-05
-3.0158846e-05 1.0773749e-05 1.7198726 -1.7197859 1.719927 -1.7191985 -1.7198762 1.7200481
1.719964 1.7107173 -1.7068772 1.7198657 -0.0612302 0.061201613 -0.06121192 0.061185997
0.06122348 -0.06123325 -0.061211687 -0.0604582 0.060329493 -0.06121965 29.07882 -29.078056
29.078827 -29.064594 -29.078794 29.078482 29.078772 28.925577 -28.86061 29.078817
0.030380799 -0.030360969 0.03042103 -0.030425012 -0.030384403 0.030492969 0.030448455 0.03019805
-0.030130325 0.030382805 -0.7081671 0.70811784 -0.70814794 0.7076511 0.7081423 -0.7080663
-0.70812756 -0.7037359 0.7021705 -0.70815396 -0.16250019 0.16245472 -0.16247468 0.1623773
0.16248563 -0.16248275 -0.1624693 -0.16094965 0.16060002 -0.16248268 -267.11057 267.1036
-267.11026 266.9814 267.1104 -267.10797 -267.10983 -265.6955 265.09436 -267.11047
300.73602 -300.7282 300.73572 -300.5907 -300.7359 300.7331 300.7352 299.14212
-298.4636 300.73593 -0.020688608 0.02065711 -0.020726204 0.020787876 0.020692408 -0.020827308
-0.020755358 -0.020469515 0.020424852 -0.020684045

exp_avg_sq f4 [10, 10]
00000000: 0f05 124d 6b96 234d 7dcc ea4c 282c 0d4c
00000010: a33a df4c 085b ba4b 2407 8d4c 3175 4d4d
00000020: a462 4d4d 6faa 0a4d 6fee af4d e07c c34d
00000030: df36 194d 3b2b 324d b64b 924d dc7a a04c
00000040: 9b41 964c fcb9 fb4d 1a96 fb4d e5e7 9c4d
00000050: 4a5a 074e 317f 0a4e f4a4 bb4d c4e4 a14d
00000060: d06d f14d 34af 3f4d c1be 694d f368 1a4e
00000070: e928 1a4e 904e 034e 6369 dc4d cdca d84d
00000080: b446 8d4d ecce 324d c93f c24d ec58 1b4d
00000090: 258a 7e4d babd f14d 519f f14d fb51 cf4d
000000a0: aef7 0e4e dc70 084e 6fde dc4d 488f 994d
000000b0: 41eb d44d f3d3 a04d fc28 b14d 59ce 324e
000000c0: 5cc2 324e 5b83 ff4d 13dd 3f4e a08e 3b4e
000000d0: beca f84d c1cf 064e 5404 334e c1ed b94d
000000e0: 132f aa4d 406e 4b4e 7aed 4a4e 40a1 384e
000000f0: a65f 2a4e c8d8 2a4e 742d ec4d e9b4 e64d
00000100: 835b 1a4e 39c8 9c4d 9bfd 9d4d 487e 3f4e
00000110: 77f1 3e4e c5f7 244e 3ff2 414d 0f7e 414d
00000120: f37b 404d 6727 3e4d eeeb 414d 648f 3f4d
00000130: f5ce 3f4d f21e 824c 736b 324c 33aa 414d
00000140: d48b 274d 3810 274d 85e3 254d d51b 244d
00000150: 7171 274d 3429 254d e529 254d c17a 8e4c
00000160: 5eaa 4e4c f922 274d 0c3c 864d 0023 974d
00000170: 8838 0d4d d754 f14c dfb4 604d 22c9 5b4c
00000180: 4e07 a64c 6650 be4d a336 be4d d22e 7f4d
1.5311282e+08 1.71534e+08 1.23102184e+08 3.700752e+07 1.1703631e+08 2.4426e+07 7.393923e+07 2.154381e+08
2.1536211e+08 1.4540158e+08 3.6895485e+08 4.099676e+08 1.6065688e+08 1.868236e+08 3.068044e+08 8.41377e+07
7.877756e+07 5.2790874e+08 5.276148e+08 3.290554e+08 5.6771034e+08 5.8089786e+08 3.9351872e+08 3.3951552e+08
5.063132e+08 2.0099565e+08 2.4509954e+08 6.476423e+08 6.465931e+08 5.50741e+08 4.6223677e+08 4.5464618e+08
2.9627763e+08 1.8749408e+08 4.0737002e+08 1.628935e+08 2.6690414e+08 5.0696787e+08 5.0671875e+08 4.3478205e+08
5.9964915e+08 5.722744e+08 4.6319562e+08 3.22038e+08 4.4652342e+08 3.372806e+08 3.7153165e+08 7.499669e+08
7.497705e+08 5.3584982e+08 8.0473414e+08 7.866716e+08 5.2175456e+08 5.654406e+08 7.508513e+08 3.899208e+08
3.5690147e+08 8.5325005e+08 8.511402e+08 7.7439386e+08 7.145988e+08 7.165834e+08 4.9530022e+08 4.8382698e+08
6.4742214e+08 3.2879594e+08 3.313304e+08 8.0318106e+08 8.008739e+08 6.919253e+08 2.0336741e+08 2.028915e+08
2.0183429e+08 1.9939083e+08 2.0334154e+08 2.0086534e+08 2.0112571e+08 6.822082e+07 4.677166e+07 2.030723e+08
1.7568493e+08 1.7517862e+08 1.7394696e+08 1.7208046e+08 1.7557685e+08 1.731838e+08 1.7318664e+08 7.4700296e+07
5.417612e+07 1.7525544e+08 2.8151027e+08 3.1695667e+08 1.4808077e+08 1.2652716e+08 2.3562187e+08 5.7615496e+07
8.704677e+07 3.991175e+08 3.9890646e+08 2.6757866e+08

exp_avg f4 [10]
00000000: e14c fdb7 492c dc3f bcae 7abd 96a0 e841
00000010: 1854 f93c de33 35bf f850 26be 278e 85c3
00000020: 365e 9643 58ca aabc
-3.019575e-05 1.7201015 -0.061201796 29.078411 0.030435607 -0.7078227 -0.16241825 -267.11057
300.73602 -0.020848438

exp_avg_sq f4 [10]
00000000: b376 4d4d f9be fb4d 4e75 1a4e f4d4 f14d
00000010: 67cf 324e d989 4b4e 1b98 3f4e 6af4 414d
00000020: fbdd 274d a053 be4d
2.1544427e+08 5.279496e+08 6.4784474e+08 5.0715814e+08 7.499842e+08 8.537022e+08 8.0360416e+08 2.0337629e+08
1.7602142e+08 3.9914394e+08

exp_avg f4 [10]
00000000: e14c fdb7 492c dc3f bcae 7abd 96a0 e841
00000010: 1854 f93c de33 35bf f850 26be 278e 85c3
00000020: 365e 9643 58ca aabc
-3.019575e-05 1.7201015 -0.061201796 29.078411 0.030435607 -0.7078227 -0.16241825 -267.11057
300.73602 -0.020848438

exp_avg_sq f4 [10]
00000000: b376 4d4d f9be fb4d 4e75 1a4e f4d4 f14d
00000010: 67cf 324e d989 4b4e 1b98 3f4e 6af4 414d
00000020: fbdd 274d a053 be4d
2.1544427e+08 5.279496e+08 6.4784474e+08 5.0715814e+08 7.499842e+08 8.537022e+08 8.0360416e+08 2.0337629e+08
1.7602142e+08 3.9914394e+08

exp_avg f4 [20, 10]
00000000: 727a b8c3 3779 b843 637a b8c3 a363 b843
00000010: 6d7a b843 fd79 b8c3 547a b8c3 d282 b7c3
00000020: c019 b743 6e7a b8c3 91ad 1fc4 82ac 1f44
00000030: 87ad 1fc4 d599 1f44 8fad 1f44 2ead 1fc4
00000040: 75ad 1fc4 30d7 1ec4 347c 1e44 90ad 1fc4
00000050: 1411 22c4 fe0f 2244 0b11 22c4 09fd 2144
00000060: 1111 2244 ae10 22c4 f710 22c4 7c37 21c4
00000070: 23db 2044 1211 22c4 add0 39c3 72cf 3943
00000080: a0d0 39c3 b2b9 3943 a7d0 3943 39d0 39c3
00000090: 8dd0 39c3 66d7 38c3 aa6d 3843 a9d0 39c3
000000a0: e0d0 1ec4 d0cf 1e44 d3d0 1ec4 3bbd 1e44
000000b0: dad0 1e44 7cd0 1ec4 c4d0 1ec4 a5fb 1dc4
000000c0: 23a1 1d44 d9d0 1ec4 53ab 1c37 0188 62b7
000000d0: 63f8 6437 832f 1336 2c1c 1bb7 6b61 3336
000000e0: 738b 4237 4e1e 9337 d618 93b7 3362 5437
000000f0: 0493 21c4 f091 2144 f992 21c4 087f 2144
00000100: fe92 2144 9c92 21c4 e892 21c4 14ba 20c4
00000110: 035e 2044 ff92 21c4 6efd 20c4 5cfc 2044
00000120: 62fd 20c4 87e9 2044 6afd 2044 08fd 20c4
00000130: 53fd 20c4 4825 20c4 8dc9 1f44 6afd 20c4
00000140: c35d c6c2 705c c642 b35d c6c2 3b45 c642
00000150: bd5d c642 445d c6c2 9d5d c6c2 8e53 c5c2
00000160: a0e2 c442 be5d c6c2 d6f7 3bc3 96f6 3b43
00000170: c9f7 3bc3 98e0 3b43 d0f7 3b43 5ff7 3bc3
00000180: b7f7 3bc3 aafb 3ac3 b590 3a43 d3f7 3bc3
00000190: f5b9 21c4 e1b8 2144 eab9 21c4 f5a5 2144
000001a0: f1b9 2144 8fb9 21c4 d9b9 21c4 d3e0 20c4
000001b0: ac84 2044 f1b9 21c4 c675 24c4 ae74 2444
000001c0: ba75 24c4 7161 2444 bf75 2444 5f75 24c4
000001d0: a975 24c4 f798 23c4 3e3b 2344 c175 24c4
000001e0: d725 20c4 c524 2044 cc25 20c4 0a12 2044
000001f0: d025 2044 7125 20c4 bb25 20c4 d34e 1fc4
00000200: 93f3 1e44 d325 20c4 3cda 2037 ac94 68b7
00000210: ca15 6b37 cf1d 1736 7440 1fb7 0f2c 3836
00000220: 79bd 4737 110c 9737 7606 97b7 210e 5a37
00000230: 67c6 1134 7959 56b4 42b2 7734 3c45 67b2
00000240: 085d 19b4 5121 e833 e9c6 6634 49ed 8334
00000250: 98eb 83b4 7acd 5b34 2076 2037 ec03 68b7
00000260: 7383 6a37 cabf 1636 5bdd 1eb7 64b9 3736
00000270: 2941 4737 14ae 9637 85a8 96b7 6286 5937
00000280: 3870 34c3 036f 3443 2a70 34c3 e659 3443
00000290: 3170 3443 c56f 34c3 1770 34c3 2e7e 33c3
000002a0: 8617 3343 3470 34c3 7790 1dc4 6a8f 1d44
000002b0: 6c90 1dc4 fb7c 1d44 7290 1d44 1390 1dc4
000002c0: 5b90 1dc4 edbc 1cc4 2663 1c44 7390 1dc4
000002d0: c28e 21c4 af8d 2144 b58e 21c4 c77a 2144
000002e0: bd8e 2144 5b8e 21c4 a38e 21c4 d7b5 20c4
000002f0: cb59 2044 bf8e 21c4 0dc4 21c4 fbc2 2144
00000300: 01c4 21c4 0db0 2144 07c4 2144 a7c3 21c4
00000310: f0c3 21c4 deea 20c4 af8e 2044 08c4 21c4
-368.9566 368.947 -368.95615 368.7784 368.95645 -368.95303 -368.9557 -367.02203
366.20117 -368.95648 -638.712 638.69543 -638.71136 638.4036 638.71185 -638.70593
-638.71027 -635.3623 633.9407 -638.7119 -648.26685 648.2499 -648.2663 647.9537
648.26666 -648.2606 -648.2651 -644.86694 643.424 -648.2667 -185.81514 185.81033
-185.81494 185.72537 185.81505 -185.81337 -185.81465 -184.8414 184.42838 -185.81508
-635.2637 635.2471 -635.2629 634.9567 635.2633 -635.25757 -635.26196 -631.93195
630.51776 -635.26324 9.338214e-06 -1.3502316e-05 1.3647691e-05 2.1932362e-06 -9.245279e-06 2.6729783e-06
1.1595769e-05 1.7537877e-05 -1.753533e-05 1.26590485e-05 -646.2971 646.2803 -646.29645 645.98486
646.29675 -646.2908 -646.2954 -642.9075 641.46893 -646.2968 -643.95984 643.9431
-643.9591 643.64886 643.9596 -643.9536 -643.9582 -640.5825 639.14923 -643.9596
-99.18313 99.18054 -99.18301 99.135216 99.18308 -99.18216 -99.18284 -98.66319
98.44263 -99.18309 -187.96811 187.96323 -187.96791 187.87732 187.96802 -187.9663
-187.96764 -186.98306 186.56526 -187.96806 -646.9056 646.88873 -646.9049 646.5931
646.90533 -646.89935 -646.9039 -643.5129 642.073 -646.90533 -657.8402 657.8231
-657.8395 657.5225 657.8398 -657.8339 -657.83844 -654.3901 652.92566 -657.8399
-640.59125 640.5745 -640.5906 640.28186 640.5908 -640.585 -640.58954 -637.2316
635.80585 -640.591 9.587555e-06 -1.3862893e-05 1.4012165e-05 2.2518104e-06 -9.492145e-06 2.7443782e-06
1.1905439e-05 1.8006222e-05 -1.8003611e-05 1.2997102e-05 1.3576356e-07 -1.9962853e-07 2.3068517e-07 -1.3461712e-08
-1.428308e-07 1.0809402e-07 2.1492782e-07 2.45733e-07 -2.4572068e-07 2.0470716e-07 9.564246e-06 -1.3829191e-05
1.3978092e-05 2.2463378e-06 -9.469072e-06 2.7377037e-06 1.1876496e-05 1.7962455e-05 -1.7959866e-05 1.2965496e-05
-180.43835 180.43364 -180.43814 180.35117 180.43825 -180.4366 -180.43785 -179.49289
179.09189 -180.4383 -630.25726 630.24084 -630.2566 629.9528 630.25696 -630.25116
-630.25555 -626.95197 625.5492 -630.257 -646.2306 646.2138 -646.2298 645.9184
646.2303 -646.2243 -646.2287 -642.84125 641.403 -646.2304 -647.0633 647.0466
-647.06256 646.7508 647.0629 -647.05707 -647.0615 -643.6698 642.22943 -647.063

exp_avg_sq f4 [20, 10]
00000000: c6cb a649 0b19 a449 ad43 9b49 b159 a749
00000010: 5262 a549 133e 9f49 166f 9a49 7057 a549
00000020: daa7 a049 59ed a049 d1b8 8a4a bd09 864a
00000030: 122e 804a 226f 884a 9b8a 894a aec0 804a
00000040: 1331 7e4a 6d81 854a 3f79 814a 674d 854a
00000050: 2834 8f4a 715b 8a4a 074b 844a 4fd6 8c4a
00000060: 93fb 8d4a 76e2 844a ec2b 834a 19d2 894a
00000070: e1a7 854a 6d98 894a 400c 8748 6f39 8348
00000080: 24cc 8048 0e26 8548 dee4 8548 313e 8248
00000090: c545 8048 ba77 8448 6719 8148 197b 8148
000000a0: 1c1c 894a f67b 844a 5066 7d4a b4d9 864a
000000b0: 99f1 874a 2d88 7e4a 1342 7b4a 49f4 834a
000000c0: c6f0 7f4a 1cc2 834a 69a5 f54c c6ff f44c
000000d0: b45d f54c e042 f44c 46fd ed4c 97d3 f44c
000000e0: 33ee f44c 6e5a f74c 255a f74c 9c89 f44c
000000f0: f958 8e4a 9087 894a 6e80 834a 9ffe 8b4a
00000100: 3822 8d4a ff16 844a ff62 824a b9fe 884a
00000110: b1da 844a c3c5 884a b737 8d4a 0471 884a
00000120: 7b77 824a 87e2 8a4a 9803 8c4a d10c 834a
00000130: 825c 814a 3fe8 874a ebcc 834a feb0 874a
00000140: 0e12 7249 211e 7149 2af6 7049 b5a4 7149
00000150: f71c 6c49 7c45 7149 d1a3 7049 f721 7249
00000160: 1381 7149 be0c 7149 6386 8a48 d4a0 8748
00000170: 5b0c 8448 f98e 8948 798c 8948 d40b 8648
00000180: 618c 8348 eae6 8748 f365 8448 2ab9 8548
00000190: be73 8e4a d4a2 894a 569c 834a ad19 8c4a
000001a0: 243d 8d4a d932 844a 0c7f 824a 5919 894a
000001b0: 3ef5 844a 09e1 884a 5dbe 934a b3bb 8e4a
000001c0: 2976 884a 1d4c 914a 677b 924a 5f12 894a
000001d0: 6e4d 874a f330 8e4a 44e4 894a d2f1 8d4a
000001e0: 5895 8b4a 4dde 864a 8cf8 804a c547 894a
000001f0: 2365 8a4a 1b8c 814a 64c2 7f4a d055 864a
00000200: 2847 824a c220 864a d260 014d 8309 014d
00000210: e93a 014d efa5 004d 1eb0 fa4c 48f2 004d
00000220: 2400 014d 0747 024d e346 024d 2dcb 004d
00000230: 7d18 2048 39dd 1f48 6542 2048 19da 1f48
00000240: 80a9 1c48 8415 2048 fb17 2048 0853 2048
00000250: 0253 2048 0a0c 2048 0ec2 004d 2d6b 004d
00000260: 599c 004d 1c08 004d 8e7c f94c 1154 004d
00000270: ec61 004d 27a7 014d 05a7 014d 2a2d 004d
00000280: a78a 6348 fe9e 6048 f279 5c48 6794 6248
00000290: e66e 6248 462f 5e48 125c 5b48 d88b 5a48
000002a0: e405 5548 55fb 6048 d5c8 864a 7d3e 824a
000002b0: 8822 794a 0991 844a c3a3 854a 4a3f 7a4a
000002c0: 6108 774a 43b7 814a 4a9a 7b4a fd87 814a
000002d0: 4c40 8e4a 4d70 894a e56a 834a ade6 8b4a
000002e0: e409 8d4a 5701 844a c34d 824a 5ae7 884a
000002f0: 5bc4 844a b9ae 884a 1d87 8e4a 9fb5 894a
00000300: 54ae 834a c82c 8c4a 5e50 8d4a e444 844a
00000310: f490 824a 072c 894a 5607 854a 8bf3 884a
1.3663928e+06 1.3442894e+06 1.2719256e+06 1.3709341e+06 1.3548262e+06 1.3045144e+06 1.2651228e+06 1.354478e+06
1.3160912e+06 1.3183151e+06 4.5456405e+06 4.3921585e+06 4.200201e+06 4.470673e+06 4.5069575e+06 4.218967e+06
4.1646768e+06 4.3747105e+06 4.2425915e+06 4.3680515e+06 4.6925e+06 4.5336885e+06 4.3349795e+06 4.6149515e+06
4.6524895e+06 4.354363e+06 4.29823e+06 4.5161085e+06 4.3796325e+06 4.5087265e+06 276578.0 268747.47
263777.12 272688.44 274214.94 266737.53 262702.16 271293.8 264395.22 265176.78
4.492814e+06 4.341243e+06 4.1517e+06 4.418778e+06 4.4546045e+06 4.1702512e+06 4.1166128e+06 4.3238765e+06
4.1933295e+06 4.317454e+06 1.2878932e+08 1.284501e+08 1.2864246e+08 1.2806323e+08 1.2477496e+08 1.2835961e+08
1.28414104e+08 1.2968434e+08 1.2968375e+08 1.282081e+08 4.6644445e+06 4.506568e+06 4.309047e+06 4.5873435e+06
4.624668e+06 4.3283195e+06 4.2725115e+06 4.4890525e+06 4.3533685e+06 4.4817615e+06 4.6274195e+06 4.470914e+06
4.2751335e+06 4.5509795e+06 4.58798e+06 4.2942485e+06 4.238913e+06 4.4534075e+06 4.3188375e+06 4.446335e+06
991520.9 987618.06 986978.6 989771.3 967119.44 988247.75 985661.06 991775.44
989201.2 987339.9 283699.1 277766.62 270434.84 281719.78 281699.78 274526.62
269411.03 278327.3 271151.6 273865.3 4.667871e+06 4.510058e+06 4.312619e+06 4.5908065e+06
4.628114e+06 4.3318845e+06 4.276102e+06 4.4924605e+06 4.356767e+06 4.4852525e+06 4.8412625e+06 4.6770815e+06
4.4715725e+06 4.7611025e+06 4.7999235e+06 4.4915675e+06 4.433591e+06 4.6593215e+06 4.518434e+06 4.651241e+06
4.573868e+06 4.4193665e+06 4.226118e+06 4.4984025e+06 4.5349295e+06 4.2450055e+06 4.190361e+06 4.401896e+06
4.268948e+06 4.395105e+06 1.3566288e+08 1.3530526e+08 1.355076e+08 1.3489739e+08 1.3143269e+08 1.3521011e+08
1.3526688e+08 1.3660581e+08 1.3660523e+08 1.3504994e+08 163937.95 163700.89 164105.58 163688.39
160422.0 163926.06 163935.92 164172.12 164172.03 163888.16 1.3501258e+08 1.3465672e+08
1.3485813e+08 1.3425094e+08 1.308028e+08 1.3456206e+08 1.3461882e+08 1.3595096e+08 1.3595042e+08 1.3440272e+08
233002.61 230011.97 225767.78 232017.61 231867.6 227517.1 224624.28 223791.38
218135.56 230381.33 4.4166185e+06 4.2678385e+06 4.081826e+06 4.3439405e+06 4.3791055e+06 4.1000505e+06
4.0473842e+06 4.2505295e+06 4.1222585e+06 4.2444785e+06 4.661286e+06 4.5035905e+06 4.3062905e+06 4.5842785e+06
4.621554e+06 4.3255475e+06 4.2697935e+06 4.486061e+06 4.3505095e+06 4.4788125e+06 4.6703505e+06 4.5124635e+06
4.314922e+06 4.593252e+06 4.630575e+06 4.334194e+06 4.278394e+06 4.4948515e+06 4.359083e+06 4.4876215e+06

exp_avg f4 [20]
00000000: 727a b8c3 91ad 1fc4 1411 22c4 add0 39c3
00000010: e0d0 1ec4 b91e 93b7 0493 21c4 6efd 20c4
00000020: c35d c6c2 d6f7 3bc3 f5b9 21c4 c675 24c4
00000030: d725 20c4 8e0c 97b7 6ded 83b4 89ae 96b7
00000040: 3870 34c3 7790 1dc4 c28e 21c4 0dc4 21c4
-368.9566 -638.712 -648.26685 -185.81514 -635.2637 -1.7538072e-05 -646.2971 -643.95984
-99.18313 -187.96811 -646.9056 -657.8402 -640.59125 -1.8006449e-05 -2.4573401e-07 -1.7962668e-05
-180.43835 -630.25726 -646.2306 -647.0633

exp_avg_sq f4 [20]
00000000: 0bd0 af49 638f 8e4a d12c 934a 09e7 8b48
00000010: 8be6 8c4a 745a f74c 944b 924a 7a21 914a
00000020: 808a 7349 38a5 8f48 1066 924a 5fd9 974a
00000030: 6a72 8f4a 0947 024d 0853 2048 2aa7 014d
00000040: 1d93 6648 7d81 8a4a d831 924a 087a 924a
1.4402574e+06 4.6714095e+06 4.8226325e+06 286520.28 4.6170295e+06 1.2968438e+08 4.793802e+06 4.755645e+06
997544.0 294185.75 4.797192e+06 4.9757915e+06 4.700469e+06 1.3660584e+08 164172.12 1.35951e+08
236108.45 4.5385585e+06 4.790508e+06 4.799748e+06

exp_avg f4 [1, 20]
00000000: 854d 2fc5 4029 c6c5 4053 c4c5 e949 c6c4
00000010: d6d0 bfc5 5051 fbb8 8be6 c2c5 448b c1c5
00000020: a95b 2fc4 9efe c1c4 917e c1c5 86a3 bdc5
00000030: 5576 c3c5 970f f5b8 f6e6 88b5 e945 f4b8
00000040: 99ff c4c4 191d c3c5 a661 c5c5 2eae c2c5
-2804.845 -6341.1562 -6282.4062 -1586.3097 -6138.1045 -0.00011983758 -6236.818 -6193.408
-701.4322 -1551.9568 -6191.821 -6068.4404 -6254.7915 -0.00011685414 -1.0200008e-06 -0.000116478484
-1575.9874 -6243.637 -6316.206 -6229.7725

exp_avg_sq f4 [1, 20]
00000000: 1bdc 6f4c 213b ac4d 1f26 a94d 27a0 834b
00000010: b6c4 a04d bbed 5950 7f60 a74d 1a96 a44d
00000020: a1ad ac4b 722a 7d4b 37f6 a24d 8a82 9d4d
00000030: df42 a74d 3577 5050 7e42 984b 4a7e 5050
00000040: 350f 654b d242 a64d 1d05 ab4d e31c a54d
6.2877804e+07 3.6119453e+08 3.5473098e+08 1.725243e+07 3.3715578e+08 1.4624943e+10 3.5101488e+08 3.4516256e+08
2.2633282e+07 1.6591474e+07 3.4175562e+08 3.3032224e+08 3.507722e+08 1.3989893e+10 1.9956988e+07 1.399175e+10
1.5011637e+07 3.4867462e+08 3.5865488e+08 3.4626672e+08
