models/6/model-Bakery.pth (torch, 34898 bytes, 45 tensors)

rnn.weight_ih_l0 f4 [10, 6]
00000000: 50ae 29bb 6e26 af3d ae72 763d 55f7 a83d
00000010: bcdc 8fbe 8767 7dbe fa68 293e 2f09 8c3e
00000020: 123d eebd 9097 8b3e e3b7 94bd 328f efbd
00000030: dca7 58be a50c f7bd 0d54 67bd 1aa4 8d3e
00000040: 634a 94be 725e 043e 6ed4 0e3d 83b1 9bbe
00000050: 98fc 793c 3586 9b3e 1ff3 a1bd 729a 73bd
00000060: a7ef 3b3e dd2a 133e 81ac e83c 8264 ec3d
00000070: 909a afbd 2eb4 59be 0908 683e c2d5 563e
00000080: 3e3a d4bd 0e35 61be 37a4 8cbe cd3c 7cbe
00000090: 4d41 cebd c597 bbbd 399b 063e ca2f 4ebe
000000a0: 9ee2 ab3d d1b5 853e 1a8c 45be 720a 1c3d
000000b0: 83ac 013e 792f 943c 6474 04bd 7084 8abe
000000c0: dfe3 7e3e 3bdd 49bd ab60 383e dc8f 6aba
000000d0: fa33 823e c30b bbbd 7868 b7bd 5058 6f3e
000000e0: 763d fabd e34a f8bd 64d2 f8ba 8de9 7e3d
-0.0025891252 0.08552252 0.06016796 0.082503 -0.28098094 -0.24746524 0.16543952 0.27350757
-0.11632742 0.2726407 -0.07261636 -0.11697234 -0.21157783 -0.12062959 -0.05647664 0.27664262
-0.28963003 0.12926653 0.034870557 -0.30408868 0.015257977 0.3037583 -0.079077 -0.059473462
0.18353139 0.1437182 0.028402569 0.11542608 -0.08574402 -0.2126014 0.22659315 0.2097998
-0.10362671 -0.21992895 -0.27469036 -0.24632569 -0.10071049 -0.09159807 0.1314515 -0.20135418
0.08392833 0.26115277 -0.19291726 0.0380959 0.12663464 0.018089043 -0.03233756 -0.27054167
0.24891613 -0.049283247 0.18005626 -0.00089478283 0.2543028 -0.09133103 -0.08955473 0.23373532
-0.12218754 -0.121236585 -0.00189836 0.06223445

rnn.weight_hh_l0 f4 [10, 10]
00000000: b59d 9f3d 36af 993e 0a1e ee3c 2060 43be
00000010: 6d9e 9d3c 498e 87be 0d07 2dbd 56d9 7ebe
00000020: 00ac c03d 30e6 2d3e c85d 933e 3d1a d33d
00000030: a78e 97be a29d d0bd fbd9 043c 8649 9cbe
00000040: 43bc 51be a6d3 7dbe 478d cb3c 2c2e 68ba
00000050: 61de 11be 7a4e 48be 6df9 09be 20d5 8ebe
00000060: b97f 9a3e 6a58 87be 00cc a0bc 11e3 c73d
00000070: 410b 4cbe 84ce 99be b67c 943d f886 123e
00000080: b973 77be 678e 70be c499 fe3d ca5b d5bd
00000090: de1e 803d 27c6 00be bb5d 2f3e 895d 813e
000000a0: aea5 9d3e 6203 f53c 51dd 2a3e 4612 33bc
000000b0: 9674 42be 7e2e 253d 0509 1d3e e159 1b3e
000000c0: fc36 803e 3521 9e3d d446 433e 4be8 0bbe
000000d0: 04bc 04bd 03c7 2a3e 1ca1 36be 8b52 853c
000000e0: ee7e 20be 8c51 9f3e 52cb bfbd 34a8 3cbe
000000f0: 6c9f 2bbe b39d 413c 869a 873e 42dc a1be
00000100: 64da e43d ebad 933e 0f7c 513e 9f5d fe3c
00000110: 9b47 7b3e 5f21 59be d889 d9bc 0c0b c1bc
00000120: 1183 2c3e 12dd 2f3e 446c 05be a05c 363d
00000130: f79b 5c3e 0003 3a3e 2fd7 58be 3688 203e
00000140: 60a9 8dbd cb80 51be a0c6 7a3e 958c 9cbe
00000150: 1147 353e 4786 6bbe fd89 1d3e 8b07 da3c
00000160: 16c0 82be ac7b 4cbd 2f4b 24be 1495 6f3e
00000170: eb2e 983e 8e82 4dbe 1d7d 67be b8a2 70be
00000180: f6d5 183e 72e3 8c3e c5b1 1e3e 0912 293e
0.07793752 0.30016488 0.029067058 -0.19079638 0.019240582 -0.26475742 -0.042243052 -0.24887595
0.094078064 0.16982341 0.28782487 0.10307739 -0.29601023 -0.10186316 0.008108611 -0.30524844
-0.20481972 -0.24787769 0.02484764 -0.0008856978 -0.14244987 -0.19561186 -0.13474055 -0.27896976
0.3017557 -0.26434642 -0.019628525 0.09760106 -0.19926168 -0.3004037 0.07250349 0.14309299
-0.24165238 -0.23491822 0.12431672 -0.10417898 0.062558874 -0.12575589 0.17125599 0.25266674
0.30790466 0.02990884 0.16685988 -0.01092965 -0.18989787 0.04032754 0.15335472 0.15171005
0.2504195 0.077211775 0.19069988 -0.13662831 -0.03240587 0.1667748 -0.17834896 0.016274711
-0.1567342 0.31116903 -0.09364952 -0.1842354 -0.16760033 0.011817384 0.2648508 -0.31613356
0.11174467 0.28843626 0.20457481 0.031050501 0.24539034 -0.21204136 -0.026554987 -0.023564838
0.16846873 0.17174175 -0.13029581 0.044521928 0.21543871 0.18165207 -0.21175836 0.1567696
-0.06917071 -0.20459287 0.24489832 -0.30576006 0.17702891 -0.23000441 0.1538467 0.026614925
-0.25537175 -0.04992263 -0.16044305 0.23396713 0.29723296 -0.20069334 -0.2260632 -0.23499572
0.1492537 0.27517277 0.15497501 0.16510786

rnn.bias_ih_l0 f4 [10]
00000000: 1ca0 a73c 871f 003e 89f2 34be 63cf a0be
00000010: c22c 8e3e 5068 25be de09 67be b515 613e
00000020: a77c 87bc dd91 6a3e
0.020462088 0.12512027 -0.17670645 -0.31408224 0.27768523 -0.16153073 -0.22562358 0.21980937
-0.016538931 0.22907205

rnn.bias_hh_l0 f4 [10]
00000000: 49bf 82be 03a6 20bd 0dbd 1f3e b3d3 b23d
00000010: 402d 0f3d a47a a13e f936 0abe 8c39 8e3e
00000020: 516c c63d 5ee7 f6bd
-0.25536564 -0.03922082 0.15599461 0.08731785 0.034955263 0.3153888 -0.13497533 0.2777828
0.096886285 -0.120558485

rnn.weight_ih_l1 f4 [10, 10]
00000000: 72b8 833e c66f e2bd f74f b8bd 6825 9f3d
00000010: 0d07 19be cd4d 0dbe cb63 d63e 6861 46be
00000020: e2f6 dabe 3318 ad3e 04e0 0d3e 450c 2bbc
00000030: c7b1 ab3e 58b0 513c 91c2 d2bd b263 06be
00000040: e2e1 903e f05d e93d f717 ee3d 569f 1b3e
00000050: 389b 6abe 262d ac3d 0362 abbd 55c2 0d3e
00000060: 42fe 9ebd 6e10 1a3e 35e6 023d 743f 183e
00000070: dd0f 513e 5ab2 a1be 64c4 11be 5acc cfbd
00000080: 5734 db3e 703d 9dbe 3727 43be 0178 94be
00000090: ba9f 64bd fb11 b03e 0dfa ebbd 148d e6bd
000000a0: a781 c7bd 04c3 eb3d d432 debe bb92 e43d
000000b0: 96e3 3abe f029 1b3e 6649 89be 0296 cdbe
000000c0: 6682 b93e 824d 86be cf66 16be 78f3 54be
000000d0: 173f 11be 62a4 29be 4673 843e 10e7 27be
000000e0: db64 10ba 0205 80bb d491 533e 0f09 c4be
000000f0: 43e3 b1bd 259b bb3d 39de 44be 9e14 613e
00000100: 2406 cd3e 701f e93c e236 7dbd 0051 b6be
00000110: a2ca 263b 139b c13d c406 ebbd ff73 29be
00000120: dc5a 283e 5c70 993e 1ccf 2a3d 3c1b b43e
00000130: ec35 1d3e e607 603e 02a5 903e 0de9 69be
00000140: d14a f73d 04ca c1be 0a92 723e 4a82 a3be
00000150: 2a9f a3be 5c87 b6be 7ee9 16be 6265 d53e
00000160: c7a0 203e 7955 7e3d 000b ab3d 9a4c 6a3b
00000170: 63d1 353e 029e 823d db62 a2be 61b0 10bd
00000180: 3fee ac3e 1f29 c83e ae0f 303c 3f81 363e
0.25726658 -0.11056475 -0.08999627 0.077708066 -0.14944096 -0.1379921 0.4187301 -0.19373095
-0.42766482 0.33807525 0.13854986 -0.010439937 0.3353407 0.012798391 -0.10291017 -0.13123968
0.28297335 0.1139487 0.11625665 0.151975 -0.22910774 0.08407049 -0.083683036 0.13843663
-0.077633396 0.1504533 0.031957824 0.14867955 0.20416208 -0.31581384 -0.14235073 -0.10146399
0.4281337 -0.30710936 -0.19057928 -0.28997806 -0.05581639 0.34388718 -0.11522303 -0.11257377
-0.09741526 0.11511806 -0.43398154 0.11160799 -0.1825088 0.15152717 -0.2681381 -0.4015351
0.362323 -0.2623101 -0.14687656 -0.20796001 -0.14184223 -0.16566613 0.25869197 -0.16396737
-0.00055081927 -0.003906847 0.20661098 -0.3828816 -0.08685925 0.09160451 -0.19225396 0.21980521
0.40043747 0.028457373 -0.06181992 -0.35608673 0.0025450368 0.09453406 -0.114759 -0.16548155
0.1644091 0.29968536 0.04170142 0.35177028 0.15352601 0.21878013 0.2825089 -0.22842808
0.12074817 -0.37849438 0.23688522 -0.3193534 -0.3195737 -0.35650146 -0.14737508 0.4167891
0.15686332 0.06209323 0.083517075 0.0035751224 0.17755656 0.06377794 -0.31716046 -0.035324458
0.33775517 0.39093873 0.010745926 0.17822741

rnn.weight_hh_l1 f4 [10, 10]
00000000: e636 ffbc bf98 02bd 46a0 7abe c298 b13e
00000010: e615 103e 8c83 c4be 2045 793d ede3 01be
00000020: 3181 273e e6b9 8f3e b9dc c33e d2a0 c1bd
00000030: 7993 383e 1c74 773e 0313 6cbd 6fd3 aabe
00000040: 68a8 ec3d 06c3 e6bd aeb2 ecbc a4c5 b03e
00000050: 14c1 353e 1c86 a2be d58a 4d3c 3035 b8bc
00000060: 8088 c83d 7614 da3d f247 c13e db54 bd3e
00000070: 7ce6 c2bd 66e9 8cbe b24a 953e ed2d 19bc
00000080: e178 a3bd 29f4 b73e 4556 79be 5e89 0f3e
00000090: 9c49 c53a ec9d b4be 9b02 3dbe eca3 3cbe
000000a0: 2864 d4be 33aa ef3d d38f c9bc 0f55 dcbd
000000b0: a8bd e33d ae32 26be 41f8 ffbd 38b0 bbbd
000000c0: 18b0 f2bc 9d50 adbe 43ee a8be 109c 01be
000000d0: a569 c93e 8b1b 283e 1e67 cb3e 4196 183e
000000e0: 536c c33e d29a 263d f3c6 bfbe 67f0 7abe
000000f0: c27b e93b 6b21 84be 2f8b 953e dac0 0e3d
00000100: 0c23 9e3d 7653 14be 1313 29bd fb7d d73e
00000110: 5923 cfbe 5f42 d0be 2a36 4fbe 3bb6 883d
00000120: a510 b8bc 76b3 8fbe 979e 953e 9efc 733e
00000130: a6fb 1b3e 5433 493e 3673 bfbc beb8 b8be
00000140: 37af 1abd 483c a93e 6d6f 9ebe b44f 813e
00000150: 4c4d 83bc c36c 10bd f714 aebe c101 a3be
00000160: ebff 34be b350 5bbd 2598 c43d e2ec 2abd
00000170: efa5 bc3a 2ad1 f63d bf05 263d 0b8c b53d
00000180: 2b2d 46be a3dd 99be 3601 233e 658e d63d
-0.031154107 -0.03188395 -0.24475202 0.34686857 0.14070854 -0.38381612 0.06085694 -0.12684603
0.16357876 0.28071517 0.38254336 -0.09454502 0.18025006 0.24165386 -0.05763532 -0.33364436
0.115555584 -0.112676665 -0.028893795 0.34525788 0.17749435 -0.31742942 0.012545307 -0.0224863
0.0979166 0.10648434 0.37750202 0.36978802 -0.09516618 -0.2752182 0.2915855 -0.0093493285
-0.0798204 0.35928467 -0.24349315 0.14017245 0.0015051845 -0.35276735 -0.18458025 -0.18421906
-0.41482663 0.11702385 -0.024604714 -0.10758411 0.111201584 -0.1623027 -0.124985225 -0.091644704
-0.029624984 -0.33850566 -0.3299428 -0.1265719 0.39338413 0.16416757 0.3972711 0.14901067
0.38168582 0.040674992 -0.37456474 -0.24505769 0.007125349 -0.25806746 0.2920775 0.034851886
0.077215284 -0.14484963 -0.041277956 0.42088303 -0.40456656 -0.40675637 -0.20235506 0.06675383
-0.022468874 -0.28066605 0.29222557 0.23826835 0.15232715 0.19648486 -0.023370367 -0.36078447
-0.037764754 0.33053803 -0.30944386 0.2525612 -0.016028069 -0.035259973 -0.3400037 -0.31837276
-0.1767575 -0.053543758 0.09599332 -0.041729815 0.0014392714 0.12051614 0.040532824 0.08864602
-0.19353168 -0.30051908 0.1591843 0.10476378

rnn.bias_ih_l1 f4 [10]
00000000: 3560 62be 0289 08bd c4a8 923e 32df 2e3c
00000010: ac60 843e dbd1 853e a290 3fbd 6ef3 983e
00000020: 0e31 f13d ac10 7dbe
-0.22107013 -0.033333786 0.28644383 0.010673331 0.25855005 0.2613667 -0.046768792 0.29873222
0.117769346 -0.24713391

rnn.bias_hh_l1 f4 [10]
00000000: c2af f33c 9dd5 9ebe 999c b93e 9161 acbe
00000010: a214 d83e d677 87bd 6dcf c93e 96ce 453e
00000020: f339 40be d45e 52be
0.029746894 -0.3102235 0.36252287 -0.33668187 0.42203242 -0.06614654 0.39416066 0.19317088
-0.18772106 -0.20543987

fc1.weight f4 [20, 10]
00000000: 5756 97be 9b53 86be 338f ef3d 3bf8 273d
00000010: fcb3 bc3e 8a6a a63d f623 c43e df03 0e3e
00000020: 703c e1be 2071 8dbe 967d a5be bbef 65be
00000030: 4609 c83e d82b 873d 94ab 8a3e 7bb7 7b3e
00000040: f0b2 ad3e 0e55 b43d 7d02 72be 0cc9 c63d
00000050: 9411 2a3e 0ce3 b7bd 9789 ddbd 02f7 d73d
00000060: e8fa 1fbe c76c e73d f613 31bd 4172 51be
00000070: ff11 8ebe 3f1d 4f3e 54de dbbe 485e 78be
00000080: b9d3 2a3e 4fe8 0ebe 89d7 053d 84fb 2c3e
00000090: 8ae9 e03e ab02 40bd 17fd b7be 95b8 e7be
000000a0: 6a0b a93d f32b a3bc 7f44 8abe 3ce4 b43d
000000b0: a3a6 2a3e e667 9a3e 49ad 7abe 472e 68be
000000c0: 34c4 e53d 75eb 523d 4c77 953b a076 793e
000000d0: 869e 323d c54d 5c3e 8714 073e d37f 8bbe
000000e0: 0b59 913e 4a3e 343d 2717 21be 65a3 8f3d
000000f0: a75e 403e e6a9 79bd 25b3 9ebd 4bf6 a93d
00000100: 2244 2fbd ffe9 6e3e d7f5 86be e7e4 623e
00000110: 9329 583e ffe6 5dbc 6320 263e 5768 9d3e
00000120: f30b 933d dd1e 8ebe 81fe fe3d 1a3b 2dbe
00000130: f6d2 87bd 4e33 e1bd 0eac 053e 4cee 5b3d
00000140: bcb4 08be dc4a aebe c7bc 603d b6ba c6be
00000150: 94bd a23e 0c15 c23e 7b64 fcbd 8ae0 893e
00000160: 4b5f d4be 802e a33d 80de 7a3d 257b 9fbe
00000170: 2d5f 89bd 8072 9d3e 4a89 3f3e 36ce 9cbe
00000180: 5c42 21be b44c 2f3e ecd4 853e 4b77 1fbe
00000190: 80ce 69bd b0dd 9c3e 1d86 9bbe 6525 4bbe
000001a0: 0c4c 41be 9ede f73d cb7a e2bd 9269 45be
000001b0: 65bb 8ebd e739 cdbd 7a5d f3be 729c c2be
000001c0: 9015 3e3e 5c62 8ebe 6203 9a3e d7a1 1f3e
000001d0: 36ed f33e de77 cbbc aa7f b2be 12f0 f23d
000001e0: 64a4 91be 71f6 9cbe 0885 723e 0e53 f3be
000001f0: 0648 093e aca0 663e 0171 a73e 4a90 213d
00000200: 2d1e 8ebe 2a05 ebbe eb17 a4be 6634 ee3d
00000210: 6f9b 0dbe 9e72 e0be 3d7e ed3e f606 2b3d
00000220: e9bc 953e a964 ee3e 2774 bcbe 0b68 a1be
00000230: b698 4dbe a777 e0be d038 773e a3eb 60be
00000240: b0d6 9bbc cb72 9d3e 6bd1 b73e f8fb 1f3e
00000250: d853 89be d104 60be 4be9 c0be d338 96be
00000260: 511f c73e dd03 8ebe 766f cb3e bf09 933e
00000270: 6ef3 b03e 7990 f83d f6a9 d93d 4877 84be
00000280: 9bb1 c23d d247 543e a079 983e 8ba9 053e
00000290: de55 503e e4e2 0fbe 50ce 233e c33e 66be
000002a0: bf35 833e 601d ecbd 2861 09be 26cd f4be
000002b0: 3e8f a13d 578c acbe 426c e93e c867 223b
000002c0: 5807 443d 50c6 103e 4994 95be bacf d8be
000002d0: 89b1 cbbd 3e19 053d 2917 923e 4c67 96b8
000002e0: 56b4 153e 66fe 193d e0ca 7ebd 7be1 3b3e
000002f0: d8b5 fcbd 9b11 99be 3c36 81be 4663 803e
00000300: 03d7 8dbe 5e36 913e 2dcf 93be 3aa8 a63d
00000310: 032a bfbd 18ae 6a3e e760 81be a667 953d
-0.2955806 -0.2623566 0.11697235 0.041008215 0.36856067 0.081257895 0.38308686 0.13868664
-0.43991423 -0.2762537 -0.32322377 -0.22454731 0.39069575 0.066001594 0.2708403 0.24581711
0.3392558 0.088052854 -0.23633762 0.097063154 0.16608268 -0.08978853 -0.10817259 0.1054516
-0.15623057 0.113000445 -0.043231927 -0.2045374 -0.27748105 0.20226 -0.4294306 -0.24254715
0.16682328 -0.13955806 0.032676253 0.1689282 0.43928176 -0.046877544 -0.3593528 -0.45258012
0.0825413 -0.019918418 -0.27005383 0.08832595 0.1666513 0.30157393 -0.24480166 -0.22673903
0.112190634 0.05149408 0.0045613404 0.24361658 0.04360821 0.21514042 0.13191424 -0.2724596
0.28388247 0.044004716 -0.15731488 0.07013587 0.18786107 -0.060953043 -0.07749013 0.0829893
-0.042789586 0.2333145 -0.26359436 0.22157632 0.2110961 -0.013543843 0.16223292 0.30743667
0.071800135 -0.27757922 0.124508865 -0.16917077 -0.066320345 -0.10996114 0.13053915 0.053694054
-0.13350195 -0.34041488 0.054867532 -0.38814324 0.31785262 0.37906682 -0.12323853 0.26929122
-0.41478953 0.079678535 0.06124735 -0.3114864 -0.067076065 0.3075142 0.18704715 -0.30626076
-0.1574797 0.17119104 0.2613901 -0.1557285 -0.0570817 0.30637884 -0.30375758 -0.19838484
-0.18876666 0.12103008 -0.11058577 -0.19278553 -0.069693364 -0.100208096 -0.47532254 -0.38009983
0.18562913 -0.27809417 0.30080706 0.15589081 0.47641915 -0.02483743 -0.34863025 0.11862196
-0.28445733 -0.3065677 0.2368356 -0.47524303 0.13406381 0.22522229 0.32703403 0.039444245
-0.27757397 -0.45902377 -0.32049498 0.11631088 -0.13828824 -0.43837446 0.46385375 0.041754685
0.2924569 0.46561173 -0.36807367 -0.3152469 -0.20077786 -0.43841287 0.24142766 -0.21964888
-0.01902327 0.30751643 0.3590196 0.15623462 -0.2682178 -0.21876837 -0.37677988 -0.29340228
0.3889108 -0.27737322 0.39733475 0.28718373 0.34560722 0.12136931 0.106281206 -0.25872254
0.09506532 0.20730522 0.29780293 0.13052957 0.20345256 -0.14051396 0.1599667 -0.22484879
0.25626943 -0.1152904 -0.13415968 -0.47812766 0.078886494 -0.3370082 0.45590407 0.0024781097
0.047858566 0.1413815 -0.29214695 -0.42345983 -0.099459715 0.032494776 0.28533295 -7.171798e-05
0.14619574 0.03759613 -0.062205195 0.18347733 -0.123393714 -0.29896244 -0.2523669 0.2507574
-0.27703103 0.2836179 -0.28869 0.081375554 -0.09334185 0.22917974 -0.25269243 0.0729516

fc1.bias f4 [20]
00000000: 8eeb e43e 4f82 8fbd 84c0 0e3e e165 1dbd
00000010: fc18 4dbe 6662 1dbe 84e7 ee3d c0da 02be
00000020: aaf1 c83d fd42 64be 1b9b 9a3e febb 8b3d
00000030: e7b4 c83e 7908 d73e 5397 f03d 1dce e03e
00000040: dfd5 9abe b260 033e 1f8a a13e e083 4c3e
0.44710964 -0.07007276 0.13940626 -0.038427237 -0.20029062 -0.15369567 0.11665252 -0.12778759
0.09811719 -0.22291179 0.3019646 0.06822966 0.39200518 0.41998652 0.11747613 0.43907252
-0.30241296 0.12829855 0.3155069 0.19972181

fc2.weight f4 [32, 20]
00000000: 57ca 57be dfda 00be 4d3f cabd c248 6ebd
00000010: 6cef eb3d 4b2d 5dbe 06b8 403e 3f44 26be
00000020: 9a13 22bd ef36 0e3d cb3b 3a3e 5e32 973d
00000030: 71a3 89bd 7afb 03be fe7b 713b ec7e 553e
00000040: c1bf 0f3e 5b6a 413e c1d8 eebd 3269 2fbe
00000050: 565f a03e 2e88 d23e a660 adbd ebcf a43d
00000060: 7b7a 0abd a3d1 8a3d 03f6 213e f29c 313e
00000070: 726c c53e 4510 f63c e38c 1e3d 81d2 f63d
00000080: ef50 a83e 9702 d93d 2882 933e 5b02 9b3e
00000090: b256 e83d 489c 9d3e 1eb7 293e 2e1d d0bd
000000a0: 6182 1f3e 0b5c 5dbe c1fb 31be fe88 0cbe
000000b0: 010b 18be 16fe 88bd cd4f e53d 49a1 eb3c
000000c0: de84 273e 51d1 b3bc 3f8b 1c3c c082 0abe
000000d0: 85d9 61bd e481 68be 9235 24bd 3476 503d
000000e0: f18c 103e 9ac3 5d3c 068c a53d 6670 2d3c
000000f0: 0b1b 033c 050d bb3d 04f4 1b3d 8ef5 1cbd
00000100: 3ba6 533e 0991 3abe 8822 9f3d 130b 8c3d
00000110: 16d4 30be 0556 313e fabd 86bc 1d8d c9bd
00000120: 0858 993d 0cd3 42bb 9155 b5bd 842a 2abe
00000130: a7f4 99bd b45c c2bd 3100 00be 002e 433e
00000140: ff97 b83c 67d4 e7bd 8304 c6bd 1801 aabd
00000150: 55d4 923d ed6a e5bd da74 b13d e766 b7bd
00000160: 5fc7 45be 0305 5bbe aa50 4dbe 9751 763d
00000170: a895 0d3d 0dde a63d ff40 80bd 6d13 fc3d
00000180: bbd6 00be a908 0ebe b531 39be 7a42 6b3d
00000190: 64b3 163d 3e83 2d3e e9e9 36be b453 d2bd
000001a0: 60d1 1bbe ee68 9ebd 3bb4 ffbd 760f 17be
000001b0: 4689 3cbe 780d 973d e017 d33d a92d 003e
000001c0: 201e 753d 7678 b13d b038 53be d4c0 a33d
000001d0: e64a 14be b10b 0dbe eba1 dabd b1b8 aabd
000001e0: c3d4 09be 0a66 523e fbc6 d4bd b464 b03d
000001f0: 0809 483e ff07 03bd 3519 d33d 1309 8b3d
00000200: 3035 26be 6421 9b3d fa9c 22be f242 893c
00000210: e7bd 60bd 21c6 a13d 3d69 77bd 5958 17be
00000220: d739 fa3d b395 dfbd 37f4 073e bd72 963d
00000230: 153c b93d e770 5abd 8aa9 393e 0644 ff3c
00000240: 5f22 b3bd 44c6 133e 4409 debd f63b 693d
00000250: ad66 bd3d a0e9 cd3d 3005 f53d 3d7c 173c
00000260: e027 c8bd 1570 debd 0869 f0bd 63c4 493d
00000270: 2abd f93d 663d f0bd f350 45be bac2 c3bd
00000280: 988b 4cbe 83b3 21bc 4e4d 52be 93ca d2bd
00000290: c8f5 ccba ab3e 1b3d 81b2 a63d 6285 3fbe
000002a0: c385 55be 2656 ffbd 47ae 97bd c07b eb3d
000002b0: a45e a73c 78d9 7e3c 057e 2fbe 5d57 3c3b
000002c0: 41c0 1e3e 82c0 373e 7650 2dbe b448 6ebd
000002d0: 9763 ef3d b25c 393d 805b 233e 5df4 893e
000002e0: 1085 5fbd 33af c5bc 5912 e53d b349 c33d
000002f0: 8f8f cc3b 7fa2 413e 0b79 b7bd f6d5 bc3e
00000300: a94b a63e 554e c63d b8b1 57bc 2da8 69bd
00000310: bfdb 963d 53a0 c23e f069 2a3e b71f 463c
00000320: 79c4 b13e bd0a 223d bc8b 223e 2d72 a23e
00000330: 6436 613e 09b4 dabd faec e3bd 7b0c 44be
00000340: a30f 503e 9143 9d3d bac7 d83d 6182 c73e
00000350: ea55 bc3e ed5d 013e 7046 c93e 6441 c13e
00000360: 4c12 493e 82c1 ce3e 4862 153e b3cd 1bbd
00000370: 03f8 a53e 3222 983d d67a 60be 809b 493d
00000380: 6e32 8d3c 891b 5cbd bcf0 e23c ab68 ba3d
00000390: d1c1 7d3e 35f9 803d 38f0 a73d fb74 713e
000003a0: e31d 7cbc 0a44 a43e c8ec bc3e 55e5 933e
000003b0: 6184 b23d dd20 c93e 6763 a8bd 1e89 55be
000003c0: 742a 29be dd50 293d 6622 24bd a745 65bb
000003d0: 5ebb 11bd 2176 4f3e 968d 5dbd 1a4f 4ebe
000003e0: 0fb8 753d e397 f63d 117c f83d 489e 1bbe
000003f0: 6888 f8bd 1962 5f3a edf8 72bd 649c a33d
-0.2107328 -0.12583493 -0.09875355 -0.058174856 0.115202755 -0.21599309 0.188202 -0.16236971
-0.039569475 0.034720358 0.18186872 0.07382654 -0.06720627 -0.128889 0.0036847587 0.20849198
0.14037992 0.18888228 -0.11662436 -0.17129973 0.31322736 0.41119522 -0.084657 0.0804747
-0.033808213 0.06778266 0.15816502 0.17345026 0.385593 0.030037055 0.03870858 0.12051869
0.32874247 0.10596197 0.2881024 0.30275235 0.11344661 0.30783296 0.1657376 -0.101618156
0.1557708 -0.21617143 -0.17381193 -0.13724133 -0.14847948 -0.06689088 0.111968614 0.02876343
0.16359279 -0.021950396 0.009554683 -0.1352644 -0.055139083 -0.227058 -0.04009015 0.050893977
0.14116265 0.013535405 0.08083348 0.01058588 0.008002053 0.09133343 0.03807451 -0.038320117
0.2066888 -0.18219389 0.07770258 0.0683805 -0.17268404 0.1731797 -0.01644801 -0.09841368
0.07487494 -0.0029727845 -0.08854211 -0.16617781 -0.07517367 -0.09490338 -0.12500073 0.19060516
0.022533415 -0.113198094 -0.09668829 -0.0830099 0.07169405 -0.11202035 0.08664866 -0.08955174
-0.19314335 -0.2138863 -0.20050302 0.060136404 0.03456655 0.081478216 -0.06262397 0.12308393
-0.12581913 -0.13870491 -0.18085368 0.057436444 0.036792174 0.16944596 -0.17862667 -0.10269871
-0.15216589 -0.077348575 -0.12485548 -0.14751992 -0.1841174 0.07375616 0.10307288 0.12517418
0.059843183 0.08665554 -0.20627093 0.079957634 -0.14481696 -0.13773991 -0.10675415 -0.08336008
-0.13460068 0.20546737 -0.10389515 0.086129576 0.19534695 -0.031990048 0.10307542 0.0678884
-0.16231227 0.07574728 -0.15880194 0.016755555 -0.054868605 0.07899118 -0.060403097 -0.14779796
0.12218063 -0.10917225 0.13276754 0.07346103 0.09044663 -0.05333033 0.1813108 0.031160366
-0.0874679 0.14431101 -0.10841611 0.05694195 0.092480995 0.10054326 0.1196388 0.009245929
-0.097732306 -0.10861222 -0.11738783 0.049259555 0.12194283 -0.11730461 -0.19269161 -0.095586255
-0.19975126 -0.009869459 -0.20537302 -0.10292544 -0.0015637213 0.03790156 0.08139516 -0.18703225
-0.20851807 -0.124676034 -0.07406288 0.11498213 0.02043087 0.015554778 -0.17137916 0.0028738596
0.15503027 0.1794453 -0.16925225 -0.058174804 0.11688917 0.045254417 0.15952873 0.26944247
-0.054570258 -0.024131393 0.1118514 0.095355414 0.0062426995 0.18909644 -0.08958634 0.3688199
0.324796 0.096829094 -0.01316493 -0.05704515 0.07366132 0.38012943 0.16641974 0.012092522
0.3472021 0.039561022 0.15873617 0.31727734 0.21993405 -0.1067887 -0.11129184 -0.19145386
0.20318465 0.07678903 0.1058497 0.3896666 0.36784297 0.12633486 0.39311552 0.37745202
0.19635886 0.4038201 0.14588273 -0.038037967 0.3241578 0.07428397 -0.21921858 0.049220562
0.01723596 -0.053737197 0.027702682 0.09101995 0.24780966 0.062975325 0.08200115 0.23579781
-0.015387985 0.3208316 0.368994 0.28885904 0.087166555 0.39282885 -0.082220845 -0.20853087
-0.16520101 0.041336883 -0.040071867 -0.0034984143 -0.035579078 0.20259906 -0.054090105 -0.20147362
0.059989985 0.12040689 0.12133039 -0.15197098 -0.121353924 0.00085213926 -0.059319425 0.079888135

fc2.bias f4 [32]
00000000: 1331 053e d9c3 9bbd 7137 de3d 9d37 d23d
00000010: f5e6 fcbd 5d63 aabd 8469 083e 1ed6 4fbd
00000020: 5d1f 483e 6b40 893e 6259 e13d 9632 203c
00000030: 4b99 51be 4675 973e 8824 44be a46e 93bd
00000040: d5bd 54bd e65a 133d ffaf 943e 414c f53d
00000050: 621c a23d 3935 9cbc c6dc 243c a37b 233e
00000060: 68f7 0b3e 6aa0 67bd ff47 803d 76bd 3e3e
00000070: 3fbe 3ebd a1b6 883d 6006 023e 28a3 57be
0.13007002 -0.07605714 0.10850418 0.10264514 -0.12348739 -0.08319733 0.13321501 -0.050741307
0.19543214 0.2680696 0.110033765 0.009777686 -0.20468633 0.2958166 -0.1915456 -0.071988374
-0.05193885 0.03597536 0.29040524 0.11977435 0.0791557 -0.019068347 0.010062402 0.15965132
0.13668597 -0.056549467 0.06263732 0.18626961 -0.04656815 0.06675459 0.12697744 -0.21058333

fc3.weight f4 [16, 32]
00000000: b4d9 913d c276 0cbe b234 11be 11e0 67bd
00000010: 7c7c f63d c781 47bd c34e 8cbd 2d08 74bc
00000020: c698 9b3d aeb6 92bd 0b9e 033e f73e 3f3d
00000030: 6805 04bc de03 6cbd 7e3d cebd 36d7 bfbb
00000040: b3f9 233e b924 a9bc e59c 8fbd 100b 11bd
00000050: 5322 0fbe ba94 ae3d 9910 44be e01c 86bd
00000060: d33f 863d 9838 493d fe77 ddbd aa1c 103d
00000070: 1b2c 8d3d 3b75 8f3d 2227 c93d f1c4 fabc
00000080: 8ea6 093d 443a 203e 8665 2cbe cc71 073e
00000090: 2d01 b8bd 4ff8 2abe 2a57 80bd 635f 0c3d
000000a0: 49a6 12be b7c0 273c 9f64 07be a1c6 2ebe
000000b0: 3a8a 40bd 42d0 993d 00b6 033e c868 d7bb
000000c0: 154b 07bd dfcf ebbc 7fd3 22be 72fc afbd
000000d0: 55aa 113e b762 babd dda6 c43d f44d 9f3d
000000e0: d12b 00be b95c 2abe dcca 2bbc 730f d63c
000000f0: 1499 aabd c8a8 5a3d 8b9f 1b3c 788a ddbc
00000100: 587b 08be b6c1 e6ba 5497 36bc 5e65 593d
00000110: fa19 cebd c216 043e b3bd 22be d38c 263e
00000120: 77dd bebc 0970 febd 5600 dabc 8353 103d
00000130: d4ea 16be 1a4f 3fbe f3a8 1d3e d533 1c3d
00000140: c9a2 d8bd 8fd1 ff3c 8d7b 0a3a 73cf d13d
00000150: 008a e23d 571b 90bd 46c8 a13d 9a27 d83d
00000160: 2c25 173c 8564 0e3e 5ead fcbb 6157 32bb
00000170: 0085 07bd 6014 2abe 05d3 15be 7e70 2abe
00000180: a8a3 9a3d 2a18 2dbd 2524 013e a2db 8b3d
00000190: e384 34be 8dc3 bcbd 4fd0 b13d e11f 013e
000001a0: 0ce3 47bd bb8f 2dbe 854b b7bd 46bf 55be
000001b0: bd3a 0b3e 4d0b a6bd 9daf 913c e675 203e
000001c0: bf85 99bc c6eb 173d 4aea bc3d 10e8 ed3d
000001d0: f02a 8b3d d007 2d3e 2a5c ad3d 2d5a dbbd
000001e0: 665a 363d 106d 9d3c e223 e43d 5237 883b
000001f0: ca8e 093e 3f3b 1a3e 3e1e 153e 28d7 2dbe
00000200: 016b 2ebd cd52 823e 38de e1bd 06ce b7bd
00000210: e841 a23d 8be7 15bd 26a0 d2bd e33a 3e3c
00000220: 50ce b6bd 5cc4 963e d5b9 a43e bd75 a93e
00000230: f557 9e3d 870b 7c3e f88f 4abd 9a5f 40bd
00000240: 6427 28be b540 47bd 8716 993e f654 2f3e
00000250: 000a 9e3e 2364 d43d 0bf9 a53e 3693 23be
00000260: 92c1 663e b12d 5cbd 2454 16be e2ba 5e3e
00000270: fb5f 61bd 3a9c f13d 718e 833d 217b 043e
00000280: da07 2bbd 4d00 80bd d39e ccbc 20d0 fe3d
00000290: b4d5 163e 836e 5e3d 7922 243d 5afb 293a
000002a0: c82f c23d ba6d 7ebb 1785 ccbd 723e 9c3d
000002b0: ff67 253e c947 32bd 7e0c 773d 02c4 0c3e
000002c0: 891c d1bc e9ee 083e 93b9 80bd 23ce 0fbe
000002d0: dd89 0f3b 358d 8e3d 62f8 15be c14c 1cbe
000002e0: c704 f33d 7770 aa3d 88e4 523d dad7 1bbe
000002f0: cd9b 92bd 7182 673d bd74 24be 0196 f0bd
00000300: 66f4 25be b787 a33d c372 613b 1601 323e
00000310: 930b ba3c bb82 ebbd 9242 7a3d 0863 003e
00000320: 8429 b43d 4ec9 783d 2081 f8bd b4bf 20be
00000330: feba 733d 627c 183d 952d 68bd 4600 7f3d
00000340: d5a1 9d3d a74b 183e 7321 14be 28b9 f3bd
00000350: c814 05be 7d07 89bd b62d b43d 8c21 e73c
00000360: f7ed 80bd 486f dfbc 6755 183e 6af8 a2bd
00000370: 1b4c 34bd f250 c1bd a40a a2bd b7c9 02be
00000380: 4a51 10be 8cb4 f83d 6842 343c 862c 173e
00000390: 2020 21be 0230 d03c 99ee 6dbd 25d7 11be
000003a0: 0692 0cbe cfc3 83bd d43f 17be 7f1e 243e
000003b0: 2b33 26be ec0c f7bd d9f0 cebd 0739 cbbc
000003c0: a830 5f3d e575 c9bc 4c02 c23d d14e a9bc
000003d0: a4bf 013e c21d 4b3d 7cd8 463d 0a8d f3bd
000003e0: bb99 f83a 10dd 303e 59ef dcbd a879 72bd
000003f0: 29b3 d9bd fc05 02be 7613 f5bb 9b44 303e
0.07121602 -0.13717178 -0.14180258 -0.05661017 0.12035462 -0.04870775 -0.0685096 -0.014894527
0.075974986 -0.0716375 0.12853257 0.046690907 -0.00805793 -0.057620876 -0.100703225 -0.0058545126
0.16013221 -0.020647394 -0.07012347 -0.03541094 -0.13977937 0.08524461 -0.19146957 -0.06548476
0.06555142 0.049126238 -0.10813902 0.035183586 0.06893178 0.07004782 0.09821917 -0.030611487
0.033606105 0.15647227 -0.16835603 0.13227004 -0.08984599 -0.16696285 -0.06266625 0.034270655
-0.14321245 0.010238818 -0.13221978 -0.17067958 -0.047006823 0.07510425 0.12862396 -0.00657377
-0.03303059 -0.028785644 -0.15900992 -0.08593072 0.14225133 -0.091008596 0.09602139 0.0777854
-0.12516715 -0.16636933 -0.010485377 0.026130414 -0.083299786 0.05338362 0.009498487 -0.027043566
-0.13328302 -0.0017605338 -0.011144478 0.053075187 -0.100635484 0.12899306 -0.15892677 0.16264658
-0.023298962 -0.12423713 -0.026611488 0.035235893 -0.14738017 -0.18682519 0.1539648 0.03813537
-0.10577924 0.031227855 0.0005282693 0.10244646 0.11061478 -0.07036465 0.07899527 0.105544284
0.009225171 0.13905533 -0.0077110967 -0.0027212726 -0.033085823 -0.16609335 -0.14631279 -0.16644475
0.07550746 -0.042259373 0.12611444 0.06829001 -0.17628817 -0.09216986 0.0868231 0.12609817
-0.048800513 -0.1694936 -0.08949951 -0.20873746 0.13596626 -0.08107624 0.017783934 0.15669975
-0.018740533 0.037090085 0.092243746 0.11616528 0.06795299 0.16897511 0.084648445 -0.10710559
0.044519804 0.019217044 0.111396566 0.0041569853 0.13433376 0.15061663 0.14562318 -0.16976607
-0.042582516 0.25453797 -0.11028713 -0.08974843 0.07922727 -0.03659777 -0.10284452 0.011610719
-0.0892607 0.29446685 0.3217303 0.3309764 0.0773162 0.24613772 -0.049453706 -0.046966173
-0.16421276 -0.048645694 0.299 0.17122254 0.30867004 0.10370662 0.32416567 -0.15974125
0.22534779 -0.053754512 -0.14680535 0.21750978 -0.055023175 0.11797376 0.06423653 0.12937595
-0.041755535 -0.06250057 -0.024978077 0.124420404 0.14729959 0.05430461 0.04007194 0.00064842927
0.0948177 -0.0038822726 -0.099863224 0.07629098 0.16152953 -0.04352549 0.060314648 0.13746646
-0.025526302 0.13372387 -0.062853955 -0.14043479 0.0021902241 0.06960527 -0.14645532 -0.15263654
0.118661456 0.08322232 0.051487476 -0.1521906 -0.07158623 0.056520883 -0.16060157 -0.11747361
-0.16206512 0.0798487 0.0034400679 0.17383227 0.022710597 -0.11499544 0.061098643 0.12537777
0.08796981 0.060738854 -0.12134004 -0.15698129 0.0595045 0.037227996 -0.056684095 0.06225612
0.07696883 0.14872609 -0.14465885 -0.1190055 -0.12996209 -0.066908814 0.08797781 0.028214239
-0.06295388 -0.027274743 0.14876328 -0.079575375 -0.044017892 -0.09439267 -0.07912186 -0.1277226
-0.1409351 0.121438116 0.011002161 0.14763078 -0.15734911 0.025413517 -0.058088873 -0.14242227
-0.13727579 -0.06433832 -0.14770442 0.16027258 -0.16230457 -0.120630115 -0.10104532 -0.024807466
0.05448976 -0.02459235 0.09473094 -0.020667465 0.12670761 0.049588926 0.0485463 -0.118921354
0.0018966714 0.17271829 -0.107878394 -0.05919805 -0.10629875 -0.12697595 -0.0074791266 0.17213671

fc3.bias f4 [16]
00000000: 4e74 7c3d f6a2 943d f06c 653d 1678 f4bd
00000010: adf2 863e b988 62bd bf3e ccbd 6589 cbbd
00000020: 8d7d 373c 807c 09be 9915 f2bd f1d0 e8bc
00000030: ee0f 963d a02c 76bc b5c2 f6bd 209b acbd
0.061634354 0.07257645 0.056012094 -0.11936967 0.26357022 -0.05530617 -0.09972905 -0.09938315
0.011199367 -0.13426399 -0.11820526 -0.028419944 0.07327257 -0.015025288 -0.12048856 -0.08428025

output.weight f4 [1, 16]
00000000: 054c 95bd 202b 613c 6873 b3bd 005c 52be
00000010: 6e2f bc3e 206b 64be ae97 3a3e 60c6 203d
00000020: 06e8 27bd a032 dcbc c0e9 0e3c 3c43 1dbd
00000030: 61b7 3e3e 64cb 66be bb16 dfbd bb72 86bd
-0.0728989 0.013743192 -0.08762246 -0.20542908 0.36754936 -0.2230649 0.18221924 0.039251685
-0.04099276 -0.026879609 0.0087227225 -0.038394198 0.18624641 -0.22538525 -0.10893007 -0.06564852

exp_avg f4 [10, 6]
00000000: 0000 0000 0000 0000 0000 0000 0000 0000
00000010: 0000 0000 0000 0000 0000 0000 0000 0000
00000020: 0000 0000 0000 0000 0000 0000 0000 0000
00000030: 0000 0000 0000 0000 0000 0000 0000 0000
00000040: 0000 0000 0000 0000 0000 0000 0000 0000
00000050: 0000 0000 0000 0000 0000 0000 0000 0000
00000060: 0000 0000 0000 0000 0000 0000 0000 0000
00000070: 0000 0000 0000 0000 0000 0000 0000 0000
00000080: 0000 0000 0000 0000 0000 0000 0000 0000
00000090: 0000 0000 0000 0000 0000 0000 0000 0000
000000a0: 0000 0000 0000 0000 0000 0000 0000 0000
000000b0: 0000 0000 0000 0000 0000 0000 0000 0000
000000c0: 0000 0000 0000 0000 0000 0000 0000 0000
000000d0: 0000 0000 0000 0000 0000 0000 0000 0000
000000e0: 0000 0000 0000 0000 0000 0000 0000 0000
0.0 0.0 0.0 0.0 0.0 0.0 0.0 0.0
0.0 0.0 0.0 0.0 0.0 0.0 0.0 0.0
0.0 0.0 0.0 0.0 0.0 0.0 0.0 0.0
0.0 0.0 0.0 0.0 0.0 0.0 0.0 0.0
0.0 0.0 0.0 0.0 0.0 0.0 0.0 0.0
0.0 0.0 0.0 0.0 0.0 0.0 0.0 0.0
0.0 0.0 0.0 0.0 0.0 0.0 0.0 0.0
0.0 0.0 0.0 0.0

exp_avg_sq f4 [10, 6]
00000000: 0000 0000 0000 0000 0000 0000 0000 0000
00000010: 0000 0000 0000 0000 0000 0000 0000 0000
00000020: 0000 0000 0000 0000 0000 0000 0000 0000
00000030: 0000 0000 0000 0000 0000 0000 0000 0000
00000040: 0000 0000 0000 0000 0000 0000 0000 0000
00000050: 0000 0000 0000 0000 0000 0000 0000 0000
00000060: 0000 0000 0000 0000 0000 0000 0000 0000
00000070: 0000 0000 0000 0000 0000 0000 0000 0000
00000080: 0000 0000 0000 0000 0000 0000 0000 0000
00000090: 0000 0000 0000 0000 0000 0000 0000 0000
000000a0: 0000 0000 0000 0000 0000 0000 0000 0000
000000b0: 0000 0000 0000 0000 0000 0000 0000 0000
000000c0: 0000 0000 0000 0000 0000 0000 0000 0000
000000d0: 0000 0000 0000 0000 0000 0000 0000 0000
000000e0: 0000 0000 0000 0000 0000 0000 0000 0000
0.0 0.0 0.0 0.0 0.0 0.0 0.0 0.0
0.0 0.0 0.0 0.0 0.0 0.0 0.0 0.0
0.0 0.0 0.0 0.0 0.0 0.0 0.0 0.0
0.0 0.0 0.0 0.0 0.0 0.0 0.0 0.0
0.0 0.0 0.0 0.0 0.0 0.0 0.0 0.0
0.0 0.0 0.0 0.0 0.0 0.0 0.0 0.0
0.0 0.0 0.0 0.0 0.0 0.0 0.0 0.0
0.0 0.0 0.0 0.0

exp_avg f4 [10, 10]
00000000: 0000 0000 0000 0000 0000 0000 0000 0000
00000010: 0000 0000 0000 0000 0000 0000 0000 0000
00000020: 0000 0000 0000 0000 0000 0000 0000 0000
00000030: 0000 0000 0000 0000 0000 0000 0000 0000
00000040: 0000 0000 0000 0000 0000 0000 0000 0000
00000050: 0000 0000 0000 0000 0000 0000 0000 0000
00000060: 0000 0000 0000 0000 0000 0000 0000 0000
00000070: 0000 0000 0000 0000 0000 0000 0000 0000
00000080: 0000 0000 0000 0000 0000 0000 0000 0000
00000090: 0000 0000 0000 0000 0000 0000 0000 0000
000000a0: 0000 0000 0000 0000 0000 0000 0000 0000
000000b0: 0000 0000 0000 0000 0000 0000 0000 0000
000000c0: 0000 0000 0000 0000 0000 0000 0000 0000
000000d0: 0000 0000 0000 0000 0000 0000 0000 0000
000000e0: 0000 0000 0000 0000 0000 0000 0000 0000
000000f0: 0000 0000 0000 0000 0000 0000 0000 0000
00000100: 0000 0000 0000 0000 0000 0000 0000 0000
00000110: 0000 0000 0000 0000 0000 0000 0000 0000
00000120: 0000 0000 0000 0000 0000 0000 0000 0000
00000130: 0000 0000 0000 0000 0000 0000 0000 0000
00000140: 0000 0000 0000 0000 0000 0000 0000 0000
00000150: 0000 0000 0000 0000 0000 0000 0000 0000
00000160: 0000 0000 0000 0000 0000 0000 0000 0000
00000170: 0000 0000 0000 0000 0000 0000 0000 0000
00000180: 0000 0000 0000 0000 0000 0000 0000 0000
0.0 0.0 0.0 0.0 0.0 0.0 0.0 0.0
0.0 0.0 0.0 0.0 0.0 0.0 0.0 0.0
0.0 0.0 0.0 0.0 0.0 0.0 0.0 0.0
0.0 0.0 0.0 0.0 0.0 0.0 0.0 0.0
0.0 0.0 0.0 0.0 0.0 0.0 0.0 0.0
0.0 0.0 0.0 0.0 0.0 0.0 0.0 0.0
0.0 0.0 0.0 0.0 0.0 0.0 0.0 0.0
0.0 0.0 0.0 0.0 0.0 0.0 0.0 0.0
0.0 0.0 0.0 0.0 0.0 0.0 0.0 0.0
0.0 0.0 0.0 0.0 0.0 0.0 0.0 0.0
0.0 0.0 0.0 0.0 0.0 0.0 0.0 0.0
0.0 0.0 0.0 0.0 0.0 0.0 0.0 0.0
0.0 0.0 0.0 0.0

exp_avg_sq f4 [10, 10]
00000000: 0000 0000 0000 0000 0000 0000 0000 0000
00000010: 0000 0000 0000 0000 0000 0000 0000 0000
00000020: 0000 0000 0000 0000 0000 0000 0000 0000
00000030: 0000 0000 0000 0000 0000 0000 0000 0000
00000040: 0000 0000 0000 0000 0000 0000 0000 0000
00000050: 0000 0000 0000 0000 0000 0000 0000 0000
00000060: 0000 0000 0000 0000 0000 0000 0000 0000
00000070: 0000 0000 0000 0000 0000 0000 0000 0000
00000080: 0000 0000 0000 0000 0000 0000 0000 0000
00000090: 0000 0000 0000 0000 0000 0000 0000 0000
000000a0: 0000 0000 0000 0000 0000 0000 0000 0000
000000b0: 0000 0000 0000 0000 0000 0000 0000 0000
000000c0: 0000 0000 0000 0000 0000 0000 0000 0000
000000d0: 0000 0000 0000 0000 0000 0000 0000 0000
000000e0: 0000 0000 0000 0000 0000 0000 0000 0000
000000f0: 0000 0000 0000 0000 0000 0000 0000 0000
00000100: 0000 0000 0000 0000 0000 0000 0000 0000
00000110: 0000 0000 0000 0000 0000 0000 0000 0000
00000120: 0000 0000 0000 0000 0000 0000 0000 0000
00000130: 0000 0000 0000 0000 0000 0000 0000 0000
00000140: 0000 0000 0000 0000 0000 0000 0000 0000
00000150: 0000 0000 0000 0000 0000 0000 0000 0000
00000160: 0000 0000 0000 0000 0000 0000 0000 0000
00000170: 0000 0000 0000 0000 0000 0000 0000 0000
00000180: 0000 0000 0000 0000 0000 0000 0000 0000
0.0 0.0 0.0 0.0 0.0 0.0 0.0 0.0
0.0 0.0 0.0 0.0 0.0 0.0 0.0 0.0
0.0 0.0 0.0 0.0 0.0 0.0 0.0 0.0
0.0 0.0 0.0 0.0 0.0 0.0 0.0 0.0
0.0 0.0 0.0 0.0 0.0 0.0 0.0 0.0
0.0 0.0 0.0 0.0 0.0 0.0 0.0 0.0
0.0 0.0 0.0 0.0 0.0 0.0 0.0 0.0
0.0 0.0 0.0 0.0 0.0 0.0 0.0 0.0
0.0 0.0 0.0 0.0 0.0 0.0 0.0 0.0
0.0 0.0 0.0 0.0 0.0 0.0 0.0 0.0
0.0 0.0 0.0 0.0 0.0 0.0 0.0 0.0
0.0 0.0 0.0 0.0 0.0 0.0 0.0 0.0
0.0 0.0 0.0 0.0

exp_avg f4 [10]
00000000: 0000 0000 0000 0000 0000 0000 0000 0000
00000010: 0000 0000 0000 0000 0000 0000 0000 0000
00000020: 0000 0000 0000 0000
0.0 0.0 0.0 0.0 0.0 0.0 0.0 0.0
0.0 0.0

exp_avg_sq f4 [10]
00000000: 0000 0000 0000 0000 0000 0000 0000 0000
00000010: 0000 0000 0000 0000 0000 0000 0000 0000
00000020: 0000 0000 0000 0000
0.0 0.0 0.0 0.0 0.0 0.0 0.0 0.0
0.0 0.0

exp_avg f4 [10]
00000000: 0000 0000 0000 0000 0000 0000 0000 0000
00000010: 0000 0000 0000 0000 0000 0000 0000 0000
00000020: 0000 0000 0000 0000
0.0 0.0 0.0 0.0 0.0 0.0 0.0 0.0
0.0 0.0

exp_avg_sq f4 [10]
00000000: 0000 0000 0000 0000 0000 0000 0000 0000
00000010: 0000 0000 0000 0000 0000 0000 0000 0000
00000020: 0000 0000 0000 0000
0.0 0.0 0.0 0.0 0.0 0.0 0.0 0.0
0.0 0.0

exp_avg f4 [10, 10]
00000000: 0390 22c2 0390 2242 0390 22c2 0390 2242
00000010: 0390 2242 0390 2242 0390 22c2 0390 22c2
00000020: 0390 2242 0390 22c2 7157 b0c2 7157 b042
00000030: 7157 b0c2 7157 b042 7157 b042 7157 b042
00000040: 7157 b0c2 7157 b0c2 7157 b042 7157 b0c2
00000050: 304c 9b41 304c 9bc1 304c 9b41 304c 9bc1
00000060: 304c 9bc1 304c 9bc1 304c 9b41 304c 9b41
00000070: 304c 9bc1 304c 9b41 beb5 88c2 beb5 8842
00000080: beb5 88c2 beb5 8842 beb5 8842 beb5 8842
00000090: beb5 88c2 beb5 88c2 beb5 8842 beb5 88c2
000000a0: d79f ba41 d79f bac1 d79f ba41 d79f bac1
000000b0: d79f bac1 d79f bac1 d79f ba41 d79f ba41
000000c0: d79f bac1 d79f ba41 6e40 a041 6e40 a0c1
000000d0: 6e40 a041 6e40 a0c1 6e40 a0c1 6e40 a0c1
000000e0: 6e40 a041 6e40 a041 6e40 a0c1 6e40 a041
000000f0: 23f2 9241 23f2 92c1 23f2 9241 23f2 92c1
00000100: 23f2 92c1 23f2 92c1 23f2 9241 23f2 9241
00000110: 23f2 92c1 23f2 9241 6d23 e441 6d23 e4c1
00000120: 6d23 e441 6d23 e4c1 6d23 e4c1 6d23 e4c1
00000130: 6d23 e441 6d23 e441 6d23 e4c1 6d23 e441
00000140: 0dc6 98c1 0dc6 9841 0dc6 98c1 0dc6 9841
00000150: 0dc6 9841 0dc6 9841 0dc6 98c1 0dc6 98c1
00000160: 0dc6 9841 0dc6 98c1 b626 5ec2 b626 5e42
00000170: b626 5ec2 b626 5e42 b626 5e42 b626 5e42
00000180: b626 5ec2 b626 5ec2 b626 5e42 b626 5ec2
-40.640636 40.640636 -40.640636 40.640636 40.640636 40.640636 -40.640636 -40.640636
40.640636 -40.640636 -88.170784 88.170784 -88.170784 88.170784 88.170784 88.170784
-88.170784 -88.170784 88.170784 -88.170784 19.4122 -19.4122 19.4122 -19.4122
-19.4122 -19.4122 19.4122 19.4122 -19.4122 19.4122 -68.354965 68.354965
-68.354965 68.354965 68.354965 68.354965 -68.354965 -68.354965 68.354965 -68.354965
23.328047 -23.328047 23.328047 -23.328047 -23.328047 -23.328047 23.328047 23.328047
-23.328047 23.328047 20.03146 -20.03146 20.03146 -20.03146 -20.03146 -20.03146
20.03146 20.03146 -20.03146 20.03146 18.36823 -18.36823 18.36823 -18.36823
-18.36823 -18.36823 18.36823 18.36823 -18.36823 18.36823 28.517298 -28.517298
28.517298 -28.517298 -28.517298 -28.517298 28.517298 28.517298 -28.517298 28.517298
-19.096704 19.096704 -19.096704 19.096704 19.096704 19.096704 -19.096704 -19.096704
19.096704 -19.096704 -55.537804 55.537804 -55.537804 55.537804 55.537804 55.537804
-55.537804 -55.537804 55.537804 -55.537804

exp_avg_sq f4 [10, 10]
00000000: d369 7444 d369 7444 d369 7444 d369 7444
00000010: d369 7444 d369 7444 d369 7444 d369 7444
00000020: d369 7444 d369 7444 a381 7b45 a381 7b45
00000030: a381 7b45 a381 7b45 a381 7b45 a381 7b45
00000040: a381 7b45 a381 7b45 a381 7b45 a381 7b45
00000050: ad7b 1f43 ad7b 1f43 ad7b 1f43 ad7b 1f43
00000060: ad7b 1f43 ad7b 1f43 ad7b 1f43 ad7b 1f43
00000070: ad7b 1f43 ad7b 1f43 fea3 1e45 fea3 1e45
00000080: fea3 1e45 fea3 1e45 fea3 1e45 fea3 1e45
00000090: fea3 1e45 fea3 1e45 fea3 1e45 fea3 1e45
000000a0: 3bae 8b43 3bae 8b43 3bae 8b43 3bae 8b43
000000b0: 3bae 8b43 3bae 8b43 3bae 8b43 3bae 8b43
000000c0: 3bae 8b43 3bae 8b43 2b08 3343 2b08 3343
000000d0: 2b08 3343 2b08 3343 2b08 3343 2b08 3343
000000e0: 2b08 3343 2b08 3343 2b08 3343 2b08 3343
000000f0: 0764 4a43 0764 4a43 0764 4a43 0764 4a43
00000100: 0764 4a43 0764 4a43 0764 4a43 0764 4a43
00000110: 0764 4a43 0764 4a43 88da ac43 88da ac43
00000120: 88da ac43 88da ac43 88da ac43 88da ac43
00000130: 88da ac43 88da ac43 88da ac43 88da ac43
00000140: 45f5 4f43 45f5 4f43 45f5 4f43 45f5 4f43
00000150: 45f5 4f43 45f5 4f43 45f5 4f43 45f5 4f43
00000160: 45f5 4f43 45f5 4f43 95f8 d044 95f8 d044
00000170: 95f8 d044 95f8 d044 95f8 d044 95f8 d044
00000180: 95f8 d044 95f8 d044 95f8 d044 95f8 d044
977.6535 977.6535 977.6535 977.6535 977.6535 977.6535 977.6535 977.6535
977.6535 977.6535 4024.1023 4024.1023 4024.1023 4024.1023 4024.1023 4024.1023
4024.1023 4024.1023 4024.1023 4024.1023 159.48311 159.48311 159.48311 159.48311
159.48311 159.48311 159.48311 159.48311 159.48311 159.48311 2538.2495 2538.2495
2538.2495 2538.2495 2538.2495 2538.2495 2538.2495 2538.2495 2538.2495 2538.2495
279.36118 279.36118 279.36118 279.36118 279.36118 279.36118 279.36118 279.36118
279.36118 279.36118 179.0319 179.0319 179.0319 179.0319 179.0319 179.0319
179.0319 179.0319 179.0319 179.0319 202.39073 202.39073 202.39073 202.39073
202.39073 202.39073 202.39073 202.39073 202.39073 202.39073 345.70728 345.70728
345.70728 345.70728 345.70728 345.70728 345.70728 345.70728 345.70728 345.70728
207.95808 207.95808 207.95808 207.95808 207.95808 207.95808 207.95808 207.95808
207.95808 207.95808 1671.7682 1671.7682 1671.7682 1671.7682 1671.7682 1671.7682
1671.7682 1671.7682 1671.7682 1671.7682

exp_avg f4 [10, 10]
00000000: 80a2 21c2 dd70 20c2 c1db 2142 4ab2 20c2
00000010: 0afc 2142 b5d4 2142 b51e 2242 3235 2142
00000020: b01b 22c2 7c08 21c2 b455 afc2 280a aec2
00000030: cf93 af42 2351 aec2 d4b6 af42 2f8c af42
00000040: 73dc af42 26df ae42 29d9 afc2 a3ae aec2
00000050: 7c69 9a41 8145 9941 2da0 9ac1 0484 9941
00000060: 08bf 9ac1 7799 9ac1 26e0 9ac1 1201 9ac1
00000070: 41dd 9a41 5bd6 9941 d7ed 87c2 d0ec 86c2
00000080: fc1d 8842 d523 87c2 2439 8842 1518 8842
00000090: 4b56 8842 ee91 8742 c153 88c2 536c 87c2
000000a0: e68e b941 0630 b841 a2d0 b9c1 247b b841
000000b0: b1f5 b9c1 95c8 b9c1 7f1d bac1 7011 b9c1
000000c0: 061a ba41 17de b841 9c57 9f41 512a 9e41
000000d0: 0e90 9fc1 d06a 9e41 e2af 9fc1 1e89 9fc1
000000e0: 0fd2 9fc1 ddeb 9ec1 15cf 9f41 c9bf 9e41
000000f0: cb1b 9241 8507 9141 8d4f 92c1 a942 9141
00000100: bc6c 92c1 3249 92c1 138c 92c1 00b9 91c1
00000110: 5789 9241 9490 9141 44d6 e241 5829 e141
00000120: 9f26 e3c1 2a85 e141 ef53 e3c1 be1c e3c1
00000130: 9484 e3c1 e13c e2c1 5680 e341 22fe e141
00000140: ece6 97c1 b2c7 96c1 bc1c 9841 2f05 97c1
00000150: 123b 9841 2016 9841 a75b 9841 3680 9741
00000160: d158 98c1 2f56 97c1 dee1 5cc2 3340 5bc2
00000170: 1b30 5d42 9d99 5bc2 3a5c 5d42 8226 5d42
00000180: 9e8b 5d42 834c 5c42 7a87 5dc2 660f 5cc2
-40.40869 -40.110218 40.464603 -40.17411 40.49613 40.45772 40.529987 40.30195
-40.52704 -40.258286 -87.66739 -87.01984 87.78869 -87.15847 87.857086 87.773796
87.930565 87.43584 -87.92414 -87.34109 19.301506 19.158937 -19.32821 19.18946
-19.343277 -19.324934 -19.359447 -19.250523 19.358034 19.229666 -67.96453 -67.462524
68.05856 -67.569984 68.1116 68.047035 68.16854 67.78502 -68.16358 -67.71157
23.194775 23.023449 -23.226871 23.060127 -23.244967 -23.22294 -23.264402 -23.133514
23.262707 23.108442 19.917778 19.770662 -19.94534 19.802155 -19.96088 -19.941952
-19.977568 -19.865168 19.976114 19.843645 18.26357 18.128672 -18.288843 18.157549
-18.303093 -18.28574 -18.318396 -18.215332 18.31706 18.195595 28.354622 28.145187
-28.393858 28.190022 -28.415983 -28.389034 -28.439735 -28.279726 28.437664 28.249088
-18.987755 -18.847507 19.01403 -18.877531 19.028843 19.010803 19.044752 18.937603
-19.043367 -18.917082 -55.220573 -54.812695 55.296978 -54.900013 55.340065 55.287605
55.386345 55.07472 -55.3823 -55.015038

exp_avg_sq f4 [10, 10]
00000000: f6a4 4a44 7b08 2344 c1cf 3e44 4148 3244
00000010: 89c6 5b44 0aed 3b44 b384 5d44 a90b 3844
00000020: a160 5b44 997a 4044 8ab9 5e45 7a24 4045
00000030: a3c1 5745 f82b 4b45 f96f 6945 3d51 5745
00000040: 216b 6b45 f4a6 4f45 7a11 6a45 7636 5545
00000050: 48c4 1143 4de0 0243 18d9 0f43 d8d9 0743
00000060: f77b 1643 b0f8 0f43 7a9e 1743 6b95 0a43
00000070: 06f9 1643 7ec4 0c43 1281 0a45 5937 e844
00000080: becc 0345 b407 f944 db42 1245 e659 0345
00000090: a8cc 1345 1a2f fe44 92c6 1245 0aca 0345
000000a0: 5002 7a43 8e5d 5643 68a4 6f43 ef7f 6343
000000b0: d776 8243 decd 6f43 9ee8 8343 780e 6743
000000c0: 0230 8343 e968 6e43 8efe 2343 6dbe 1043
000000d0: 9750 1f43 a98b 1743 0f31 2943 aff7 1f43
000000e0: 2aea 2a43 1a96 1943 6843 2a43 7521 1d43
000000f0: 3f58 2543 4ab7 0443 db6b 1c43 4830 1143
00000100: 60c5 3443 9d8b 1943 1ccd 3543 ad83 1643
00000110: 7f0c 3443 4c33 1d43 6d86 8e43 a936 7943
00000120: 6339 9043 fb74 8243 a50d 9a43 5b67 8d43
00000130: 3e66 9943 b079 8a43 29ed 9743 2974 8b43
00000140: 4cdd 2b43 1afe 0b43 3e7a 2343 3a19 1843
00000150: dacd 3a43 5dc9 2043 aacd 3b43 cb59 1d43
00000160: 4926 3a43 58b3 2343 21c0 b444 72f9 9644
00000170: 7322 ac44 fc26 a244 0edd bf44 0826 ab44
00000180: 1aae c144 0de4 a544 6b47 c044 bb16 ac44
810.5775 652.1325 763.24615 713.12897 879.1021 751.70374 886.0734 736.1822
877.5098 769.9156 3563.5962 3074.2798 3452.1023 3250.748 3734.9983 3445.0774
3766.6956 3322.4346 3745.0923 3411.4038 145.76672 130.87617 143.84802 135.85095
150.48424 143.97144 151.61905 138.58366 150.97275 140.76755 2216.067 1857.7296
2108.7964 1992.2407 2340.1785 2101.6187 2364.791 2033.4719 2348.4106 2108.6274
250.00903 214.36545 239.64221 227.49974 260.92844 239.80417 263.81732 231.05652
262.37506 238.4098 163.99435 144.74385 159.3148 151.54555 169.19164 159.96751
170.9147 153.58633 170.2633 157.13069 165.34471 132.71597 156.42131 145.1886
180.771 153.54536 181.80121 150.51436 180.04881 157.20038 285.0502 249.21352
288.44833 260.9139 308.1066 282.80746 306.79877 276.95068 303.8528 278.9075
171.86444 139.99258 163.47751 152.09854 186.80411 160.78658 187.80338 157.35075
186.14955 163.70056 1446.004 1207.7952 1377.0765 1297.2183 1534.908 1369.1885
1549.4407 1327.1266 1538.2318 1376.7103

exp_avg f4 [10]
00000000: 0390 2242 7157 b042 304c 9bc1 bdb5 8842
00000010: d89f bac1 6e40 a0c1 23f2 92c1 6d23 e4c1
00000020: 0dc6 9841 b526 5e42
40.640636 88.170784 -19.4122 68.35496 -23.328049 -20.03146 -18.36823 -28.517298
19.096704 55.5378

exp_avg_sq f4 [10]
00000000: d369 7444 a381 7b45 ab7b 1f43 fea3 1e45
00000010: 3aae 8b43 2c08 3343 0464 4a43 89da ac43
00000020: 45f5 4f43 96f8 d044
977.6535 4024.1023 159.48308 2538.2495 279.36115 179.03192 202.39069 345.7073
207.95808 1671.7683

exp_avg f4 [10]
00000000: 0390 2242 7257 b042 304c 9bc1 beb5 8842
00000010: d89f bac1 6e40 a0c1 24f2 92c1 6d23 e4c1
00000020: 0dc6 9841 b526 5e42
40.640636 88.17079 -19.4122 68.354965 -23.328049 -20.03146 -18.368233 -28.517298
19.096704 55.5378

exp_avg_sq f4 [10]
00000000: d369 7444 a481 7b45 ac7b 1f43 fea3 1e45
00000010: 3aae 8b43 2c08 3343 0664 4a43 88da ac43
00000020: 45f5 4f43 95f8 d044
977.6535 4024.1025 159.4831 2538.2495 279.36115 179.03192 202.39072 345.70728
207.95808 1671.7682

exp_avg f4 [20, 10]
00000000: 6c9b a444 7a64 a344 b5d5 a4c4 06a7 a344
00000010: 86f6 a4c4 9ece a4c4 ce19 a5c4 4f2c a4c4
00000020: b916 a544 bafe a344 2751 5844 90b8 5644
00000030: be9d 58c4 0110 5744 dbc8 58c4 6d94 58c4
00000040: 39f7 58c4 25bf 57c4 2bf3 5844 3e83 5744
00000050: 0000 0000 0000 0000 0000 0000 0000 0000
00000060: 0000 0000 0000 0000 0000 0000 0000 0000
00000070: 0000 0000 0000 0000 182c 8644 a72e 8544
00000080: 9a5b 86c4 e464 8544 5876 86c4 d355 86c4
00000090: 1c93 86c4 88d1 85c4 9890 8644 5fac 8544
000000a0: 0000 0000 0000 0000 0000 0000 0000 0000
000000b0: 0000 0000 0000 0000 0000 0000 0000 0000
000000c0: 0000 0000 0000 0000 a525 2402 5e90 fe01
000000d0: c8b4 fd81 acd7 2702 af2b 4d82 9e10 7b00
000000e0: f1aa 2682 edde 8e81 bcbf 3802 775d 3002
000000f0: 0000 0000 0000 0000 0000 0000 0000 0000
00000100: 0000 0000 0000 0000 0000 0000 0000 0000
00000110: 0000 0000 0000 0000 0000 0000 0000 0000
00000120: 0000 0000 0000 0000 0000 0000 0000 0000
00000130: 0000 0000 0000 0000 0000 0000 0000 0000
00000140: 3965 7844 0590 7644 2dbd 78c4 71f4 7644
00000150: adee 78c4 7bb2 78c4 ec23 79c4 8ebd 77c4
00000160: 451f 7944 c578 7744 0000 0000 0000 0000
00000170: 0000 0000 0000 0000 0000 0000 0000 0000
00000180: 0000 0000 0000 0000 0000 0000 0000 0000
00000190: 0c00 0000 0600 0000 0a00 0080 0d00 0000
000001a0: 1200 0080 0700 0080 1100 0080 0a00 0080
000001b0: 1000 0000 0e00 0000 a26f 8744 cc6f 8644
000001c0: 979f 87c4 8ea6 8644 96ba 87c4 c199 87c4
000001d0: 9ed7 87c4 3714 87c4 13d5 8744 b5ee 8644
000001e0: abaf b044 e761 af44 3cee b0c4 55a9 af44
000001f0: 7411 b1c4 9ee6 b0c4 5337 b1c4 6538 b0c4
00000200: 0434 b144 7807 b044 5f52 8144 175e 8044
00000210: 2a80 81c4 5e92 8044 f199 81c4 977a 81c4
00000220: a9b5 81c4 14fb 80c4 3db3 8144 45d7 8044
00000230: cf64 9f44 b737 9e44 3e9d 9fc4 2778 9e44
00000240: 04bd 9fc4 6196 9fc4 2edf 9fc4 36f9 9ec4
00000250: 33dc 9f44 11cd 9e44 c186 a244 bd53 a144
00000260: 4ec0 a2c4 7395 a144 b3e0 a2c4 4db9 a2c4
00000270: 8a03 a3c4 0c19 a2c4 7e00 a344 0aec a144
00000280: 0000 0000 0000 0000 0000 0000 0000 0000
00000290: 0000 0000 0000 0000 0000 0000 0000 0000
000002a0: 0000 0000 0000 0000 e971 a144 ee40 a044
000002b0: 13ab a1c4 3382 a044 42cb a1c4 1fa4 a1c4
000002c0: deed a1c4 ed04 a1c4 d7ea a144 39d8 a044
000002d0: e7bb 2f44 0070 2e44 1efa 2fc4 08b7 2e44
000002e0: 231d 30c4 8bf2 2fc4 cd42 30c4 4f45 2fc4
000002f0: 823f 3044 a314 2f44 0400 0080 0400 0080
00000300: 0400 0000 0400 0080 0400 0000 0400 0000
00000310: 0400 0000 0400 0000 0400 0080 0400 0080
1316.8569 1307.1399 -1318.6783 1309.2195 -1319.7039 -1318.4568 -1320.8064 -1313.3846
1320.7101 1311.9602 865.268 858.8838 -866.4647 860.25006 -867.13837 -866.31915
-867.86285 -862.98663 867.7995 862.05066 0.0 0.0 0.0 0.0
0.0 0.0 0.0 0.0 0.0 0.0 1073.3779 1065.4579
-1074.8625 1067.1528 -1075.6982 -1074.682 -1076.5972 -1070.5479 1076.5186 1069.3866
0.0 0.0 0.0 0.0 0.0 0.0 0.0 0.0
0.0 0.0 1.205962e-37 9.351202e-38 -9.319693e-38 1.2331117e-37 -1.5073558e-37 1.1301727e-38
-1.2244812e-37 -5.2482445e-38 1.357321e-37 1.2957261e-37 0.0 0.0 0.0 0.0
0.0 0.0 0.0 0.0 0.0 0.0 0.0 0.0
0.0 0.0 0.0 0.0 0.0 0.0 0.0 0.0
993.5816 986.2503 -994.9559 987.8194 -995.7293 -994.78876 -996.5613 -990.9618
996.4886 989.887 0.0 0.0 0.0 0.0 0.0 0.0
0.0 0.0 0.0 0.0 1.7e-44 8e-45 -1.4e-44 1.8e-44
-2.5e-44 -1e-44 -2.4e-44 -1.4e-44 2.2e-44 2e-44 1083.4885 1075.4937
-1084.9872 1077.2048 -1085.8308 -1084.8048 -1086.738 -1080.6317 1086.6586 1079.4596
1413.4896 1403.0594 -1415.4448 1405.2916 -1416.5454 -1415.2068 -1417.7289 -1409.7623
1417.6255 1408.2334 1034.5741 1026.9403 -1036.0051 1028.574 -1036.8107 -1035.8309
-1037.6769 -1031.8462 1037.6012 1030.7272 1275.1503 1265.7411 -1276.9138 1267.7548
-1277.9067 -1276.6993 -1278.9744 -1271.7878 1278.8812 1270.4083 1300.211 1290.6168
-1302.0095 1292.6703 -1303.0219 -1301.7906 -1304.1106 -1296.7827 1304.0154 1295.3762
0.0 0.0 0.0 0.0 0.0 0.0 0.0 0.0
0.0 0.0 1291.5597 1282.029 -1293.3461 1284.0687 -1294.3518 -1293.1288
-1295.4333 -1288.1539 1295.3387 1286.757 702.936 697.75 -703.9081 698.85986
-704.45526 -703.78973 -705.04376 -701.08295 704.9923 700.32245 -6e-45 -6e-45
6e-45 -6e-45 6e-45 6e-45 6e-45 6e-45 -6e-45 -6e-45
