models/4/model-Bakery.pth (torch, 34898 bytes, 45 tensors)

rnn.weight_ih_l0 f4 [10, 6]
000000 7c e8 94 be 53 c9 22 3d 74 36 9b 3e 76 d5 59 bd
       -0.29083622 0.03974278 0.30314982 -0.053182088
000010 94 b5 d5 3d 23 60 e2 3d 3d 4c 2a 3c a4 10 a2 bd
       0.10435024 0.11053493 0.010394153 -0.0791333
000020 61 c0 e4 3d 46 9c 68 3e 4d 7d e6 3d 6b 85 80 be
       0.11169506 0.22715864 0.11254368 -0.2510179
000030 8a 65 73 3e 43 6e 9a 3e 10 7d 9f 3e 2f bd 94 3e
       0.23769203 0.30162248 0.31150103 0.29050586
000040 c4 b1 9f 3c c8 03 81 3e 67 af 1b be 8c 32 09 bd
       0.019493945 0.25198197 -0.1520363 -0.03349547
000050 60 7a 7a 3d 8c f2 7b be c1 66 9b 3e 4f 59 b0 bb
       0.061151862 -0.24604243 0.30351833 -0.00538174
000060 29 97 ff 3d 8d 2b 8f be 96 44 b8 bd b1 1c 5a be
       0.124800034 -0.27962914 -0.08997457 -0.21300007
000070 84 8f cc 3d 9d 7b 56 3d 0c ab 3c 3c a4 9e a6 bd
       0.09988311 0.05236398 0.01151539 -0.08135727
000080 ae bd 58 3d 61 ac 52 3e ef 3f 54 3e 63 1a 5b bd
       0.052915268 0.2057357 0.20727514 -0.05349196
000090 30 fd 04 3d d6 2c 7a 3e 02 4d 94 3d 90 24 40 be
       0.03246802 0.24431166 0.072412506 -0.18763947
0000a0 af 12 93 bd 16 f8 19 be 38 35 03 3e 2b 09 3f be
       -0.07181298 -0.15036044 0.1281327 -0.18655841
0000b0 ff a2 bb 3d aa e5 93 3e 52 2b 37 be 4e d2 ad 3b
       0.091619484 0.28886157 -0.17887619 0.0053046113
0000c0 29 4a 3f be 90 34 8f bd fe a4 36 be 15 8d df 3d
       -0.18680634 -0.069924474 -0.17836377 0.10915581
0000d0 b3 13 13 3d 0c c5 1c 3e a6 5b 4d 3e 45 1f 53 be
       0.03590746 0.15309542 0.20054492 -0.20617397
0000e0 87 0d 87 be 98 d4 36 3e d9 3f a0 be 3f c4 2c 3e
       -0.26377508 0.17854536 -0.31298712 0.16871737

rnn.weight_hh_l0 f4 [10, 10]
000000 d5 18 3c bd 4a fa 5d bc 45 f8 40 bd cf 9d 0e 3e
       -0.04592212 -0.013548443 -0.04711177 0.13927387
000010 a2 ed 07 3e 6d 61 66 bc 32 2d 74 be 52 b2 9c 3e
       0.13274243 -0.014061314 -0.23845366 0.30604798
000020 55 a8 ce bd 59 ac 3a 3e 98 12 1e 3d c6 14 0e be
       -0.100907005 0.18229808 0.03859195 -0.13875112
000030 c2 fa 26 be 72 50 a2 be e5 e5 74 3e ac db 02 3e
       -0.16306594 -0.31702 0.23915823 0.1277911
000040 ce 31 1d be b0 7f 5d be 6c 70 9a be ef ad 6a bd
       -0.1535103 -0.2163074 -0.30163896 -0.057294782
000050 01 da 22 bd 71 f3 32 3c 9f 8d 83 be d0 4b 1d bd
       -0.039758686 0.010922299 -0.25693986 -0.03840238
000060 a4 fe 5c be fe ab 5d be 66 48 a1 3d f9 e0 25 3e
       -0.21581513 -0.21647641 0.07875137 0.16199102
000070 3a 6e 9b 3d ba d7 d8 bd 21 da 33 3d d6 bd e8 bd
       0.075893834 -0.105880216 0.043909196 -0.11364333
000080 27 31 c1 3c 40 8a 88 be e5 11 9c 3d 90 34 c6 bc
       0.023583008 -0.26667976 0.076206006 -0.024194986
000090 ad fe 13 3e 50 72 a1 be a7 51 35 3c 85 c2 1e be
       0.1445262 -0.31532526 0.011066831 -0.15503891
0000a0 25 e4 8a be dc e5 16 3e bf 79 92 3e 45 38 19 3e
       -0.27127185 0.14736122 0.2860851 0.14962871
0000b0 12 a5 46 3e d4 5d 15 3d 1d 70 b6 3d 1a 5c 9a be
       0.19398907 0.036466435 0.08908103 -0.30148393
0000c0 f7 32 8e 3e e1 c9 95 be 1f 6f 85 bd 64 8c a2 bd
       0.27773258 -0.29255584 -0.06515335 -0.07936934
0000d0 2a da 0f 3e b5 eb eb bd 12 49 9e 3e 55 74 9b be
       0.14048067 -0.11519567 0.30915123 -0.30362192
0000e0 32 df 94 3d 93 c1 18 be bc 45 08 be 70 73 7a be
       0.072691336 -0.14917593 -0.13307852 -0.24458098
0000f0 c0 ab 89 be 2b f2 a1 3e 1e 2f e1 bd 47 38 1e 3e
       -0.26888847 0.31630072 -0.10995315 0.15451156
000100 87 96 1a be c5 31 73 be a1 78 a9 3e 96 09 3c 3e
       -0.15096484 -0.23749454 0.33099845 0.18363032
000110 27 98 66 3e 3c 56 06 3c 6d f3 4e be a2 b3 15 3e
       0.22518979 0.008199271 -0.20210047 0.14619306
000120 75 17 42 3e 7f 6a 0f be 1e ec 52 be 3f 42 47 3e
       0.1895426 -0.14005469 -0.20597884 0.19458865
000130 c5 cf 82 3e ac bc 95 3e 13 06 8f 3d 64 cf 93 3e
       0.2554914 0.29245508 0.069835804 0.28869164
000140 ba 0f 80 bd 04 77 00 be 09 10 69 bd 21 ce ec bb
       -0.062529996 -0.12545401 -0.056900058 -0.007226721
000150 1a a3 ec 3d 9c eb cb 3d 35 de 24 bd 4b ff 92 be
       0.11554547 0.09957048 -0.040250976 -0.28710398
000160 c4 31 eb 3d 29 f8 6b be 0a ed 3a be 8c 9a 3e 3e
       0.114841014 -0.23043884 -0.18254486 0.18613642
000170 b0 a9 13 be 74 49 86 be 88 c4 03 3e 9d 7e b5 3d
       -0.144202 -0.26227915 0.1286794 0.0886204
000180 ca 46 92 3e d6 0a a2 3d 93 9c 46 be a1 19 64 be
       0.28569633 0.07912223 -0.19395666 -0.22275402

rnn.bias_ih_l0 f4 [10]
000000 60 ce 87 3e 6e c8 8b bc 70 7f 31 bd cb a5 29 be
       0.2652464 -0.017063346 -0.043334424 -0.16567151
000010 8e 8c 53 be a7 70 00 bd f6 7c 91 bc 42 71 66 be
       -0.20659086 -0.031357434 -0.017759781 -0.22504142
000020 b0 11 1a 3e 4f 01 ab 3d
       0.1504581 0.08349859

rnn.bias_hh_l0 f4 [10]
000000 cd 70 22 be e9 6d 35 be d2 49 db bd a9 d9 3c be
       -0.15863343 -0.17717709 -0.107074395 -0.18442406
000010 ff d0 36 be e2 f1 f3 bd b1 58 4d bd 4b b8 23 3e
       -0.17853163 -0.1191137 -0.05013341 0.15988271
000020 3a 1a 41 be 09 dc 36 3e
       -0.18857661 0.17857374

rnn.weight_ih_l1 f4 [10, 10]
000000 e4 d1 7d be 11 11 95 3e 11 26 e6 3e 79 5e af be
       -0.24787098 0.29114583 0.44950917 -0.34251764
000010 5f 3e f9 3e 2d e9 9a 3e d8 18 13 3d 9d 37 8a 3e
       0.48680398 0.30256024 0.035912365 0.26995555
000020 65 f9 a1 be a8 ea fa 3c 3d a8 80 3c 43 92 78 3e
       -0.31635585 0.030629471 0.015705222 0.24274544
000030 d8 3d dc 3e 1b 1e 09 bf de 7a cb 3e 30 7f ab 3e
       0.43015933 -0.5356156 0.39742178 0.33495474
000040 99 30 7d 3e e6 47 28 3e 0a 97 fb be eb 91 a9 3e
       0.2472557 0.16433677 -0.4913867 0.3311914
000050 5a 86 be 3e 59 09 27 be d1 a5 85 be 83 08 39 bd
       0.37211877 -0.1631216 -0.2610307 -0.045174133
000060 6e 38 b0 be 09 3b 26 be c9 57 bd be 28 ba 4e be
       -0.34418052 -0.16233458 -0.36981037 -0.201882
000070 6a d2 06 3f a3 48 d8 be 2f a6 c7 be bf 88 94 3e
       0.52664816 -0.42242917 -0.38993976 0.2901058
000080 0d 9a 8d 3e 17 31 14 bf 1c d3 72 3d b5 29 00 3f
       0.27656594 -0.57887405 0.05928336 0.5006364
000090 52 90 8c 3e 41 b7 17 3e 67 76 ad be 6d 02 01 3f
       0.27453858 0.14816 -0.33879396 0.50394326
0000a0 eb ec ce be e6 81 c7 3e c1 2d 33 3e 9f c5 d0 be
       -0.4041513 0.38966292 0.17497922 -0.40775773
0000b0 57 50 a9 3e fb 35 d9 3e c3 02 3c 3c e7 60 38 3d
       0.33069107 0.42423996 0.011475268 0.04501429
0000c0 98 59 8e bc 5b 4d ce 3e ae 42 ae 3e de 18 a3 be
       -0.017376706 0.40293393 0.34035248 -0.3185491
0000d0 39 f8 52 3d f9 2a af 3e 9c 89 d7 be 9f 7e 5c be
       0.051506255 0.34212473 -0.42097175 -0.21532677
0000e0 1a 02 3f be 1c 2e f4 be fc de 8a 3d 7b ae 5e be
       -0.18653145 -0.4769143 0.06780812 -0.21746247
0000f0 4e 38 20 3d 52 65 cd be cf db d3 be f1 90 dc bc
       0.039116196 -0.40116364 -0.41378638 -0.026924582
000100 47 f2 d7 be 49 b8 c5 be 89 8b cf be a6 04 37 be
       -0.4217703 -0.3861716 -0.40536144 -0.17872867
000110 5a d0 d1 3d bf d4 56 be 9e 10 63 be de d2 d7 3e
       0.10244818 -0.20979594 -0.22174308 0.42153066
000120 f0 7c 00 bd 1e fc fe be 09 4d a5 3e 63 9c b6 bb
       -0.03136915 -0.49801725 0.32285336 -0.005572842
000130 34 92 d9 3e 17 99 5f 3e 6d 2b bd be f8 02 b5 3e
       0.42494357 0.21835743 -0.36947194 0.35353827
000140 69 1b a8 3e 10 0b 87 be 14 9b be be 18 a5 ad 3d
       0.32833412 -0.26375628 -0.3722769 0.08478755
000150 42 9d fa be 90 ae 90 be 7d 26 d8 bd f6 8d da be
       -0.48948103 -0.2825818 -0.10554216 -0.42686433
000160 95 82 c8 3e b1 b7 32 3d c5 3f 20 be 28 da 9f 3e
       0.39162126 0.043632213 -0.15649326 0.31221128
000170 3b e5 ab 3e 92 0f 07 bf 42 96 15 3f a9 32 69 3e
       0.33573326 -0.52758133 0.584324 0.22773232
000180 45 e9 30 3e 5d 77 35 3e 24 e7 5a be a8 10 b1 3d
       0.17276485 0.17721315 -0.21377236 0.08645755

rnn.weight_hh_l1 f4 [10, 10]
000000 ae 45 a3 3e f7 3b ea 3e 1a 7b 19 bf ff b0 ac 3e
       0.318891 0.45748875 -0.59953463 0.33728787
000010 d7 b8 2a 3e 86 0e c0 be c2 cb bb be 11 c5 d3 3d
       0.16672073 -0.3751108 -0.36678892 0.10340322
000020 e8 bd a7 be a0 0f 85 3e 70 3e 09 3f 51 61 c7 3e
       -0.32762074 0.25988483 0.536109 0.38941434
000030 eb 5b f8 be cb 6c df ba 40 ab 0e 3e aa 5c 17 bf
       -0.48507628 -0.0017045973 0.13932514 -0.5912577
000040 fb e7 d2 3c 9f d5 91 bb 87 50 16 bf bb 7e 18 3f
       0.025745383 -0.0044505144 -0.58716625 0.59568375
000050 f5 dc df be 12 52 85 3d b2 b1 eb 3e e3 8e 0f bf
       -0.43723264 0.06509794 0.46034008 -0.560774
000060 d6 76 01 bf 86 34 aa 3d 3f d6 af 3c 61 dc 00 bf
       -0.50571954 0.08310799 0.021464465 -0.5033627
000070 47 ae f6 3e 06 aa 05 bf 9f bc 9d 3e ff 76 8f 3e
       0.48179838 -0.5221256 0.3080797 0.28020474
000080 b4 ca 06 be 2e 23 15 3f 77 cf b4 3e ea e0 38 be
       -0.13163263 0.58256805 0.35314533 -0.18054548
000090 f5 00 b9 be 2d 50 53 3e 0d d9 7e bd de 13 0f 3f
       -0.36133543 0.20636053 -0.062218715 0.5588969
0000a0 dc dd 9e 3e d4 8d 12 3f 68 f0 d0 be 57 a7 2e 3e
       0.3102864 0.5724766 -0.40808415 0.17056023
0000b0 6d 49 cb 3c d0 cf c8 be 86 25 ab bb 71 37 16 3f
       0.024815286 -0.39221048 -0.005222979 0.58678347
0000c0 3a 5f c8 be e8 75 17 3f 80 cd 47 be cf dd 0d bf
       -0.39135152 0.59164286 -0.19511986 -0.5541658
0000d0 e6 21 53 3e 3e 07 f8 be a8 e7 bb be 9c b4 af 3e
       0.206184 -0.48443025 -0.36700177 0.34317482
0000e0 da ab f8 3e b2 6d fc be 1e 37 ad 3e 3c 8c 5d be
       0.48568612 -0.4930244 0.33831114 -0.21635526
0000f0 73 e3 9d bd 94 a8 a6 be f8 c1 09 3f 21 71 04 bf
       -0.07709398 -0.3255049 0.538116 -0.5173512
000100 73 00 14 bf e0 08 ed 3e 93 f7 32 3e f8 d5 6b bd
       -0.57813185 0.46295834 0.17477255 -0.057577103
000110 42 9e 18 3f 57 f3 04 bf 7d e2 03 3f db ab 0d 3f
       0.5961648 -0.5193381 0.5151747 0.55340356
000120 58 d1 f2 be 3f e6 1e bd d6 dc 5c 3e 8f a6 e9 be
       -0.47425342 -0.0387938 0.21568617 -0.45634887
000130 5a bf fb be b9 43 73 3e a4 9e 7d bc f6 f9 63 3c
       -0.49169427 0.23756303 -0.015479717 0.013914576
000140 98 f3 5a be 16 c4 3c bd 57 72 24 3d 4f b8 d7 bb
       -0.21381986 -0.04608544 0.040148105 -0.0065832506
000150 53 53 13 bf 26 bd ff 3e 50 46 b8 3e a6 58 a1 be
       -0.5754902 0.49948996 0.35991144 -0.31512946
000160 98 c6 9b 3d 69 41 0e bf f8 e5 aa 3e 13 cb 4f 3d
       0.07606238 -0.5556856 0.33378577 0.050730776
000170 66 b0 55 bd ca f8 9c 3e 23 0c 81 3e ac b6 a8 be
       -0.05217018 0.3065856 0.25204572 -0.32951868
000180 28 11 5f be 62 93 7d 3e 32 e6 09 bf ff 6c 8e 3e
       -0.21783888 0.24763253 -0.53866875 0.27817532

rnn.bias_ih_l1 f4 [10]
000000 c1 a7 0d 3f 20 1c a3 3e 76 35 84 be 58 5e 67 3d
       0.553341 0.31857395 -0.25822037 0.056486458
000010 1b c9 90 3d 39 51 ba bd bf 98 03 bf fe 9f 09 3f
       0.07069608 -0.09097523 -0.5140495 0.53759754
000020 0e a1 14 bf 25 44 03 3f
       -0.5805825 0.51275855

rnn.bias_hh_l1 f4 [10]
000000 e4 e1 4e 3d 96 5e df 3e 1b 54 05 bf 8f 0c b5 3e
       0.050508395 0.4362685 -0.5208146 0.35361144
000010 4d dd 5d 3e 44 6f 93 be fe 4b 0d be 18 d1 14 3e
       0.21666451 -0.28795826 -0.1379852 0.14532888
000020 e9 6a 0d bf f8 e7 11 3f
       -0.55241257 0.5699458

fc1.weight f4 [20, 10]
000000 ae 65 16 3f ff 2e 66 3f 06 36 4c bf 51 6c 68 3f
       0.587489 0.8991546 -0.79769933 0.9079028
000010 ac 01 0b 3f 5a fb 58 bf c0 34 56 bf 70 c8 6c 3f
       0.54299426 -0.8475853 -0.8367424 0.92493343
000020 39 b6 c9 be 3b 0e 28 3f 12 09 60 3f 15 12 47 3f
       -0.39396837 0.65646714 0.8751384 0.77761966
000030 3c cf e8 be 7b 87 47 3f 7d 1c 4e 3f 5e 73 62 bf
       -0.45470607 0.779411 0.8051222 -0.88457286
000040 83 90 54 bf 93 1a 61 3f b0 b5 5a bf 6b bd 51 3f
       -0.8303301 0.87931174 -0.85433483 0.81929654
000050 e0 97 df bd 5d a3 f0 bd f3 e1 98 be 72 55 10 be
       -0.1091764 -0.11749909 -0.29859886 -0.14095095
000060 15 0c 37 be f8 14 0a 3d 17 af d1 3d ac 22 cf bd
       -0.17875703 0.033711404 0.10238474 -0.10114035
000070 6c 58 b4 3d f4 c3 53 3d 8f 31 74 3e 69 e7 56 3e
       0.08805928 0.051700547 0.2384703 0.20986713
000080 80 90 f6 3d f6 bd 91 3d 5e 72 18 be a5 40 0a 3e
       0.1203928 0.0711631 -0.14887378 0.13501222
000090 16 56 03 3d 8e b0 da bd 4d 35 12 3e 68 41 61 be
       0.03206452 -0.106782064 0.14278145 -0.21997607
0000a0 47 41 9c 3e 66 7e 52 3f 2f f4 9a be 5e cd 24 3f
       0.30518553 0.8222412 -0.30264422 0.64375865
0000b0 70 82 06 3f 43 15 3c bf 48 65 45 bf 66 54 06 3f
       0.5254278 -0.7346994 -0.7710767 0.5247253
0000c0 b9 45 29 bf f3 8c 27 3f 9a 39 58 3f eb 3c f2 3e
       -0.66122013 0.65449446 0.84462893 0.47312102
0000d0 07 22 11 bf 43 7b 71 3f 14 b8 6c 3f 46 92 1c bf
       -0.56692547 0.9432871 0.9246838 -0.61160696
0000e0 97 cd 28 bf 80 a9 6c 3f 78 24 52 bf 93 71 56 3f
       -0.65938705 0.92446136 -0.82086897 0.8376705
0000f0 5c f7 09 3f 62 c3 72 3f 81 fd 33 bf 0e 61 37 3f
       0.53893065 0.9482938 -0.7030869 0.7163247
000100 f2 6d 33 3f 79 06 26 bf bb b0 ef be 66 3b 6e 3f
       0.7008964 -0.64853626 -0.46814522 0.93059385
000110 4f d2 24 bf f5 cc 52 3f f7 86 ad 3c 12 7a 1d 3e
       -0.64383405 0.8234399 0.02118252 0.15378597
000120 42 b5 1c be a8 24 60 3d 99 8c 14 3e a5 0e 02 3c
       -0.1530352 0.054722458 0.14506759 0.007938062
000130 76 36 f7 bd 07 5f 37 be 61 6f 94 3e 3a a0 30 be
       -0.120709345 -0.17907344 0.28991225 -0.17248622
000140 8c bb 0c 3f b3 4c d8 3e bf 59 37 bf 86 93 35 3f
       0.54973674 0.42246017 -0.71621317 0.7092823
000150 be 04 51 3f 54 cc aa be 58 1c d8 be 9e 05 70 3f
       0.8164786 -0.33359015 -0.42209125 0.9375857
000160 5b 38 1a bf 33 dc 5e 3f a2 8b 46 be 64 d5 00 3e
       -0.6024224 0.8705475 -0.19389203 0.12581402
000170 4e 01 78 3e 1a b9 8b be 4e 7d 94 3e e1 96 46 3e
       0.24219248 -0.2728966 0.2900185 0.19393493
000180 9a fd a2 bd 66 9f 87 3e 14 4d 37 3e 10 61 9e bd
       -0.07958527 0.264888 0.17900497 -0.07733357
000190 0c c0 e1 bd 3a 83 5d bb 9c a3 43 be 78 96 55 be
       -0.11022958 -0.003380014 -0.19105381 -0.2085818
0001a0 cc d9 30 3e 7f d3 76 3e 92 6f 90 3e 6c d4 79 3e
       0.17270583 0.24104117 0.2821012 0.24397439
0001b0 62 32 30 be 8d e1 cb bc f9 8a 19 3f b1 d4 bb 3e
       -0.1720672 -0.024887824 0.5997768 0.36685708
0001c0 3d 7b 55 bf 24 42 5d 3f fd 18 22 3f 43 be 1e bf
       -0.8339117 0.8642905 0.6331938 -0.62009066
0001d0 5b 05 4c bf dc e8 57 3f fc 0b 01 bf 31 9e de 3e
       -0.7969567 0.8433969 -0.5040891 0.43480065
0001e0 6f 16 46 be dc 17 e5 bd a3 e2 fb bc a2 3a b0 3b
       -0.19344495 -0.111861914 -0.030747717 0.0053780833
0001f0 05 83 4b 3e d5 8d 67 3e d0 1d 56 bd 1b 30 29 be
       0.19874199 0.22612698 -0.052274525 -0.16522257
000200 2e 51 84 3e af bb 1e be 78 38 77 3f 1c 28 5e 3f
       0.25843185 -0.15501283 0.9657054 0.8677995
000210 be 13 48 bf 4b cf d1 3e b9 4b d6 3e 11 aa c8 be
       -0.78155124 0.40978464 0.41854647 -0.3919225
000220 1c 52 7a bf d1 57 61 3f 3c 6c 7b bf 3a 43 5d 3f
       -0.9778154 0.8802462 -0.9821203 0.86430705
000230 2c 9d 19 3f 26 93 03 3f 5e 16 4d bf f2 f7 d6 3e
       0.6000545 0.51396406 -0.80112255 0.41986042
000240 1b 14 54 3f f5 64 4d bf b6 05 59 bf 56 39 e3 3e
       0.8284318 -0.80232173 -0.8477434 0.4437968
000250 88 8a 73 bf 4f 25 63 3f 98 1b 2a be 22 45 95 3d
       -0.95133257 0.88728803 -0.16612089 0.07288577
000260 ed 78 91 3e 69 08 dd bd 41 67 a3 3d 8e 31 88 be
       0.28412572 -0.1079262 0.079786785 -0.26600307
000270 a1 6a 31 3e b8 b8 c3 3d 6c 29 8e bc 9e d7 45 3d
       0.17325832 0.09556717 -0.017353736 0.04830133
000280 0b 9d f2 3e 44 3a 0d 3f 1f 16 55 bf a5 e5 3e 3f
       0.4738544 0.5516703 -0.8323688 0.7456916
000290 b4 25 74 3f 87 fa ff be 7a b9 78 bf b8 fb 6b 3f
       0.9537003 -0.49995825 -0.97158015 0.9218097
0002a0 14 65 45 bf 2e ea 71 3f 00 72 38 3f 4e d0 10 3f
       -0.7710736 0.94497955 0.7204895 0.5656785
0002b0 83 cd 37 bf da 03 63 3f 51 ff 03 3f 6e 16 42 bf
       -0.7179796 0.8867775 0.51561457 -0.75815475
0002c0 f8 91 53 bf 85 c1 3c 3f 47 0a 72 bf 45 3d ef 3e
       -0.82644606 0.7373279 -0.9454693 0.46726432
0002d0 83 2d 7f 3e f2 63 4e 3d 66 20 1d 3d 53 c7 07 3e
       0.24919705 0.050388284 0.038360976 0.1325963
0002e0 1b d3 89 be 0d 7b 9f 38 3e eb 42 bb b0 bb ad 3d
       -0.26918873 7.604631e-05 -0.0029742266 0.08483064
0002f0 5f 2f 53 3e a1 47 2e bd 01 8d 86 be e1 40 5e 3e
       0.2062354 -0.04254878 -0.26279452 0.21704437
000300 79 0e a2 3e 6b bc 4a bd e9 fd dd 3b 52 29 85 be
       0.31651667 -0.049496096 0.006774653 -0.26008087
000310 94 30 6a 3e bc d8 09 be 17 d6 1c be f4 64 77 3e
       0.22870094 -0.13461584 -0.15316044 0.24159604

fc1.bias f4 [20]
000000 d5 c2 60 3f 8d c0 1e 3f 1a b7 42 3d 2a 5e 29 be
       0.8779729 0.6201256 0.0475379 -0.16539827
000010 d5 96 08 3f 05 51 38 3f 67 d3 d2 3e 39 33 29 be
       0.5335515 0.71998626 0.41176912 -0.16523446
000020 77 a7 4a 3f b4 6c 94 3d 29 e9 f2 bd e8 19 22 3f
       0.7916178 0.07247296 -0.11860878 0.6332078
000030 86 b5 73 bc b6 ae 5a 3f 09 0e 30 3f ac 30 d1 3d
       -0.0148748215 0.8542284 0.68771416 0.102143615
000040 73 de 48 3f 75 20 5d 3f 40 b0 47 be 03 92 66 3d
       0.7846443 0.8637765 -0.19500828 0.05629159

fc2.weight f4 [32, 20]
000000 ea ea 0b 3f 69 74 48 3f 72 d2 3c be c8 ab d5 bd
       0.54655325 0.7830263 -0.18439654 -0.10433155
000010 10 16 04 3f 49 69 3e 3f 28 aa 3b 3f 91 f8 38 3d
       0.51596165 0.743794 0.7330651 0.045158926
000020 db 14 19 3f 8a 8b 86 3d b3 46 fb 3d 12 eb 50 3f
       0.5979745 0.06569584 0.12269344 0.8160869
000030 b1 ca 64 3e 0e 5d 40 3f 71 52 58 3f 1e d9 8a bd
       0.22342946 0.7514199 0.84500796 -0.06779693
000040 da dc 48 3f 60 e3 11 3f 24 ec f9 b9 aa a0 0f bc
       0.7846199 0.5698757 -0.0004766892 -0.008766333
000050 ed e3 59 3f 33 6b 25 3f 40 cc ce bb 01 bb 30 bd
       0.8511341 0.646167 -0.0063109696 -0.04314709
000060 13 c5 4a 3f 31 7c 45 3f d2 68 34 3f 26 1c 04 be
       0.7920696 0.77142626 0.70472443 -0.12901363
000070 54 5e 0a 3f bc dc 95 3d a3 c5 b5 3d 3f ae 15 3f
       0.54050183 0.07317492 0.08875587 0.58469003
000080 e4 93 0b 3e 6f 1e f6 3e 9c 47 59 3f f9 2b d9 3d
       0.13630635 0.48070094 0.8487489 0.1060409
000090 22 f8 14 3f 1b bc 4f 3f a0 25 2d be da 6c 1f bd
       0.5819112 0.811464 -0.16908884 -0.03892217
0000a0 ab d8 18 3f be 97 de 3e e7 41 0a be 7d dd 18 be
       0.5970561 0.43475145 -0.13501702 -0.14928241
0000b0 f7 41 1e 3f 60 e4 01 3f 80 10 08 3f f8 e2 06 3e
       0.61819404 0.507391 0.53150177 0.13172519
0000c0 6c 34 20 3f 18 8c 54 3e bf 82 d1 bd f3 55 20 3f
       0.6257999 0.20756567 -0.10230016 0.6263115
0000d0 29 31 13 3e 5e 37 06 3f 14 7c 12 3f 16 a5 0b 3e
       0.14374222 0.52428234 0.5722058 0.13637194
0000e0 0a 77 ca 3e 6e 73 ab 3e 57 28 85 bd b2 5c 8f bd
       0.39543945 0.33486503 -0.06501835 -0.07000102
0000f0 c7 71 fc bc 12 86 23 3e 4f 86 36 3e 35 d9 6c 3d
       -0.030815972 0.15969113 0.17824672 0.057824332
000100 f9 52 45 bd dc 35 17 be 01 05 ff 3d 5a dc 2f be
       -0.048174832 -0.1476664 0.12452126 -0.17173901
000110 c6 99 94 bd 1e 6c 83 bd 13 fc 36 be 94 13 2e be
       -0.072558925 -0.06417106 -0.17869596 -0.16999656
000120 ae 36 69 3c 10 e2 bd 3d e3 f3 c1 bd f0 74 22 3d
       0.014234228 0.092716336 -0.09470346 0.0396623
000130 4a 4a 35 be 83 07 df bb 93 b0 41 bd a4 7b 9d 3d
       -0.1770412 -0.0068063154 -0.047287535 0.07689598
000140 56 50 59 3f 14 c7 44 3f b1 8a 90 3d b9 9f 10 be
       0.8488821 0.7686627 0.07057703 -0.1412343
000150 4f 2b ea 3e 95 b0 20 3f 37 7c 65 3f 58 cd 1b 3d
       0.45736167 0.6276944 0.8964266 0.038037628
000160 dc 04 4a 3f c8 89 0f 3d da 2c b3 bd 35 cd 53 3f
       0.78913665 0.035043508 -0.08748789 0.82734996
000170 7a 31 f6 bc 21 8d 3e 3f ca b3 3d 3f 54 b7 09 be
       -0.03005289 0.74434096 0.7410246 -0.1344884
000180 a0 80 4d 3f d1 16 3c 3f e6 b2 1c 3e 6a af 3d be
       0.8027439 0.73472315 0.1530262 -0.18523946
000190 00 99 25 3f 87 9f 30 3f 7a 00 43 be b6 2a 33 be
       0.64686584 0.6899342 -0.1904315 -0.17496762
0001a0 a2 59 23 3f 4a 2b 32 3f f0 1e 3b 3f 43 cf c0 bd
       0.63808644 0.69597304 0.7309408 -0.09414532
0001b0 61 24 f8 3e cc ee c6 3d 1d 87 18 b9 79 e7 0e 3f
       0.48465255 0.09713516 -0.00014546183 0.5582195
0001c0 25 ef eb bd 82 92 c2 3e 6d 8b dd 3e 5c fe 9b bd
       -0.115202226 0.38002402 0.43270436 -0.076168746
0001d0 94 75 38 3f 2e 2e 07 3f 9b e3 65 bb 02 02 1c bd
       0.7205441 0.5280484 -0.003507829 -0.038087852
0001e0 24 d8 2d be 0d ca a9 3d 8c 0d f7 bd 4a 26 0a 3e
       -0.16976982 0.08290491 -0.12063131 0.13491169
0001f0 0b 92 44 3d 96 43 39 be 68 bd d2 3d 99 d7 63 bd
       0.04799084 -0.18092188 0.102900326 -0.05562553
000200 6d 3b d8 bd db ed d3 3d af 16 13 be 7e a9 bf bd
       -0.105582096 0.10348102 -0.14364122 -0.093585
000210 eb 7b 9f 3a 61 12 35 3c 9a 64 8a bd c4 eb ce bd
       0.0012167668 0.011051745 -0.067574695 -0.101035625
000220 c4 fb c6 bd 34 3a ef 3c 89 07 42 3d 11 3d 30 be
       -0.09715989 0.029202558 0.047370467 -0.17210795
000230 10 64 ec bd 93 ae d9 bd 65 53 49 3e 29 2a 2d 3c
       -0.11542523 -0.106290005 0.19660719 0.010569134
000240 8f 09 af 3d 38 78 2a 3d 99 25 57 3d 52 e0 f5 bd
       0.08546745 0.041618556 0.05252609 -0.12005676
000250 ec a7 61 bc 94 1d 3a 3e 7d 13 5a be 79 67 1c be
       -0.013772946 0.18175346 -0.21296497 -0.15273847
000260 4e fc 19 3e 2b 39 6a 3d 9a 7e 4d be ba 06 35 3e
       0.15037653 0.057183426 -0.20067826 0.17678347
000270 0e 38 f4 3d 21 45 19 be 70 1e 19 3d b9 54 93 3d
       0.11924754 -0.14967777 0.037382543 0.07193894
000280 97 c8 32 3f 55 79 57 3f cf dd 4d be 83 33 1e 3e
       0.69837326 0.84169513 -0.20104145 0.15449338
000290 eb 85 0c 3f 70 a7 20 3f 53 b2 02 3f bf 07 aa 3d
       0.5489184 0.6275549 0.5105335 0.08302259
0002a0 88 c2 f0 3e 94 15 0e be 21 56 dc bd a5 cf 38 3f
       0.47023416 -0.13875419 -0.10758615 0.7219184
0002b0 54 18 e3 3d f8 ef 3a 3f 1d 1c 16 3f 8d 5d 67 3d
       0.110886246 0.73022413 0.5863665 0.0564857
0002c0 4f f8 06 3f 38 0e fd 3e 07 7d 65 3e cb 09 51 bc
       0.5272264 0.4942491 0.22410975 -0.0127586825
0002d0 fd 01 8d 3d 81 46 ea bd 17 8f 31 3e 8c f2 41 3b
       0.06885145 -0.11439229 0.1733974 0.0029594032
0002e0 e9 97 4d be df 26 50 be 07 e7 21 3e 2c 25 0c 3d
       -0.2007748 -0.20327328 0.15810786 0.034215137
0002f0 d2 9e bc 3c 0e 75 d5 3d 5b 08 af 3d 4d 98 fc 3d
       0.02302495 0.10422717 0.085465156 0.123337366
000300 65 f3 80 bd e6 bd be 3c a6 c0 4e be bd 9f 11 be
       -0.06296424 0.02328391 -0.20190677 -0.14221092
000310 d2 f3 13 3e 9f ed 11 3e 6d 09 49 be fa 90 46 3d
       0.14448479 0.14250802 -0.19632502 0.048478104
000320 ca fd 34 3d bc 9b 33 3d 94 df c6 bd ce 37 43 3e
       0.044187345 0.04384969 -0.09710613 0.19064257
000330 0f d4 16 bd 33 db 15 be 88 5e 48 be e9 e1 89 3d
       -0.03682333 -0.14634399 -0.19567311 0.06732542
000340 55 c6 61 3c ef 22 1e 3e 7b b4 3c be b8 e5 7e bc
       0.013780196 0.15443014 -0.18428223 -0.015557699
000350 b9 a3 89 bd ce 40 83 bd b8 ae b7 bb bf cc 34 3e
       -0.06720681 -0.06408845 -0.005605545 0.1765623
000360 68 cc 57 3d 35 7c 43 3c 1d 0b cf bd 63 3b 93 3d
       0.05268517 0.011931469 -0.101095416 0.071890615
000370 50 1d 15 3f ac f5 3b 3f a0 27 93 bd 33 79 cf bd
       0.5824785 0.7342174 -0.07185292 -0.10130539
000380 fb 80 00 3f 8c 0d 3b 3f b5 e7 33 3f 59 b0 43 be
       0.5019681 0.73067546 0.7027543 -0.1911024
000390 a3 2b 3f 3f 03 06 31 be 09 ab 36 3e 50 9c e8 3e
       0.7467596 -0.1728745 0.17838682 0.45431757
0003a0 22 1a 05 be 0c ea 0a 3f 0c 9e ce 3e 1e 3c 46 be
       -0.1299825 0.5426338 0.40354955 -0.1935887
0003b0 89 0d 20 3f 1d 76 06 3f 89 15 dd bd 36 16 82 3d
       0.62520653 0.52523977 -0.10795123 0.06351893
0003c0 f8 a2 0b be 93 43 fd 3d ca fa 3e be 38 23 82 3d
       -0.13636386 0.123664044 -0.18650356 0.06354374
0003d0 69 32 3f bd 66 44 5f be 0e d8 03 3e 0b 12 b1 bd
       -0.046678934 -0.21803436 0.12875387 -0.086460195
0003e0 cc 76 55 be dd f8 f7 3d 65 ea 9f bd 1f d6 17 3e
       -0.20846099 0.12108014 -0.07808379 0.14827774
0003f0 01 67 f8 3d 1e 21 62 3a f2 3f 24 be 53 3c 62 3e
       0.121290214 0.00086261507 -0.16040018 0.22093324

fc2.bias f4 [32]
000000 09 84 1a 3f 51 3b dd 3e ee 8f 93 3e a6 f6 84 3c
       0.6035772 0.43209317 0.28820747 0.016230892
000010 bb 70 49 3f 02 fc 28 3f a1 1b 51 3e aa 32 10 be
       0.7868764 0.66009533 0.20420696 -0.14081827
000020 88 48 3b 3f 25 8d 38 be ce 9c 18 3c a8 99 eb 3e
       0.7315755 -0.18022592 0.009314729 0.46015668
000030 0f 25 63 be 74 db 0c be 9e 46 a7 3d c1 36 90 bd
       -0.22182105 -0.1375559 0.08167766 -0.070416935
000040 ce b9 92 bd 7d 44 13 3e d7 f2 a4 3e 63 15 1b 3f
       -0.07164346 0.14381595 0.32216522 0.6057951
000050 d3 fb 2e 3f 28 8e e2 3e 3d 3b 07 be a8 3f 4c be
       0.68353003 0.44249082 -0.13206191 -0.19946158
000060 42 95 65 3b 09 9c bd 3e f8 cf e6 3e bc 4e 55 bd
       0.0035031592 0.37033108 0.45080543 -0.05207704
000070 9f b6 5b 3e d9 e0 0e 3f ec 2d 3f 3f 20 c2 98 3e
       0.21456383 0.5581184 0.74679446 0.29835606

fc3.weight f4 [16, 32]
000000 32 a9 25 3f a5 f0 16 3f 02 94 08 3f 60 f0 14 be
       0.64711297 0.58960944 0.5335084 -0.14544821
000010 0a 40 31 3f bc b4 0f 3f cd 5c 93 3d 5a 63 86 bc
       0.6923834 0.56135154 0.07195435 -0.016404796
000020 65 cc 04 3f 4b 28 f2 bd dd 08 41 bd c7 07 03 3f
       0.5187438 -0.118240915 -0.047127593 0.5118374
000030 20 dd c6 3c 8f 42 cb bd b6 51 05 be c7 9d cd bd
       0.024275362 -0.099248044 -0.13019451 -0.10039859
000040 f5 b2 0e 3e 1c fa af 3c 09 d3 39 3f 3a f0 51 3f
       0.13935454 0.021481566 0.7258764 0.8200718
000050 7f a8 3a 3f c7 b2 0b 3f 41 54 94 bd e0 81 8d bd
       0.72913355 0.5456967 -0.07242633 -0.06909537
000060 33 b7 0a 3e dd fb 14 3f e1 2c 16 3f f1 94 a3 bd
       0.13546447 0.5819681 0.5866223 -0.07987393
000070 c8 5d 12 be bc b0 03 3f 0d 29 3a 3f 5c 79 0b 3f
       -0.14293587 0.5144155 0.7271889 0.54482055
000080 ec d4 1b 3e 51 53 4d 3d 43 92 ce 3c c6 9c 10 be
       0.15217942 0.050128285 0.025216227 -0.14122304
000090 9f de 2c be 7b b3 cf 3d b5 4e 01 3e f9 9a 5e 3d
       -0.16881798 0.10141655 0.1262768 0.054347012
0000a0 4b 2d d8 3d 40 41 0b 3d 54 63 10 3e f6 03 0b be
       0.10555514 0.033997774 0.1410039 -0.1357573
0000b0 2b 4e f6 bd 43 13 1f be 33 d0 15 be c0 ad cc 3d
       -0.12026628 -0.15534692 -0.14630203 0.09994078
0000c0 68 c4 62 bc ea 29 94 bc 32 d0 2c be ba f0 b2 bd
       -0.013840772 -0.018086392 -0.16876295 -0.08737321
0000d0 fa a6 23 bd 7e 3f 48 bd 2a 4b d9 3d 40 0b 2b be
       -0.039954163 -0.048888676 0.106100395 -0.1670351
0000e0 cb 35 18 be b4 5d 40 be 9a 23 94 3d 6e cd 90 3d
       -0.1486427 -0.18785745 0.07233353 0.070704326
0000f0 93 c1 04 3e 57 f8 97 3d 9a e6 f3 3d 3d 75 24 3e
       0.12964468 0.07420414 0.11909218 0.16060348
000100 aa 9a c8 bd ed 76 db bd b2 df 9e bb ab 03 3d 3c
       -0.09795125 -0.10716043 -0.004848444 0.011536519
000110 c9 cd 7f 3d 75 ee 1f 3d 93 e6 aa 3d fe 91 d3 bd
       0.06245211 0.03904577 0.0834476 -0.1033058
000120 75 41 12 3d a9 5b 54 3c 50 34 3c bc 3c 97 c1 3c
       0.035706956 0.012961307 -0.011487082 0.023631684
000130 f4 95 a4 3d 13 88 2b 3e fa 2e d7 3b 5c a3 d5 bd
       0.08036414 0.16751127 0.0065668793 -0.10431549
000140 6b 1a bf 3b 10 88 10 3e 15 29 a7 bc 45 ba 98 3d
       0.0058320067 0.14114404 -0.020405332 0.07457403
000150 19 e2 11 be ea 4a 94 3d d1 98 19 3d 22 2a c5 bd
       -0.14246406 0.07240851 0.037499253 -0.09627177
000160 c9 5c 07 3d f1 e6 85 3d e2 d3 42 bd a8 4f 4b bb
       0.03304747 0.06538189 -0.04756535 -0.003102282
000170 ec 1c d7 bd 91 36 26 be 5e 3a 2c bc d3 48 9b bc
       -0.10503563 -0.16231753 -0.010511963 -0.018955624
000180 9b cf 20 be 1e 3e 05 be e5 fa 1f bd 81 ad fb 3d
       -0.15704195 -0.13011977 -0.03905763 0.122889526
000190 c3 24 c3 bd 54 7c c2 bd 8b d9 e6 3d 22 44 24 be
       -0.09528496 -0.0949637 0.11271962 -0.16041616
0001a0 ee 65 18 bd 66 b3 54 3d 03 1c 15 bd 88 d7 11 3e
       -0.037206583 0.0519289 -0.036403667 0.14242375
0001b0 bd 28 3f 3d 15 f5 8c 3d 65 c5 15 be ae d4 18 3d
       0.04666971 0.06882683 -0.14626081 0.037312202
0001c0 ba e9 34 bd 1a ee de bd cf 2f a4 3d e9 fc 0d bd
       -0.04416821 -0.10885258 0.08016931 -0.034665022
0001d0 ee c1 92 3d c7 e4 62 bd 13 f4 e7 bd 99 03 27 be
       0.071658954 -0.05539396 -0.1132585 -0.16309966
0001e0 2d d0 07 3e 24 6d 14 be 92 cd 02 be 14 ce 74 bd
       0.13263007 -0.14494759 -0.12773731 -0.059766844
0001f0 a0 50 4b 3d f8 65 37 3d 59 84 94 3d 16 ef f1 bd
       0.049637437 0.04477498 0.07251806 -0.1181318
000200 d1 2c 2b be 5e 79 6e bd de af 53 bc 9d b9 b0 bc
       -0.16716315 -0.058221214 -0.012920348 -0.021572882
000210 01 f6 bd bd f1 e6 7a 3d 50 5e 83 3d aa 29 0b 3e
       -0.09275437 0.0612554 0.06414473 0.13590112
000220 01 21 3f 3d 42 e2 09 3e 47 81 c4 3d 2c 22 03 be
       0.046662334 0.13465217 0.0959497 -0.12806004
000230 be 30 ad 3d 44 0b 90 bc 81 62 71 3d 68 c3 02 bc
       0.084565625 -0.017583497 0.05893183 -0.007981159
000240 aa ff 93 3b 4b 5d 9a bd 83 64 bf 3d b5 b8 a2 3d
       0.0045165615 -0.075373255 0.09345343 0.07945386
000250 e3 e8 01 3e 51 4c c1 bd 54 67 e7 3d 56 b9 44 3d
       0.12686495 -0.09438384 0.11299005 0.048028313
000260 e5 d8 20 3e 3e e8 1e bd d2 c3 bd bd e1 4e bf bd
       0.15707739 -0.038795702 -0.092658654 -0.09341217
000270 2d d4 df 3d 1a 75 1a be 74 06 76 3d 6d 7d 1e 3e
       0.10929141 -0.15083733 0.060064748 0.15477534
000280 a8 21 01 be 5e be ac 3c d2 28 66 3d c4 6e bf bd
       -0.12610495 0.021086868 0.056191273 -0.09347299
000290 09 81 61 3d 31 80 b4 3c bf 23 58 3d 16 d0 b5 3d
       0.0550547 0.022033783 0.052768465 0.0887758
0002a0 88 c7 cd bd 9d 9b 33 3e d3 c8 81 ba 51 2d d3 3b
       -0.10047823 0.1753983 -0.0009901769 0.006444611
0002b0 0a 04 de bd 7f be bc bd a2 a2 34 be fc 6b 7d 3b
       -0.10840614 -0.09216022 -0.17640164 0.00386691
0002c0 7d 15 ec bd ab e3 0f bb 46 14 1a bc 51 31 53 bd
       -0.11527536 -0.002195577 -0.009404248 -0.051560704
0002d0 a4 65 f7 bd db 72 b6 3d 99 04 fe bd 8b ea 5a 3d
       -0.12079933 0.08908626 -0.12403221 0.053446334
0002e0 43 a4 97 bd de 3b bc 3c 85 4a 7f 3d dd 05 0f 3e
       -0.07404377 0.022977766 0.062326927 0.1396708
0002f0 9e ca 1f be d8 86 07 be b9 dc 28 be d3 64 83 bd
       -0.15604636 -0.13235033 -0.16490449 -0.06415715
000300 dd df 42 3f 29 7a 2b 3f 5f bb 1b 3f 20 ce a7 bd
       0.7612284 0.66983277 0.6083278 -0.08193612
000310 d7 01 21 3f c6 20 30 3f ac 2e 93 3d 90 a3 1c bd
       0.6289343 0.6880001 0.07186636 -0.038241923
000320 1c 2e 0d 3f 80 8f d6 bd bf 3d c2 bd bb 77 2d 3f
       0.5514848 -0.10476589 -0.094844334 0.6776082
000330 e7 a3 d1 3d 1f e1 b0 3d da f7 27 be 8f bd 05 be
       0.1023634 0.086366884 -0.16403142 -0.13060592
000340 65 3f 7e 3b 05 5a 50 3d ee fa 29 3f cc e6 33 3f
       0.003879511 0.0508671 0.66398513 0.70274043
000350 24 f8 29 3f 8e 1d 42 3f 16 3c df bd 65 b5 13 bd
       0.6639426 0.75826347 -0.10900132 -0.036061663
000360 d0 85 c1 3d d0 0c 41 3f 79 19 34 3f 0a 8e 34 be
       0.09449351 0.75410175 0.7035137 -0.17632309
000370 eb 7a 14 be 3a d2 06 3f d7 9b 3c 3f ae 32 08 3f
       -0.14500014 0.5266453 0.7367529 0.5320233
000380 01 ec 4b 3f a9 08 37 3f 64 9f 0d 3f 72 38 ed 3c
       0.7965699 0.7149759 0.55321336 0.02895758
000390 83 fd 14 3f ce 3e 22 3f 3c 46 b9 3d 7f b7 63 3d
       0.5819933 0.6337708 0.09046599 0.055594917
0003a0 72 f7 45 3f bd 53 44 3e 61 3d ed bd cd 6a 0a 3f
       0.77330697 0.19172569 -0.11583973 0.54069215
0003b0 97 93 b0 3d 4e 93 94 3d ca b0 0d 3d e9 5d 83 bc
       0.086219005 0.07254659 0.034592427 -0.01603599
0003c0 07 4d 0a be c3 2c 19 bd ae 68 eb 3e b8 c0 44 3f
       -0.13505946 -0.037396204 0.45978302 0.76856565
0003d0 47 19 43 3f 2e b9 05 3f 63 93 9a bd 66 32 e2 3d
       0.76210445 0.52235687 -0.07547643 0.11044769
0003e0 54 2b b6 3c c8 e1 4d 3f 29 73 3d 3f c9 3c a9 3b
       0.022237457 0.8042264 0.74003845 0.005164717
0003f0 1e 93 be bd 0f 8c 58 3f 77 2c 49 3f e1 ea 23 3f
       -0.09305404 0.8458871 0.7858347 0.6403027

fc3.bias f4 [16]
000000 cc aa 30 3f fa 54 30 be 84 1f 29 be 6a 27 dc bd
       0.69010615 -0.17219916 -0.16515929 -0.10749705
000010 88 99 a2 bc 42 4a 8f bd 31 0c 35 3f e1 f1 19 3f
       -0.0198486 -0.069965854 0.7072173 0.601347
000020 ef c0 ea 3e 66 b2 2b bd 0e 5f fa 3d 91 73 a6 bc
       0.45850322 -0.04191818 0.122251615 -0.020318778
000030 0b 63 bc 3e 5a 38 84 bd 2d 92 86 3c 5e 37 99 bd
       0.36794314 -0.06456061 0.016427124 -0.074812636

output.weight f4 [1, 16]
000000 49 1f 44 3f 3c f3 3c bd ed fc 76 bd 20 ab 6f bd
       0.7661024 -0.046130404 -0.060299803 -0.058512807
000010 f0 27 5c be c8 2c 4e 3e 90 c2 3b 3f e7 88 4c 3f
       -0.2149961 0.2013427 0.73343754 0.79896396
000020 dd db 53 3f 74 b4 ef 3d 08 ae b0 bd 43 1b 1f be
       0.8275736 0.117043406 -0.08626944 -0.15537743
000030 33 91 42 3f 6f 21 be bd 44 da 53 bd c6 c9 00 be
       0.76002806 -0.09283721 -0.051721826 -0.1257697

exp_avg f4 [10, 6]
000000 00 00 00 00 00 00 00 00 00 00 00 00 00 00 00 00
       0.0 0.0 0.0 0.0
000010 00 00 00 00 00 00 00 00 38 fa 36 b3 60 a7 64 b1
       0.0 0.0 -4.260275e-08 -3.3273508e-09
000020 cc 61 72 b1 2d d3 40 b1 10 71 75 b1 0c e0 9c b1
       -3.5271226e-09 -2.8059717e-09 -3.571646e-09 -4.5656687e-09
000030 00 00 00 00 00 00 00 00 00 00 00 00 00 00 00 00
       0.0 0.0 0.0 0.0
000040 00 00 00 00 00 00 00 00 00 00 00 00 00 00 00 00
       0.0 0.0 0.0 0.0
000050 00 00 00 00 00 00 00 00 00 00 00 00 00 00 00 00
       0.0 0.0 0.0 0.0
000060 00 00 00 00 00 00 00 00 00 00 00 00 00 00 00 00
       0.0 0.0 0.0 0.0
000070 00 00 00 00 00 00 00 00 00 00 00 00 00 00 00 00
       0.0 0.0 0.0 0.0
000080 00 00 00 00 00 00 00 00 00 00 00 00 00 00 00 00
       0.0 0.0 0.0 0.0
000090 51 eb b6 b1 61 51 02 b0 0b da 01 b0 36 e7 10 b0
       -5.3236495e-09 -4.740937e-10 -4.7239784e-10 -5.2715465e-10
0000a0 db cc 16 b0 29 cf 5a b0 00 00 00 00 00 00 00 00
       -5.48608e-10 -7.960233e-10 0.0 0.0
0000b0 00 00 00 00 00 00 00 00 00 00 00 00 00 00 00 00
       0.0 0.0 0.0 0.0
0000c0 00 00 00 00 00 00 00 00 00 00 00 00 00 00 00 00
       0.0 0.0 0.0 0.0
0000d0 00 00 00 00 00 00 00 00 00 00 00 00 00 00 00 00
       0.0 0.0 0.0 0.0
0000e0 00 00 00 00 00 00 00 00 00 00 00 00 00 00 00 00
       0.0 0.0 0.0 0.0

exp_avg_sq f4 [10, 6]
000000 00 00 00 00 00 00 00 00 00 00 00 00 00 00 00 00
       0.0 0.0 0.0 0.0
000010 00 00 00 00 00 00 00 00 97 6b 32 48 25 c3 7b 44
       0.0 0.0 182702.36 1007.04913
000020 cc c1 d7 44 1f d8 8c 44 45 1b c1 44 c3 af ed 44
       1726.0562 1126.7538 1544.8522 1901.4926
000030 00 00 00 00 00 00 00 00 00 00 00 00 00 00 00 00
       0.0 0.0 0.0 0.0
000040 00 00 00 00 00 00 00 00 00 00 00 00 00 00 00 00
       0.0 0.0 0.0 0.0
000050 00 00 00 00 00 00 00 00 00 00 00 00 00 00 00 00
       0.0 0.0 0.0 0.0
000060 00 00 00 00 00 00 00 00 00 00 00 00 00 00 00 00
       0.0 0.0 0.0 0.0
000070 00 00 00 00 00 00 00 00 00 00 00 00 00 00 00 00
       0.0 0.0 0.0 0.0
000080 00 00 00 00 00 00 00 00 00 00 00 00 00 00 00 00
       0.0 0.0 0.0 0.0
000090 8f e2 41 49 34 f9 ba 45 be cd a3 45 b1 ef c4 45
       794152.94 5983.1504 5241.718 6301.9614
0000a0 ab 48 ee 45 a9 c7 42 46 00 00 00 00 00 00 00 00
       7625.0835 12465.915 0.0 0.0
0000b0 00 00 00 00 00 00 00 00 00 00 00 00 00 00 00 00
       0.0 0.0 0.0 0.0
0000c0 00 00 00 00 00 00 00 00 00 00 00 00 00 00 00 00
       0.0 0.0 0.0 0.0
0000d0 00 00 00 00 00 00 00 00 00 00 00 00 00 00 00 00
       0.0 0.0 0.0 0.0
0000e0 00 00 00 00 00 00 00 00 00 00 00 00 00 00 00 00
       0.0 0.0 0.0 0.0

exp_avg f4 [10, 10]
000000 00 00 00 00 00 00 00 00 00 00 00 00 00 00 00 00
       0.0 0.0 0.0 0.0
000010 00 00 00 00 00 00 00 00 00 00 00 00 00 00 00 00
       0.0 0.0 0.0 0.0
000020 00 00 00 00 00 00 00 00 79 3e 3b 2d d6 25 3b ad
       0.0 0.0 1.0643591e-11 -1.0638121e-11
000030 79 3e 3b ad 79 3e 3b 2d 79 3e 3b ad 79 3e 3b ad
       -1.0643591e-11 1.0643591e-11 -1.0643591e-11 -1.0643591e-11
000040 0d 3d 3b ad 79 3e 3b ad 79 3e 3b 2d 79 3e 3b ad
       -1.0643275e-11 -1.0643591e-11 1.0643591e-11 -1.0643591e-11
000050 00 00 00 00 00 00 00 00 00 00 00 00 00 00 00 00
       0.0 0.0 0.0 0.0
000060 00 00 00 00 00 00 00 00 00 00 00 00 00 00 00 00
       0.0 0.0 0.0 0.0
000070 00 00 00 00 00 00 00 00 00 00 00 00 00 00 00 00
       0.0 0.0 0.0 0.0
000080 00 00 00 00 00 00 00 00 00 00 00 00 00 00 00 00
       0.0 0.0 0.0 0.0
000090 00 00 00 00 00 00 00 00 00 00 00 00 00 00 00 00
       0.0 0.0 0.0 0.0
0000a0 00 00 00 00 00 00 00 00 00 00 00 00 00 00 00 00
       0.0 0.0 0.0 0.0
0000b0 00 00 00 00 00 00 00 00 00 00 00 00 00 00 00 00
       0.0 0.0 0.0 0.0
0000c0 00 00 00 00 00 00 00 00 00 00 00 00 00 00 00 00
       0.0 0.0 0.0 0.0
0000d0 00 00 00 00 00 00 00 00 00 00 00 00 00 00 00 00
       0.0 0.0 0.0 0.0
0000e0 00 00 00 00 00 00 00 00 00 00 00 00 00 00 00 00
       0.0 0.0 0.0 0.0
0000f0 45 9d db 2b 45 9d db ab 45 9d db ab 45 9d db 2b
       1.5604537e-12 -1.5604537e-12 -1.5604537e-12 1.5604537e-12
000100 45 9d db ab 45 9d db ab 75 aa db ab 45 9d db ab
       -1.5604537e-12 -1.5604537e-12 -1.5608197e-12 -1.5604537e-12
000110 45 9d db 2b 45 9d db ab 00 00 00 00 00 00 00 00
       1.5604537e-12 -1.5604537e-12 0.0 0.0
000120 00 00 00 00 00 00 00 00 00 00 00 00 00 00 00 00
       0.0 0.0 0.0 0.0
000130 00 00 00 00 00 00 00 00 00 00 00 00 00 00 00 00
       0.0 0.0 0.0 0.0
000140 00 00 00 00 00 00 00 00 00 00 00 00 00 00 00 00
       0.0 0.0 0.0 0.0
000150 00 00 00 00 00 00 00 00 00 00 00 00 00 00 00 00
       0.0 0.0 0.0 0.0
000160 00 00 00 00 00 00 00 00 00 00 00 00 00 00 00 00
       0.0 0.0 0.0 0.0
000170 00 00 00 00 00 00 00 00 00 00 00 00 00 00 00 00
       0.0 0.0 0.0 0.0
000180 00 00 00 00 00 00 00 00 00 00 00 00 00 00 00 00
       0.0 0.0 0.0 0.0

exp_avg_sq f4 [10, 10]
000000 00 00 00 00 00 00 00 00 00 00 00 00 00 00 00 00
       0.0 0.0 0.0 0.0
000010 00 00 00 00 00 00 00 00 00 00 00 00 00 00 00 00
       0.0 0.0 0.0 0.0
000020 00 00 00 00 00 00 00 00 55 5c 43 3c 55 5c 43 3c
       0.0 0.0 0.011923869 0.011923869
000030 55 5c 43 3c 55 5c 43 3c 55 5c 43 3c 55 5c 43 3c
       0.011923869 0.011923869 0.011923869 0.011923869
000040 55 5c 43 3c 55 5c 43 3c 55 5c 43 3c 55 5c 43 3c
       0.011923869 0.011923869 0.011923869 0.011923869
000050 00 00 00 00 00 00 00 00 00 00 00 00 00 00 00 00
       0.0 0.0 0.0 0.0
000060 00 00 00 00 00 00 00 00 00 00 00 00 00 00 00 00
       0.0 0.0 0.0 0.0
000070 00 00 00 00 00 00 00 00 00 00 00 00 00 00 00 00
       0.0 0.0 0.0 0.0
000080 00 00 00 00 00 00 00 00 00 00 00 00 00 00 00 00
       0.0 0.0 0.0 0.0
000090 00 00 00 00 00 00 00 00 00 00 00 00 00 00 00 00
       0.0 0.0 0.0 0.0
0000a0 00 00 00 00 00 00 00 00 00 00 00 00 00 00 00 00
       0.0 0.0 0.0 0.0
0000b0 00 00 00 00 00 00 00 00 00 00 00 00 00 00 00 00
       0.0 0.0 0.0 0.0
0000c0 00 00 00 00 00 00 00 00 00 00 00 00 00 00 00 00
       0.0 0.0 0.0 0.0
0000d0 00 00 00 00 00 00 00 00 00 00 00 00 00 00 00 00
       0.0 0.0 0.0 0.0
0000e0 00 00 00 00 00 00 00 00 00 00 00 00 00 00 00 00
       0.0 0.0 0.0 0.0
0000f0 66 62 48 3d 66 62 48 3d 66 62 48 3d 66 62 48 3d
       0.048921965 0.048921965 0.048921965 0.048921965
000100 66 62 48 3d 66 62 48 3d de 55 48 3d 66 62 48 3d
       0.048921965 0.048921965 0.048910014 0.048921965
000110 66 62 48 3d 66 62 48 3d 00 00 00 00 00 00 00 00
       0.048921965 0.048921965 0.0 0.0
000120 00 00 00 00 00 00 00 00 00 00 00 00 00 00 00 00
       0.0 0.0 0.0 0.0
000130 00 00 00 00 00 00 00 00 00 00 00 00 00 00 00 00
       0.0 0.0 0.0 0.0
000140 00 00 00 00 00 00 00 00 00 00 00 00 00 00 00 00
       0.0 0.0 0.0 0.0
000150 00 00 00 00 00 00 00 00 00 00 00 00 00 00 00 00
       0.0 0.0 0.0 0.0
000160 00 00 00 00 00 00 00 00 00 00 00 00 00 00 00 00
       0.0 0.0 0.0 0.0
000170 00 00 00 00 00 00 00 00 00 00 00 00 00 00 00 00
       0.0 0.0 0.0 0.0
000180 00 00 00 00 00 00 00 00 00 00 00 00 00 00 00 00
       0.0 0.0 0.0 0.0

exp_avg f4 [10]
000000 00 00 00 00 79 3e 3b ad 00 00 00 00 00 00 00 00
       0.0 -1.0643591e-11 0.0 0.0
000010 00 00 00 00 00 00 00 00 45 9d db ab 00 00 00 00
       0.0 0.0 -1.5604537e-12 0.0
000020 00 00 00 00 00 00 00 00
       0.0 0.0

exp_avg_sq f4 [10]
000000 00 00 00 00 55 5c 43 3c 00 00 00 00 00 00 00 00
       0.0 0.011923869 0.0 0.0
000010 00 00 00 00 00 00 00 00 66 62 48 3d 00 00 00 00
       0.0 0.0 0.048921965 0.0
000020 00 00 00 00 00 00 00 00
       0.0 0.0

exp_avg f4 [10]
000000 00 00 00 00 79 3e 3b ad 00 00 00 00 00 00 00 00
       0.0 -1.0643591e-11 0.0 0.0
000010 00 00 00 00 00 00 00 00 45 9d db ab 00 00 00 00
       0.0 0.0 -1.5604537e-12 0.0
000020 00 00 00 00 00 00 00 00
       0.0 0.0

exp_avg_sq f4 [10]
000000 00 00 00 00 55 5c 43 3c 00 00 00 00 00 00 00 00
       0.0 0.011923869 0.0 0.0
000010 00 00 00 00 00 00 00 00 66 62 48 3d 00 00 00 00
       0.0 0.0 0.048921965 0.0
000020 00 00 00 00 00 00 00 00
       0.0 0.0

exp_avg f4 [10, 10]
000000 27 75 0c 3f 27 75 0c bf 27 75 0c bf 27 75 0c 3f
       0.5486626 -0.5486626 -0.5486626 0.5486626
000010 27 75 0c bf 27 75 0c bf 13 72 0c bf 27 75 0c bf
       -0.5486626 -0.5486626 -0.54861563 -0.5486626
000020 27 75 0c 3f 27 75 0c bf d4 40 4f 3e d4 40 4f be
       0.5486626 -0.5486626 0.20239574 -0.20239574
000030 d4 40 4f be d4 40 4f 3e d4 40 4f be d4 40 4f be
       -0.20239574 0.20239574 -0.20239574 -0.20239574
000040 27 36 4f be d4 40 4f be d4 40 4f 3e d4 40 4f be
       -0.20235501 -0.20239574 0.20239574 -0.20239574
000050 43 6c 8c be 43 6c 8c 3e 43 6c 8c 3e 43 6c 8c be
       -0.27426347 0.27426347 0.27426347 -0.27426347
000060 43 6c 8c 3e 43 6c 8c 3e 28 60 8c 3e 43 6c 8c 3e
       0.27426347 0.27426347 0.2741711 0.27426347
000070 43 6c 8c be 43 6c 8c 3e 7b 9d 01 3f 7b 9d 01 bf
       -0.27426347 0.27426347 0.5063092 -0.5063092
000080 7b 9d 01 bf 7b 9d 01 3f 7b 9d 01 bf 7b 9d 01 bf
       -0.5063092 0.5063092 -0.5063092 -0.5063092
000090 eb 95 01 bf 7b 9d 01 bf 7b 9d 01 3f 7b 9d 01 bf
       -0.5061938 -0.5063092 0.5063092 -0.5063092
0000a0 23 c0 96 3f 23 c0 96 bf 23 c0 96 bf 23 c0 96 3f
       1.1777385 -1.1777385 -1.1777385 1.1777385
0000b0 23 c0 96 bf 23 c0 96 bf 21 bd 96 bf 23 c0 96 bf
       -1.1777385 -1.1777385 -1.1776468 -1.1777385
0000c0 23 c0 96 3f 23 c0 96 bf b5 32 2c bf b5 32 2c 3f
       1.1777385 -1.1777385 -0.6726487 0.6726487
0000d0 b5 32 2c 3f b5 32 2c bf b5 32 2c 3f b5 32 2c 3f
       0.6726487 -0.6726487 0.6726487 0.6726487
0000e0 bf 2b 2c 3f b5 32 2c 3f b5 32 2c bf b5 32 2c 3f
       0.6725425 0.6726487 -0.6726487 0.6726487
0000f0 f6 2a a9 be f6 2a a9 3e f6 2a a9 3e f6 2a a9 be
       -0.3304059 0.3304059 0.3304059 -0.3304059
000100 f6 2a a9 3e f6 2a a9 3e ff 19 a9 3e f6 2a a9 3e
       0.3304059 0.3304059 0.33027646 0.3304059
000110 f6 2a a9 be f6 2a a9 3e 64 b5 9b 3f 64 b5 9b bf
       -0.3304059 0.3304059 1.2164731 -1.2164731
000120 64 b5 9b bf 64 b5 9b 3f 64 b5 9b bf 64 b5 9b bf
       -1.2164731 1.2164731 -1.2164731 -1.2164731
000130 74 a4 9b bf 64 b5 9b bf 64 b5 9b 3f 64 b5 9b bf
       -1.2159562 -1.2164731 1.2164731 -1.2164731
000140 d0 75 5f bf d0 75 5f 3f d0 75 5f 3f d0 75 5f bf
       -0.8728914 0.8728914 0.8728914 -0.8728914
000150 d0 75 5f 3f d0 75 5f 3f 47 6f 5f 3f d0 75 5f 3f
       0.8728914 0.8728914 0.8727917 0.8728914
000160 d0 75 5f bf d0 75 5f 3f f9 e9 77 3f f9 e9 77 bf
       -0.8728914 0.8728914 0.9684139 -0.9684139
000170 f9 e9 77 bf f9 e9 77 3f f9 e9 77 bf f9 e9 77 bf
       -0.9684139 0.9684139 -0.9684139 -0.9684139
000180 6f e0 77 bf f9 e9 77 bf f9 e9 77 3f f9 e9 77 bf
       -0.96826833 -0.9684139 0.9684139 -0.9684139

exp_avg_sq f4 [10, 10]
000000 95 a6 d3 40 b4 29 d3 40 95 a6 d3 40 95 a6 d3 40
       6.6140847 6.5988407 6.6140847 6.6140847
000010 95 a6 d3 40 95 a6 d3 40 a6 f3 d2 40 95 a6 d3 40
       6.6140847 6.6140847 6.5922422 6.6140847
000020 95 a6 d3 40 95 a6 d3 40 b2 d3 74 3f 81 58 73 3f
       6.6140847 6.6140847 0.9563552 0.9505692
000030 b2 d3 74 3f b2 d3 74 3f b2 d3 74 3f b2 d3 74 3f
       0.9563552 0.9563552 0.9563552 0.9563552
000040 fe b4 72 3f b2 d3 74 3f b2 d3 74 3f b2 d3 74 3f
       0.9480742 0.9563552 0.9563552 0.9563552
000050 34 3c f3 3f 7c 7e eb 3f 34 3c f3 3f 34 3c f3 3f
       1.9002748 1.8397975 1.9002748 1.9002748
000060 34 3c f3 3f 34 3c f3 3f 40 40 f0 3f 34 3c f3 3f
       1.9002748 1.9002748 1.8769608 1.9002748
000070 34 3c f3 3f 34 3c f3 3f 74 aa c7 40 eb 3f c7 40
       1.9002748 1.9002748 6.2395573 6.2265525
000080 74 aa c7 40 74 aa c7 40 74 aa c7 40 74 aa c7 40
       6.2395573 6.2395573 6.2395573 6.2395573
000090 4d e0 c4 40 74 aa c7 40 74 aa c7 40 74 aa c7 40
       6.1523805 6.2395573 6.2395573 6.2395573
0000a0 fa f5 f6 41 7a 60 f6 41 fa f5 f6 41 fa f5 f6 41
       30.870106 30.797108 30.870106 30.870106
0000b0 fa f5 f6 41 fa f5 f6 41 5b 92 f5 41 fa f5 f6 41
       30.870106 30.870106 30.696463 30.870106
0000c0 fa f5 f6 41 fa f5 f6 41 4f 26 23 41 86 ca 21 41
       30.870106 30.870106 10.196853 10.111944
0000d0 4f 26 23 41 4f 26 23 41 4f 26 23 41 4f 26 23 41
       10.196853 10.196853 10.196853 10.196853
0000e0 ae ab 21 41 4f 26 23 41 4f 26 23 41 4f 26 23 41
       10.104414 10.196853 10.196853 10.196853
0000f0 66 42 3d 40 6b 2e 3c 40 66 42 3d 40 66 42 3d 40
       2.9571776 2.9403331 2.9571776 2.9571776
000100 66 42 3d 40 66 42 3d 40 1f f7 39 40 66 42 3d 40
       2.9571776 2.9571776 2.905708 2.9571776
000110 66 42 3d 40 66 42 3d 40 b7 4f 1c 42 b6 ff 1b 42
       2.9571776 2.9571776 39.077847 38.999718
000120 b7 4f 1c 42 b7 4f 1c 42 b7 4f 1c 42 b7 4f 1c 42
       39.077847 39.077847 39.077847 39.077847
000130 f5 34 16 42 b7 4f 1c 42 b7 4f 1c 42 b7 4f 1c 42
       37.551716 39.077847 39.077847 39.077847
000140 c5 09 8b 41 45 e2 8a 41 c5 09 8b 41 c5 09 8b 41
       17.37977 17.360483 17.37977 17.37977
000150 c5 09 8b 41 c5 09 8b 41 46 1e 8a 41 c5 09 8b 41
       17.37977 17.37977 17.264782 17.37977
000160 c5 09 8b 41 c5 09 8b 41 30 a1 b1 41 1f 65 b1 41
       17.37977 17.37977 22.203705 22.174376
000170 30 a1 b1 41 30 a1 b1 41 30 a1 b1 41 30 a1 b1 41
       22.203705 22.203705 22.203705 22.203705
000180 71 d2 af 41 30 a1 b1 41 30 a1 b1 41 30 a1 b1 41
       21.977755 22.203705 22.203705 22.203705

exp_avg f4 [10, 10]
000000 07 75 0c bf 1b 75 0c bf 18 75 0c 3f 0e 75 0c bf
       -0.5486607 -0.5486619 0.5486617 -0.5486611
000010 e8 74 0c bf 01 75 0c 3f 18 75 0c 3f f0 74 0c bf
       -0.54865885 0.54866034 0.5486617 -0.5486593
000020 fb 74 0c 3f f6 74 0c bf a6 40 4f be c5 40 4f be
       0.54866 -0.5486597 -0.20239505 -0.20239551
000030 bd 40 4f 3e af 40 4f be 77 40 4f be 9b 40 4f 3e
       0.2023954 -0.20239519 -0.20239435 0.20239489
000040 bb 40 4f 3e 81 40 4f be 92 40 4f 3e 8f 40 4f be
       0.20239536 -0.2023945 0.20239475 -0.20239471
000050 24 6c 8c 3e 37 6c 8c 3e 32 6c 8c be 27 6c 8c 3e
       0.27426255 0.2742631 -0.27426296 0.27426264
000060 04 6c 8c 3e 1b 6c 8c be 31 6c 8c be 09 6c 8c 3e
       0.2742616 -0.27426228 -0.27426293 0.27426174
000070 17 6c 8c be 12 6c 8c 3e 5d 9d 01 bf 6f 9d 01 bf
       -0.27426216 0.274262 -0.5063074 -0.5063085
000080 6b 9d 01 3f 62 9d 01 bf 3e 9d 01 bf 57 9d 01 3f
       0.50630826 -0.5063077 -0.5063056 0.50630707
000090 6b 9d 01 3f 46 9d 01 bf 50 9d 01 3f 4c 9d 01 bf
       0.50630826 -0.50630605 0.50630665 -0.5063064
0000a0 00 c0 96 bf 16 c0 96 bf 12 c0 96 3f 07 c0 96 bf
       -1.1777344 -1.177737 1.1777365 -1.1777352
0000b0 de bf 96 bf f9 bf 96 3f 11 c0 96 3f e8 bf 96 bf
       -1.1777303 1.1777335 1.1777364 -1.1777315
0000c0 f2 bf 96 3f ee bf 96 bf 8e 32 2c 3f a8 32 2c 3f
       1.1777327 -1.1777322 0.6726464 0.67264795
0000d0 a2 32 2c bf 94 32 2c 3f 66 32 2c 3f 86 32 2c bf
       -0.6726476 0.67264676 0.672644 -0.6726459
0000e0 a0 32 2c bf 6f 32 2c 3f 7c 32 2c bf 79 32 2c 3f
       -0.6726475 0.67264456 -0.67264533 0.67264515
0000f0 cd 2a a9 3e ea 2a a9 3e e3 2a a9 be d8 2a a9 3e
       0.33040467 0.33040553 -0.33040532 0.330405
000100 a7 2a a9 3e c8 2a a9 be e2 2a a9 be b4 2a a9 3e
       0.33040354 -0.33040452 -0.3304053 0.33040392
000110 bf 2a a9 be bc 2a a9 3e 42 b5 9b bf 58 b5 9b bf
       -0.33040425 0.33040416 -1.216469 -1.2164717
000120 56 b5 9b 3f 48 b5 9b bf 20 b5 9b bf 3a b5 9b 3f
       1.2164714 -1.2164698 -1.216465 1.2164681
000130 52 b5 9b 3f 28 b5 9b bf 34 b5 9b 3f 2f b5 9b bf
       1.216471 -1.216466 1.2164674 -1.2164668
000140 9c 75 5f 3f bc 75 5f 3f b6 75 5f bf a5 75 5f 3f
       0.8728883 0.87289023 -0.8728899 0.87288886
000150 6a 75 5f 3f 91 75 5f bf b4 75 5f bf 73 75 5f 3f
       0.87288535 -0.8728877 -0.87288976 0.8728859
000160 86 75 5f bf 81 75 5f 3f c0 e9 77 bf e3 e9 77 bf
       -0.872887 0.8728867 -0.9684105 -0.9684126
000170 de e9 77 3f cd e9 77 bf 89 e9 77 bf b3 e9 77 3f
       0.9684123 -0.96841127 -0.9684072 0.9684097
000180 de e9 77 3f 98 e9 77 bf a9 e9 77 3f a5 e9 77 bf
       0.9684123 -0.9684081 0.9684091 -0.9684089
