models/8/model-Bakery.pth (torch, 34898 bytes, 45 tensors)

rnn.weight_ih_l0 f4 [10, 6]
0	0xbe29113c	-0.1651048
1	0x3ea1a733	0.31572875
2	0xbce231cf	-0.027611641
3	0xbd5b08a3	-0.053475033
4	0xbe8b2cb7	-0.27182552
5	0xbe915461	-0.28384688
6	0xbd954598	-0.072886646
7	0x3e47c518	0.19508779
8	0xbe18ee01	-0.14934541
9	0x3d0105cb	0.031499665
10	0xbe93fb64	-0.28902733
11	0x3e1e59d4	0.15463954
12	0xbe530df2	-0.20610788
13	0x3dc6ac3c	0.0970082
14	0x3dd1a827	0.10237151
15	0x3db19baf	0.086722724
16	0x3bf0c0cb	0.0073472015
17	0xbea14b1d	-0.3150262
18	0x3d55687f	0.05210161
19	0x3dae0d43	0.08498623
20	0xbe851aa9	-0.25996903
21	0x3dae14f9	0.08500094
22	0xbe71c2aa	-0.23609415
23	0x3e8bdcbc	0.27316844
24	0xbe622332	-0.22083738
25	0xbdc37b99	-0.09545059
26	0x3e671fc2	0.22570708
27	0xbe18ef6e	-0.14935085
28	0xbdd2a69e	-0.10285686
29	0x3e4fe844	0.20303446
30	0x3e4af695	0.19820626
31	0xbe1bbb84	-0.1520825
32	0x3e9813e6	0.2970268
33	0xbdb0e4f6	-0.08637421
34	0xbe76a185	-0.24085052
35	0xbe7656df	-0.24056576
36	0x3def77cc	0.11692771
37	0x3d8b7d0d	0.06810961
38	0xbd07c090	-0.033142626
39	0xbda605ec	-0.08106598
40	0xbe2238ff	-0.15842055
41	0x3ccbfc97	0.024900718
42	0x3cabd8d1	0.02097741
43	0x3dd04ca3	0.10170867
44	0xbe2e251e	-0.17006347
45	0xbdd16661	-0.10224605
46	0x3e6aae3c	0.22918028
47	0x3d240abb	0.040049296
48	0xbdba9b8c	-0.091116995
49	0x3d0845f1	0.033269826
50	0xbd6924ca	-0.05691985
51	0xbe0b59b1	-0.13608433
52	0x3e8771aa	0.26453906
53	0x3e8285f2	0.25492817
54	0xbdff98cd	-0.12480316
55	0xbe5177a7	-0.204558
56	0x3e0c72b6	0.13715634
57	0x3e8e5251	0.27797177
58	0xbb975f80	-0.004619539
59	0x3e259b39	0.16172494

rnn.weight_hh_l0 f4 [10, 10]
0	0x3c380cd4	0.011233527
1	0x3e42f0d5	0.19037183
2	0x3e917870	0.284122
3	0xbe5925cf	-0.21205829
4	0xbe98f2be	-0.29872698
5	0xbde1b041	-0.11019946
6	0x3db9909b	0.090607844
7	0x3e5f4ae9	0.2180592
8	0x3dd181bb	0.10229822
9	0xbe8e46e7	-0.2778847
10	0x3dbb9e37	0.091610365
11	0x3db10c69	0.08644945
12	0xbe7801cf	-0.2421944
13	0xbe7a325d	-0.24433275
14	0xbd11edba	-0.035627104
15	0xbe63b322	-0.22236302
16	0xbe51ea2d	-0.20499487
17	0xbd3cf72e	-0.046134166
18	0xbdb18e52	-0.086697236
19	0xbd78cc39	-0.060741637
20	0x3e921e36	0.28538674
21	0x3c6dd6f8	0.014516585
22	0xbe727eb4	-0.23681146
23	0xbe467a91	-0.19382693
24	0x3d9bb3ae	0.076026306
25	0x3e9a2e15	0.30113283
26	0x3d289e83	0.041166794
27	0xbe134753	-0.14382677
28	0x3e3757e3	0.1790462
29	0x3ca128e4	0.019672818
30	0xbe4a1b08	-0.19736874
31	0xbe3ed646	-0.18636426
32	0xbddfbb0e	-0.1092435
33	0xbdd5cbcb	-0.10439261
34	0x3dd07d6b	0.101801716
35	0x3d35f126	0.04441943
36	0x3e4f372b	0.20235889
37	0xbdfb8fc9	-0.12283284
38	0xbe85788b	-0.2606853
39	0xbe44672d	-0.19179983
40	0x3e9e6980	0.30939865
41	0x3e880934	0.2656952
42	0x3e520506	0.20509729
43	0x3e584a9d	0.21122213
44	0xbc53fa6c	-0.012938123
45	0xbe42335d	-0.18964906
46	0xbe77935e	-0.2417731
47	0x3d2e9f4d	0.04263239
48	0x3d6b1ef3	0.057402562
49	0xbe87f2c7	-0.26552412
50	0xbe4252b5	-0.18976863
51	0xbe0fb000	-0.14031982
52	0xbe6b6467	-0.22987519
53	0x3e632fee	0.22186252
54	0xbd0beff1	-0.034164373
55	0x3cc7d17a	0.024391878
56	0x3da8f376	0.082495615
57	0xbe2fb770	-0.1715982
58	0x3e4d63a5	0.20057543
59	0x3ea0ff4c	0.31444776
60	0x3e4777ff	0.19479369
61	0x3e5ef09c	0.21771473
62	0x3e213192	0.15741566
63	0xbe89bd77	-0.26902363
64	0xbe0ea0a5	-0.13928469
65	0xbe166763	-0.14687876
66	0xbe20126d	-0.15632029
67	0xbd4b4463	-0.049625766
68	0xbd149070	-0.03627056
69	0x3df8fa46	0.12157111
70	0xbc620432	-0.013794946
71	0x3e9a29d4	0.30110037
72	0xbe08f1c5	-0.13373478
73	0xbdaf3356	-0.085547134
74	0xbdcca782	-0.09992887
75	0xbe3e85e0	-0.18605757
76	0xbdbf2e0f	-0.09334957
77	0xbb663800	-0.0035128593
78	0x3e5a7e0f	0.2133715
79	0xbe3b13ce	-0.18269274
80	0xbe17a232	-0.14807966
81	0x3e84cfcf	0.25939795
82	0xbe0b4d3a	-0.13603678
83	0x3e5a6559	0.21327724
84	0x3e5af8d5	0.21383984
85	0xbe86d84b	-0.26336893
86	0xbea7a5cf	-0.3274369
87	0xbe2b774c	-0.16744727
88	0xbd881e99	-0.06646461
89	0x3e5932c8	0.21210778
90	0xbe086ddb	-0.13323157
91	0x3db218c5	0.08696131
92	0x3d0af4ef	0.033924993
93	0x3e8b8002	0.272461
94	0xbe1ad0cc	-0.15118712
95	0x3e977129	0.29578522
96	0xbe8e1170	-0.2774768
97	0x3d2c5920	0.042077184
98	0xbe8a51a2	-0.27015406
99	0x3e4cf962	0.20017007

rnn.bias_ih_l0 f4 [10]
0	0xbdfe3cdf	-0.12413954
1	0xbe71344b	-0.23555104
2	0x3dedd8a1	0.11613584
3	0xbe66122f	-0.22467874
4	0xbde50e13	-0.11184325
5	0x3e5adf45	0.21374233
6	0xbe462e9b	-0.19353716
7	0xbe09c66a	-0.13454595
8	0x3e567d3f	0.20946215
9	0x3e613798	0.21993864

rnn.bias_hh_l0 f4 [10]
0	0xbe7cef5c	-0.24700683
1	0xbd176b98	-0.036967844
2	0x3e95fe19	0.29295424
3	0xbe34e953	-0.17667131
4	0xbde93ebd	-0.113889195
5	0xbe9cb49a	-0.30606538
6	0x3c5b1650	0.013372019
7	0xbd1e6fcf	-0.038680848
8	0x3cfa5890	0.030559808
9	0x3c6edeb4	0.014579464

rnn.weight_ih_l1 f4 [10, 10]
0	0xbe0d0c21	-0.13774158
1	0xbe7c1805	-0.24618538
2	0xbe3295fe	-0.1744003
3	0xbe4cd7c4	-0.20004183
4	0x3e3490c6	0.17633352
5	0x3e6dd96c	0.23227471
6	0x3e7dcde5	0.24785574
7	0x3e119dd6	0.14220366
8	0x3e8ba41e	0.2727365
9	0x3e145a7f	0.14487647
10	0x3b1a5369	0.0023548251
11	0xbe1293ae	-0.14314148
12	0x3df19216	0.11795442
13	0x3c3f1996	0.011663815
14	0x3d85f5a6	0.06540994
15	0xbd7ca60f	-0.061681803
16	0x3e41c6ce	0.18923494
17	0x3e3f9ee2	0.18712953
18	0xbe885321	-0.26625922
19	0xbe565a80	-0.2093296
20	0x3ce5f2ac	0.028069817
21	0x3e8dd9ea	0.27705318
22	0x3e4dde59	0.2010435
23	0x3dcfdd4e	0.101496324
24	0x3eb4ae86	0.352894
25	0xbcbe4cb5	-0.023229936
26	0x3ac95262	0.0015359635
27	0xbec986f2	-0.39360768
28	0xbc89dafe	-0.016828056
29	0x3cadf2fe	0.021234032
30	0xbeb34522	-0.35013682
31	0x3d8aa782	0.06770231
32	0xbea4a0a6	-0.32153815
33	0xbe2fa72e	-0.17153618
34	0xbed379ee	-0.41303962
35	0x3ec64a16	0.38728398
36	0x3e8fe980	0.28107834
37	0x3d4dff19	0.05029211
38	0xbeda182e	-0.42596573
39	0x3c94f788	0.018184438
40	0x3b554162	0.0032540192
41	0xbe00d1c9	-0.12580027
42	0xbdd04d66	-0.101710126
43	0xbeb9e6f8	-0.36309028
44	0xbdf507ab	-0.11964353
45	0xbc9ea5ac	-0.019366108
46	0xbe583267	-0.21112977
47	0x3dd3070e	0.1030408
48	0x3ea0dc7e	0.31418222
49	0x3dd7c86e	0.10536276
50	0x3e6902cf	0.22754978
51	0x3e3c273d	0.18374343
52	0xbe8dae05	-0.2767183
53	0xbd9f56bb	-0.077802144
54	0x3dd1e6b5	0.10249082
55	0x3e857e4a	0.26072913
56	0x3e4db0b5	0.2008694
57	0xbe4cbf5d	-0.19994874
58	0x3e0cc07f	0.13745306
59	0x3cd0a2f5	0.025468329
60	0x3e32fe96	0.1747993
61	0xbe50baee	-0.20383808
62	0xbdcd7af0	-0.10033214
63	0xbe246168	-0.16052783
64	0x3ba97bf7	0.0051722485
65	0x3e866af5	0.26253477
66	0xbdbc8cd6	-0.0920655
67	0x3e8cd665	0.2750732
68	0xbd39f84b	-0.045402806
69	0xbe7f652a	-0.24940935
70	0xbdb35d1f	-0.08757996
71	0x3e2e24ea	0.17006269
72	0x3df81705	0.121137656
73	0x3e923ee1	0.28563598
74	0x3d60d47e	0.05489015
75	0x3cc7541d	0.0243321
76	0x3cf3d46a	0.029764373
77	0xbdaf0d50	-0.08547461
78	0x3dde32b3	0.10849514
79	0x3d19c16c	0.037537977
80	0x3d96534f	0.073401086
81	0x3e0c39d8	0.1369394
82	0x3dea99d6	0.11455123
83	0x3e8525dc	0.26005447
84	0x3c9bdc42	0.019025926
85	0xbe74e255	-0.23914464
86	0xbe2b6685	-0.16738327
87	0x3dead326	0.114660546
88	0x3d111545	0.035420675
89	0xbd9d2c6e	-0.0767449
90	0xbd91a176	-0.07110874
91	0xbc2f80c6	-0.010711854
92	0xbde23cfc	-0.11046788
93	0xbcc3d972	-0.023907397
94	0xbe5cdc37	-0.2156838
95	0x3de5c176	0.1121854
96	0x3eaa9ff6	0.33325166
97	0x3eb097e6	0.3449089
98	0x3db19d7c	0.08672616
99	0xbe1907cd	-0.14944382

rnn.weight_hh_l1 f4 [10, 10]
0	0x3f287d6d	0.65816385
1	0x3f1e3e79	0.61814076
2	0x3d3ad34b	0.04561166
3	0xbec8f3b7	-0.3924844
4	0xbe888681	-0.26665118
5	0xbf798ce3	-0.974806
6	0x3f00b9e1	0.5028363
7	0xbe9b66d6	-0.30351895
8	0xbf47ee93	-0.7809841
9	0xbe9db74e	-0.30803913
10	0x3f174877	0.5909495
11	0x3f2c8bb7	0.6740069
12	0xbd0b81a1	-0.03405917
13	0xbf1f3805	-0.62194854
14	0xbf1a424d	-0.60257417
15	0xbf04e24c	-0.519078
16	0xbdc5598c	-0.0963622
17	0xbe32d1b3	-0.17462806
18	0xbf204707	-0.6260838
19	0xbecb92b0	-0.3976035
20	0x3d843543	0.06455471
21	0x3eb00eed	0.34386387
22	0x3f85b329	1.04453
23	0x3da9885d	0.08277962
24	0xbea6177e	-0.32439798
25	0xbec88908	-0.39167047
26	0x3eb0e7a4	0.34551728
27	0xbf4c7e57	-0.7988028
28	0xbece5806	-0.40301532
29	0x3e948cec	0.29013765
30	0xbe963e20	-0.29344273
31	0xbe314de3	-0.17314868
32	0xbeba3eb9	-0.3637598
33	0x3f2722e0	0.6528759
34	0x3e51babf	0.20481394
35	0x3f0e2cca	0.5553709
36	0xbea4a8ff	-0.32160184
37	0x3e4ce654	0.20009738
38	0x3eab68ff	0.33478543
39	0x3f4b0257	0.79300445
40	0xbee2062c	-0.44145334
41	0xbf23b3a9	-0.63946015
42	0xbc970ce8	-0.018438771
43	0x3f121f96	0.57079446
44	0x3e38b1d0	0.1803658
45	0x3ee146b1	0.43999246
46	0xbeb20a27	-0.3477337
47	0x3c0a9603	0.008458617
48	0x3ef03a96	0.46919698
49	0x3f0d3aa8	0.5516763
50	0xbf1b585a	-0.6068169
51	0xbf4a1ea0	-0.7895298
52	0xbc88cdef	-0.01669976
53	0x3e8b8519	0.27249983
54	0x3f1a10ed	0.60182077
55	0x3f1f3480	0.62189484
56	0xbeceb73a	-0.40374166
57	0x3ea75c1d	0.32687464
58	0x3f0e9079	0.556892
59	0x3d552c00	0.052043915
60	0x3e0b74e4	0.13618809
61	0x3f17eead	0.59348565
62	0x3f47ac74	0.7799752
63	0x3d3075c1	0.04308105
64	0xbe99cf77	-0.30041096
65	0xbec1c7f2	-0.3784786
66	0x3f37f05d	0.7185114
67	0xbec050a6	-0.3756153
68	0xbe5405ab	-0.20705287
69	0x3e9041ce	0.28175205
70	0x3d650fc2	0.05592323
71	0x3d5f21ce	0.054475598
72	0xbf64d84a	-0.8939253
73	0x3e28e032	0.16491774
74	0xbe9802e5	-0.29689708
75	0xbe2c0a90	-0.16800904
76	0xbf62348f	-0.8836145
77	0x3f456d0f	0.77119535
78	0x3e242c74	0.16032583
79	0xbe963e18	-0.2934425
80	0xbf1a96f1	-0.6038657
81	0xbf05ceb9	-0.5226856
82	0xbe5e31ac	-0.21698636
83	0x3f301ea7	0.6879677
84	0x3eac0cec	0.3360361
85	0x3f3aa6e2	0.7291089
86	0xbe53e495	-0.20692666
87	0xbbcf16c2	-0.0063198516
88	0x3edb0369	0.4277604
89	0x3eab9111	0.33509114
90	0xbe040e09	-0.12895979
91	0xbe9ae97c	-0.3025626
92	0xbea2a73b	-0.31768212
93	0x3f6c9f38	0.9243045
94	0x3ef13721	0.47112373
95	0x3da25d16	0.07927911
96	0x3e12fb5f	0.14353703
97	0xbddca8c9	-0.10774381
98	0x3eef1fa1	0.46703818
99	0x3f7f6c14	0.9977429

rnn.bias_ih_l1 f4 [10]
0	0xbdec08c2	-0.11525108
1	0x3ea30490	0.31839418
2	0xbd762cf7	-0.060101476
3	0x3e59ece4	0.21281773
4	0xbed7c4b8	-0.42142272
5	0x3def7f6b	0.11694225
6	0xbe2938ca	-0.1652557
7	0xbe15b825	-0.14621027
8	0xbdc41118	-0.09573573
9	0x3e6dd042	0.23223975

rnn.bias_hh_l1 f4 [10]
0	0x3dedf05a	0.11618109
1	0x3e6519be	0.22373101
2	0xbc848748	-0.016177788
3	0x3e8bfaec	0.27339876
4	0x3c601ae5	0.013678287
5	0xbc05cba7	-0.00816623
6	0xbc882fa0	-0.016624272
7	0xbe0af0af	-0.13568376
8	0xbe588f79	-0.2114848
9	0x3e6ae320	0.22938204

fc1.weight f4 [20, 10]
0	0x3ebf63d6	0.37380856
1	0x3ecf6476	0.40506333
2	0x3f1882e2	0.5957471
3	0xbf13d434	-0.5774567
4	0xbf27ffb9	-0.65624577
5	0xbec855c7	-0.39127943
6	0x3f374228	0.7158532
7	0xbf566562	-0.8374845
8	0xbee998b5	-0.4562432
9	0xbed2ee1f	-0.41197297
10	0xbca3353a	-0.019922841
11	0x3db7698e	0.0895568
12	0xbd528649	-0.051397596
13	0x3df6cdaf	0.1205095
14	0xbdc0f1d2	-0.094211236
15	0x3e3b1ed0	0.18273473
16	0x3e6ef2a2	0.23334745
17	0x3ce5d754	0.028056778
18	0x3d9ea8ea	0.077470616
19	0xbe8730ef	-0.2640452
20	0x3f58b2c7	0.8464779
21	0x3f23a9be	0.6393088
22	0x3ec1faf5	0.37886778
23	0xbef1d8f6	-0.4723584
24	0xbf02b43e	-0.5105628
25	0xbf279870	-0.65466976
26	0x3f28b731	0.6590453
27	0xbf4fcc7d	-0.811714
28	0xbf012422	-0.5044576
29	0xbf2b2465	-0.6685241
30	0x3e86fc71	0.26364473
31	0x3eb68b63	0.3565322
32	0xbdc488a2	-0.09596373
33	0xbe961d6f	-0.2931933
34	0xbe0918b0	-0.13388324
35	0x3c4211bd	0.011845049
36	0xbd5e4a5e	-0.05427014
37	0x3ea3f64b	0.32023844
38	0xbe938ef4	-0.28820002
39	0x3dc0cdb9	0.094142385
40	0x3f4a916d	0.7912815
41	0x3e9984e1	0.2998419
42	0x3f55d65a	0.835302
43	0xbe291245	-0.16510876
44	0xbf3c5f23	-0.7358267
45	0xbf263890	-0.6493006
46	0x3f5d14ad	0.86359674
47	0xbee18738	-0.44048476
48	0xbf49afb2	-0.78783715
49	0xbf028dad	-0.5099743
50	0xbe6649c0	-0.22489071
51	0x3e28e44c	0.16493338
52	0xbe897926	-0.2685024
53	0x3dcf0764	0.101088315
54	0xbdcc3f6d	-0.09973035
55	0x3dfff64e	0.12498151
56	0x3e05edb9	0.13078965
57	0x3ed0f8b3	0.40814742
58	0xbaf46540	-0.0018645898
59	0x3ecfc7b1	0.4058204
60	0xbe6a6317	-0.22889362
61	0x3e93812e	0.28809494
62	0xbe3d58da	-0.18490925
63	0x3c1cdb01	0.009573699
64	0x3d5801e5	0.05273618
65	0xbe8c4b64	-0.27401268
66	0x3da896ee	0.082319126
67	0x3c851c47	0.016248835
68	0x3e592740	0.21206379
69	0xbe75518b	-0.23956887
70	0x3e8414a5	0.25797
71	0xbd8f9483	-0.07010748
72	0xbde45ec8	-0.111508906
73	0xbeaa105c	-0.33215606
74	0x3b1a9297	0.002358591
75	0x3da652f8	0.08121294
76	0x3d1f024c	0.03882055
77	0x3e3c4a29	0.18387665
78	0x3e102be2	0.1407924
79	0xbe804414	-0.2505194
80	0xbf5ac2e1	-0.8545361
81	0xbec593da	-0.38589364
82	0x3f1e3383	0.6179735
83	0x3f49309d	0.78589803
84	0x3f4758d5	0.7786992
85	0x3f1a655d	0.6031092
86	0x3f36c22a	0.7139002
87	0xbe8e8552	-0.2783609
88	0x3f2c711f	0.6736011
89	0x3f095563	0.53645915
90	0x3f1651ec	0.5871875
91	0x3ee2b18c	0.44276083
92	0x3efad309	0.48989132
93	0xbf32bc6d	-0.69818765
94	0xbe5aee6a	-0.2138001
95	0xbf29aa11	-0.66275126
96	0x3f259332	0.6467773
97	0xbf390660	-0.7227535
98	0xbf5d3ffa	-0.86425745
99	0xbe3f1d50	-0.18663526
100	0xbe535453	-0.20637636
101	0x3df85035	0.12124673
102	0xbe701fce	-0.23449633
103	0xbcf0e9b6	-0.029408317
104	0x3d674341	0.056460623
105	0xbe2e98ae	-0.1705043
106	0xbe2f38a0	-0.17111444
107	0x3decd7b5	0.1156458
108	0xbe9ff54e	-0.3124184
109	0x3e0d7b8f	0.13816665
110	0xbf574787	-0.8409352
111	0xbf6d3111	-0.92652994
112	0x3e4d6f78	0.20062053
113	0x3edfb2c6	0.4369108
114	0x3f73b448	0.9519696
115	0x3f330b9f	0.6993961
116	0x3f2837f6	0.6571039
117	0xbddfd3fd	-0.109291054
118	0x3f6f0022	0.9335958
119	0x3edca8fd	0.43097678
120	0x3f35dec4	0.7104304
121	0x3f2d3da9	0.6767221
122	0x3f145fbe	0.5795859
123	0xbe1f397d	-0.15549274
124	0xbf41a568	-0.75643015
125	0xbef8f7ab	-0.48626456
126	0x3f379472	0.71710885
127	0xbf468237	-0.7754244
128	0xbedeca15	-0.4351355
129	0xbf282f2c	-0.6569698
130	0x3d5209f6	0.05127903
131	0x3dcfe851	0.10151733
132	0xbe0c4a1c	-0.13700145
133	0xbe212ec6	-0.15740499
134	0x3d39f3f5	0.04539867
135	0xbd4a47f2	-0.04938502
136	0xbe2643b0	-0.16236758
137	0xbde95736	-0.11393587
138	0x3e27ca9d	0.16385885
139	0x3bd9c0ac	0.0066452827
140	0xbeb3f251	-0.3514581
141	0xbf1f86e3	-0.62315196
142	0x3d82dcf0	0.06389797
143	0x3ed214da	0.41031533
144	0x3e32560f	0.17415641
145	0x3e3eeb15	0.18644364
146	0x3ef6f178	0.482311
147	0xbefd5b39	-0.4948366
148	0x3f2b81c6	0.66994894
149	0x3f4b3247	0.7937359
150	0x3f4392c1	0.76395804
151	0x3f198c7a	0.59979975
152	0x3f3ec27a	0.745155
153	0xbea0f7e3	-0.31439123
154	0xbf0b151f	-0.54329103
155	0xbee18411	-0.4404607
156	0x3f341811	0.7034922
157	0xbf26e0a0	-0.651865
158	0xbf12ba67	-0.5731568
159	0xbecca8a6	-0.3997242
160	0xbdc7976d	-0.09745679
161	0x3e2dc4a7	0.16969548
162	0xbe37bcba	-0.17943087
163	0xbe4f74e5	-0.20259435
164	0xbe1c4f4d	-0.15264626
165	0x3df7061a	0.12061711
166	0x3eceb97b	0.40375885
167	0x3e660519	0.22462882
168	0xbe2bac7f	-0.16765021
169	0x3dccea48	0.10005623
170	0xbf38dd94	-0.722131
171	0xbf62f6b2	-0.8865768
172	0x3f0fd23f	0.56180185
173	0x3f743b65	0.9540313
174	0x3efd3fdf	0.49462792
175	0x3f45ed05	0.7731479
176	0x3e33d0b3	0.17560081
177	0xbf34362f	-0.7039518
178	0x3f05f9d1	0.52334315
179	0x3f1d79b6	0.6151384
180	0x3f1e83a9	0.6191965
181	0x3f2c091a	0.6720139
182	0x3f242b39	0.6412845
183	0xbf1c3c0a	-0.6102911
184	0xbf3de1a1	-0.7417241
185	0xbf0d80c1	-0.5527459
186	0x3eeab171	0.45838502
187	0xbf19fff1	-0.6015616
188	0xbf4a16e2	-0.78941166
189	0xbf2d9715	-0.6780866
190	0xbf39fef2	-0.7265464
191	0xbf23ef03	-0.6403658
192	0x3f20aa02	0.6275941
193	0x3eefbae7	0.46822283
194	0x3f387fe7	0.72070163
195	0x3f185b11	0.59513956
196	0x3ea15e78	0.31517386
197	0xbf00f3a3	-0.5037176
198	0x3f5d09b3	0.86342925
199	0x3f65ce95	0.89768344

fc1.bias f4 [20]
0	0x3f4c5121	0.7981129
1	0xbea2f08c	-0.31824148
2	0x3f35834a	0.70903456
3	0x3d9fac63	0.07796552
4	0x3f2b6707	0.6695408
5	0x3d3636f1	0.04448599
6	0x3ca731f7	0.020409567
7	0xbe5597a0	-0.20858622
8	0x3ec6b75e	0.38811773
9	0x3eb36825	0.35040393
10	0x3c13de8a	0.009025225
11	0x3f026632	0.5093719
12	0x3f2cf4b6	0.675609
13	0xbed440c1	-0.41455653
14	0x3f0d175a	0.55113757
15	0x3f32d427	0.6985497
16	0xbe0f5210	-0.13996148
17	0x3ede79c1	0.43452266
18	0x3f426bf3	0.7594597
19	0x3f1ea7ed	0.61974984

fc2.weight f4 [32, 20]
0	0x3c8f8374	0.017518736
1	0x3e35143d	0.17683502
2	0xbdd9d2cc	-0.106359094
3	0xbe2b093d	-0.16702743
4	0xbdd98bf5	-0.10622398
5	0x3d3ae033	0.04562397
6	0x3d87ae76	0.06625073
7	0xbd915fd1	-0.07098354
8	0xbd871919	-0.06596584
9	0xbe055bca	-0.13023296
10	0x3d6caf38	0.05778429
11	0x3da12fce	0.07870446
12	0xbe526e27	-0.20549832
13	0x3d372d50	0.044720948
14	0xbd190664	-0.03735961
15	0xbe19d089	-0.15020956
16	0xbd705446	-0.05867412
17	0x3dad79d1	0.084705
18	0x3dd930e8	0.10605031
19	0xbe926a28	-0.28596616
20	0x3f239d6e	0.63912094
21	0x3df02c6e	0.11727224
22	0x3ecafbdd	0.3964528
23	0xbc8f9df8	-0.01753138
24	0x3f35a017	0.709474
25	0x3e837692	0.256764
26	0xbdfbe281	-0.122990616
27	0x3d99d6a3	0.07511642
28	0x3f0104a7	0.50397724
29	0x3ec5c3fb	0.38626084
30	0xbd15ff9a	-0.036620714
31	0x3f0667cf	0.5250215
32	0x3f11be91	0.56931406
33	0x3e07cca4	0.13261658
34	0x3edc0dcc	0.42979276
35	0x3f01f1ba	0.5075947
36	0x3d101cb7	0.035183635
37	0x3f1aa7b7	0.6041216
38	0x3eb9e4d9	0.3630741
39	0x3f2afbe1	0.66790587
40	0xbecff917	-0.40619728
41	0xbded8948	-0.1159845
42	0xbf0ffe4f	-0.5624742
43	0x3d9733cb	0.073829256
44	0xbe963a6a	-0.2934144
45	0x3e22ec46	0.15910444
46	0xbdd07514	-0.10178581
47	0xbdc7985f	-0.09745859
48	0x3f3d4332	0.73930657
49	0xbecffa07	-0.40620443
50	0x3dbcc245	0.092167415
51	0x3eeb0c54	0.45907843
52	0xbf3acc97	-0.7296843
53	0xbdac96cc	-0.084272
54	0x3f281352	0.6565448
55	0xbefc9625	-0.493333
56	0x3e5e44fb	0.21706001
57	0x3f07a8d4	0.52991986
58	0xbef51abf	-0.47871968
59	0x3f4c1252	0.79715455
60	0x3f421a6a	0.75821555
61	0xbde42d2d	-0.11141429
62	0x3f207748	0.6268201
63	0x3e8bf83f	0.27337834
64	0x3f0f0881	0.5587235
65	0x3e49aff9	0.19696034
66	0x3dfd086f	0.12355124
67	0xbd92a2d9	-0.07159967
68	0x3f1deb69	0.6168733
69	0x3ef096b5	0.4698998
70	0xbd96846e	-0.07349478
71	0x3f39b575	0.72542506
72	0x3f260d1a	0.6486374
73	0xbdd09618	-0.10184878
74	0x3eae7946	0.340769
75	0x3f455124	0.77076936
76	0xbc69a5be	-0.014260707
77	0x3f4033d1	0.75079066
78	0x3f3a4b42	0.72771084
79	0x3f295723	0.66148585
80	0xbe4638c5	-0.19357593
81	0x3e109a56	0.14121374
82	0x3d2d03ec	0.04224007
83	0x3dd0b304	0.101903945
84	0x3e2b9619	0.16756476
85	0xbd3b6493	-0.045750212
86	0xbdecb2e6	-0.1155756
87	0xbd914734	-0.07093659
88	0xbe023a2e	-0.12717506
89	0xbcb28620	-0.021792471
90	0xbe5bab01	-0.21451952
91	0xbdfbb3b9	-0.12290139
92	0xbe40e399	-0.18836822
93	0x3d30782d	0.04308336
94	0xbe368b33	-0.17826538
95	0x3e06927a	0.13141814
96	0x3dc7ef91	0.097624905
97	0xbc8a806f	-0.016906945
98	0x3d7e17b3	0.06203432
99	0xbe031892	-0.12802342
100	0x3e2b2447	0.16713057
101	0x3e0b5e4c	0.1361019
102	0xbdc8d7cb	-0.09806784
103	0x3d7f2aa7	0.062296536
104	0xbb2578a6	-0.0025248914
105	0x3e09f1a0	0.13471079
106	0xbcb6d70b	-0.022319337
107	0xbd72e029	-0.059295807
108	0xbdd0fc56	-0.10204379
109	0x3d8ee8f0	0.06978023
110	0x3db6beba	0.08923097
111	0xbe40a6ea	-0.18813673
112	0x3e45fb6c	0.19334191
113	0x3d2214e5	0.039570708
114	0x3d774a09	0.06037334
115	0xbe592b94	-0.2120803
116	0xbcc58dcf	-0.024115471
117	0x3e10248e	0.14076445
118	0xbdb274c0	-0.087136745
119	0x3dda78ac	0.106675476
120	0xbec1493d	-0.3775119
121	0x3e51b35f	0.20478581
122	0xbe8c6851	-0.27423337
123	0x3b6b4669	0.0035900122
124	0xbf28e6de	-0.65977275
125	0xbd88c884	-0.0667887
126	0xbdf79ed0	-0.12090838
127	0xbe0d1dd3	-0.13780908
128	0x3f3ef979	0.74599415
129	0xbe9b7bb3	-0.30367813
130	0xbdc47ebb	-0.095944844
131	0x3f4a5b65	0.79045707
132	0xbf3e4166	-0.7431854
133	0xbe0c5c72	-0.1370714
134	0x3f51ff4a	0.82030165
135	0xbf1be7cd	-0.60900575
136	0x3dde3001	0.10849
137	0x3f427472	0.7595893
138	0xbf13f270	-0.57791805
139	0x3f4cc31f	0.7998523
140	0xbf11e3a4	-0.5698798
141	0x3cc067fe	0.023487087
142	0xbf1b7405	-0.60723907
143	0xbdef3c5f	-0.11681437
144	0xbec69505	-0.38785568
145	0xbea6a79d	-0.32549754
146	0x3c827ab3	0.015927648
147	0x3e8131ca	0.252333
148	0x3f11ff3b	0.57030076
149	0xbf1bc0a9	-0.6084085
150	0x3e385ad7	0.18003403
151	0x3f4f034c	0.80864406
152	0xbec7b876	-0.3900792
153	0x3c787d60	0.0151666105
154	0x3f48a990	0.7838373
155	0xbf0ee664	-0.558203
156	0xbdbac100	-0.09118843
157	0x3f15e200	0.58547974
158	0xbf173ec3	-0.5908014
159	0x3f4c1ffa	0.7973629
160	0x3ebdad3c	0.3704623
161	0x3c19ed47	0.00939495
162	0x3f3e58bd	0.74354154
163	0x3de77d02	0.1130314
164	0x3f3f6609	0.7476507
165	0x3e94f3ff	0.29092404
166	0xbd7d8270	-0.061891973
167	0x3e573878	0.21017635
168	0x3f2fdec3	0.6869928
169	0x3ee9a575	0.45634046
170	0x3e14a555	0.14516194
171	0x3f3d4328	0.739306
172	0x3efc49b0	0.4927497
173	0x3e4e00ca	0.20117489
174	0x3eb3df05	0.35131088
175	0x3ecdf6bb	0.40227303
176	0xbd80662d	-0.062694885
177	0x3f14a38b	0.58062047
178	0x3f0345c3	0.5127832
179	0x3f0ccbd1	0.549985
180	0x3f3a1be6	0.7269882
181	0xbd0ef4de	-0.034901492
182	0x3f36d2aa	0.714152
183	0x3e279e80	0.16369057
184	0x3f03d858	0.5150199
185	0x3d88e2e0	0.06683898
186	0x3d9e6754	0.07734552
187	0x3dde3079	0.10849089
188	0x3f08737e	0.5330123
189	0x3f1802fa	0.5937954
190	0xbe397d85	-0.18114288
191	0x3eedde71	0.46458772
192	0x3f3c2fe1	0.7351056
193	0xbcf804ca	-0.030275721
194	0x3eb19197	0.3468139
195	0x3ea5314f	0.32264182
196	0x3dc930cc	0.098237604
197	0x3f0e3739	0.55553013
198	0x3f24c424	0.64361787
199	0x3efb6c92	0.4910627
200	0x3eb2f2e3	0.34950933
201	0x3c457691	0.012052194
202	0x3f3a5cb1	0.72797686
203	0xbc4d92c1	-0.012547196
204	0x3f075f30	0.5287962
205	0x3df2c8c9	0.11854703
206	0x3dfe25ca	0.124095514
207	0x3e2f3089	0.17108358
208	0x3eeff37c	0.4686545
209	0x3f0051e7	0.50124973
210	0x3da046a2	0.07825972
211	0x3f0aa65a	0.5416008
212	0x3ef6e9be	0.48225206
213	0x3e0f7f10	0.14013314
214	0x3eb43cac	0.3520254
215	0x3f1b3830	0.6063261
216	0x3dd61fe2	0.104553
217	0x3ecb3cc3	0.39694795
218	0x3f29da2c	0.6634853
219	0x3ef412d7	0.47670624
220	0x3e44f188	0.19232762
221	0xbdab3662	-0.08359982
222	0xbdb0e276	-0.08636944
223	0x3d0d711d	0.0345317
224	0x3c28441b	0.010270144
225	0x3e0c1a5b	0.13681929
226	0xbe2a2753	-0.16616563
227	0xbdd02e26	-0.10165052
228	0x3d78292b	0.060586136
229	0xbe1fa5b3	-0.15590553
230	0xbd6b4b75	-0.05744501
231	0x3d24abd0	0.040202916
232	0xbe0fdff7	-0.1405028
233	0x3e1d8be4	0.15385395
234	0xbe89753d	-0.26847258
235	0x3e6969e7	0.22794305
236	0x3bc28a24	0.005936878
237	0xbe0944f7	-0.13405214
238	0xbe29970f	-0.1656153
239	0x3d0acb42	0.033885248
240	0xbdba4654	-0.09095445
241	0xbe14037e	-0.14454457
242	0xbe10a899	-0.14126815
243	0x3cf4b87a	0.029873122
244	0x3e03b4ff	0.12862013
245	0x3d9f9349	0.07791764
246	0x3cd25f40	0.025680184
247	0xbdf74259	-0.12073202
248	0xbcefbb83	-0.029264217
249	0x3e1653aa	0.14680353
250	0x3d0548aa	0.03254
251	0xbe0c583f	-0.13705538
252	0xbd11932d	-0.03554075
253	0x3e42967b	0.19002716
254	0xbdc3cc62	-0.09560467
255	0xbe3c58f3	-0.18393306

fc2.bias f4 [32]
0	0x3cb869e9	0.02251144
1	0x3f2e8ece	0.6818665
2	0x3ef92369	0.48659828
3	0x3f4dde87	0.80417675
4	0xbe432068	-0.19055331
5	0xbe3afb71	-0.1825998
6	0x3f06a481	0.52594763
7	0x3ec11362	0.377101
8	0x3f578958	0.84193945
9	0x3f1c9a4e	0.6117295
10	0x3f5b0a3b	0.85562485
11	0xbe93c492	-0.2886091
12	0xbe29ade9	-0.16570248
13	0x3f2e2a08	0.68032885
14	0x3f7a9f1d	0.9789904
15	0x3f7e40ed	0.9931782
16	0x3f655809	0.89587456
17	0x3e03261d	0.12807508
18	0x3f57f1b4	0.84353185
19	0x3ecf5fe2	0.4050284
20	0xbe6aaa37	-0.22916494
21	0xbd2110b2	-0.039322563
22	0xbe2280c0	-0.15869427
23	0x3f2082da	0.62699664
24	0x3f4fbc9a	0.8114716
25	0xbd0d7d35	-0.034543235
26	0x3f4c1c0e	0.7973031
27	0x3e826850	0.2547021
28	0x3ee75903	0.45185098
29	0x3ef89774	0.4855305
30	0x3f1a8c9d	0.6037081
31	0x3f574370	0.84087276

fc3.weight f4 [16, 32]
0	0x3d798e09	0.06092647
1	0x3e220b83	0.15824704
2	0xbdb341c5	-0.08752779
3	0xbd4799b3	-0.048730563
4	0xbe2ca3bf	-0.16859339
5	0xbe346e20	-0.17620134
6	0xbdcd3839	-0.10020489
7	0xbdb5a2e3	-0.08868959
8	0xbc7a522b	-0.015278379
9	0xbda722ec	-0.08160958
10	0xbc506ba0	-0.012720972
11	0x3da058cf	0.07829439
12	0x3d92de9a	0.07171364
13	0xbe33d42e	-0.17561409
14	0x3d987a5f	0.074452154
15	0x3d15f671	0.036611978
16	0xbdefd319	-0.117101856
17	0xbd8bdc38	-0.06829113
18	0x3e303df1	0.17211129
19	0x3df86ecc	0.12130508
20	0xbd6fc2f7	-0.058535542
21	0x3dd7fab3	0.10545864
22	0x3b9f9a93	0.0048707216
23	0xbc7afaa3	-0.0153185455
24	0xbdff07b3	-0.124526404
25	0x3c2085dd	0.0097975405
26	0xbdf16c20	-0.11788201
27	0x3bccda93	0.006251642
28	0xbe2ce930	-0.16885829
29	0x3e025d9e	0.12731025
30	0xbd95efa5	-0.07321099
31	0x3e34c2d3	0.17652445
32	0x3db63766	0.08897285
33	0x3f452472	0.77008736
34	0x3f35c2a0	0.710001
35	0x3f4af8c3	0.7928583
36	0xbb87c1c0	-0.00414297
37	0xbdfee301	-0.12445641
38	0x3f48b9cc	0.78408504
39	0x3f142273	0.57865065
40	0x3f023882	0.50867474
41	0x3f26684b	0.6500289
42	0x3effc3c9	0.4995406
43	0x3d167b78	0.036738843
44	0x3ce9ca7d	0.028538937
45	0x3f28bcc3	0.6591303
46	0x3f3cd453	0.7376148
47	0x3f2f4906	0.684708
48	0x3f3448b4	0.70423436
49	0x3ddf9c9e	0.10918544
50	0x3f51b006	0.81909215
51	0x3f0c4068	0.54785776
52	0x3dc15c3f	0.09441423
53	0xbdacfb92	-0.08446421
54	0x3e38d573	0.18050174
55	0x3f0137c6	0.5047573
56	0x3f0a2681	0.53965
57	0x3ce5bf31	0.028045269
58	0x3f304a1d	0.6886309
59	0x3f204665	0.62607414
60	0x3ee2aae5	0.44271007
61	0x3f322dbc	0.69601035
62	0x3f1c05d0	0.6094637
63	0x3f524c17	0.82147354
64	0xbde9b900	-0.11412239
65	0x3d321ab5	0.0434825
66	0x3cdb4fea	0.026771504
67	0x3da94c24	0.08266476
68	0xbe07feef	-0.13280843
69	0xbe243f82	-0.16039851
70	0xbd65dd29	-0.056119118
71	0xbc8fddbf	-0.017561791
72	0xbe1a73bc	-0.15083212
73	0xbe2a4fc3	-0.16631989
74	0xbd8adbd8	-0.06780213
75	0x3e003767	0.12521134
76	0xbda0ab76	-0.078452036
77	0x3d6a0b4f	0.05713969
78	0x3de41490	0.111367345
79	0xbda40dbc	-0.08010432
80	0xbdd9f41b	-0.106422625
81	0x3e07267c	0.13198274
82	0x3e235090	0.15948701
83	0xbd35d093	-0.044388365
84	0xbe16b220	-0.14716387
85	0xbdfa5344	-0.12222913
86	0xbe08166d	-0.13289805
87	0xbd8d6878	-0.069046915
88	0x3d548b48	0.05189064
89	0xbd4229f0	-0.047403276
90	0xbbf71e5e	-0.007541462
91	0x3d3b5672	0.045736738
92	0x3d8cac71	0.06868828
93	0xbd8cc763	-0.068739675
94	0x3d449a30	0.047998607
95	0x3da99c93	0.08281817
96	0xbc4b230a	-0.012398491
97	0x3f062707	0.524033
98	0x3f4892cf	0.7834901
99	0x3f17fc4f	0.5936937
100	0xbd24bbca	-0.040218152
101	0x3dcc4a4b	0.09975108
102	0x3f20cb72	0.6281043
103	0x3f3ccca7	0.73749775
104	0x3f2592dc	0.64677215
105	0x3f37da6f	0.7181768
106	0x3f0a9f8c	0.541497
107	0xbe021a6c	-0.12705392
108	0x3dddaa6c	0.10823521
109	0x3f39d6fd	0.7259367
110	0x3f14a14a	0.5805861
111	0x3f4ad69f	0.79233736
112	0x3f1e166e	0.61752975
113	0x3e6322e6	0.22181281
114	0x3f14f2b0	0.5818281
115	0x3f051458	0.5198417
116	0x3d957490	0.07297623
117	0xbda81ab9	-0.08208222
118	0xbe0db3e9	-0.13838162
119	0x3f0cbc5b	0.5497491
120	0x3f470ac6	0.77750814
121	0x3c8e5216	0.017373126
122	0x3f285f8a	0.6577078
123	0x3ee41f02	0.44554907
124	0x3ec6ceaf	0.38829562
125	0x3f310295	0.69144565
126	0x3f211f1e	0.62938106
127	0x3f4d7d5a	0.80269396
128	0x3e238604	0.15969092
129	0x3f1b0ea7	0.6056923
130	0x3ef0beb8	0.47020507
131	0x3f4a4283	0.7900774
132	0xbdb6d701	-0.089277275
133	0xba808c3f	-0.0009807422
134	0x3f1d37f5	0.6141351
135	0x3f232010	0.637208
136	0x3f115357	0.5676779
137	0x3f0163eb	0.5054309
138	0x3f073354	0.52812696
139	0xbdd56594	-0.10419765
140	0x3dd41a5a	0.10356589
141	0x3f0c941b	0.5491349
142	0x3f4d6ed4	0.80247235
143	0x3f269f33	0.6508667
144	0x3f3bde89	0.73386437
145	0x3e500a43	0.20316415
146	0x3f0ceedd	0.55051976
147	0x3ef49b7b	0.47774872
148	0xbe05b342	-0.13056663
149	0x3e6a3111	0.2287028
150	0x3e155a59	0.14585246
151	0x3f23ed97	0.6403441
152	0x3f226723	0.63438624
153	0xbda9c47e	-0.08289431
154	0x3f0de6e2	0.55430424
155	0x3eed4b03	0.46346292
156	0x3f0836c5	0.5320857
157	0x3f1f9989	0.6234365
158	0x3f48b883	0.7840654
159	0x3f53e2b6	0.8276781
160	0x3c05cb46	0.00816614
161	0x3f2936fe	0.66099536
162	0x3f3756fd	0.7161711
163	0x3ede1c40	0.43380928
164	0x3e19ddb8	0.15025985
165	0xbdfde7fb	-0.123977624
166	0x3f2a1d50	0.6645098
167	0x3f33a905	0.7017978
168	0x3f103a20	0.5633869
169	0x3ed575b2	0.41691357
170	0x3f29dfcc	0.6635711
171	0xbdd0b765	-0.1019123
172	0x3e2ee1e5	0.1707836
173	0x3f1a3a93	0.6024563
174	0x3f184555	0.5948079
175	0x3ee4948c	0.44644582
176	0x3f08e8dd	0.5348032
177	0x3e2fbf95	0.17162926
178	0x3f150eeb	0.5822589
179	0x3e52836c	0.20557946
180	0xbdf76872	-0.12080468
181	0xbd21a42c	-0.039463207
182	0x3dc367ab	0.095412575
183	0x3f15ae3f	0.58469003
184	0x3ec1c17a	0.37842923
185	0x3ddb86d1	0.107190736
186	0x3f18234f	0.59428877
187	0x3f048b4d	0.51775056
188	0x3ea99bc6	0.33126658
189	0x3f025700	0.50914
190	0x3f2c95a4	0.67415833
191	0x3f4b7e37	0.79489464
192	0xbd9bd504	-0.07608989
193	0x3f31d3ef	0.6946401
194	0x3f3ac9f5	0.7296441
195	0x3f2ace1c	0.6672075
196	0x3e0517a2	0.12997296
197	0x3d52fe71	0.051512185
198	0x3f28a5c8	0.6587796
199	0x3f1186c4	0.5684626
200	0x3f054ec3	0.52073306
201	0x3efc53f7	0.4928281
202	0x3f30a2f3	0.6899864
203	0x3c7ed2c0	0.015553176
204	0xbdfc66f1	-0.12324322
205	0x3efc0bbe	0.4922771
206	0x3efe97ef	0.4972529
207	0x3f457bea	0.771422
208	0x3f27cd8d	0.6554802
209	0x3ed2ab87	0.4114649
210	0x3f034651	0.5127917
211	0x3f0b5e90	0.54441166
212	0x3d7c6402	0.061618812
213	0x3dfb562e	0.12272297
214	0xbe0a7f68	-0.13525164
215	0x3f0595e1	0.5218182
216	0x3ef86757	0.48516342
217	0xbe0e6148	-0.13904297
218	0x3f3c5da0	0.7358036
219	0x3f155094	0.5832608
220	0x3ee3aff0	0.44470167
221	0x3f4958fb	0.786514
222	0x3f2771f1	0.65408236
223	0x3f0e7a8f	0.5565576
224	0xbd396405	-0.0452614
225	0x3f389251	0.7209826
226	0x3eedf29f	0.46474168
227	0x3f2ffa5f	0.6874141
228	0xbc44417e	-0.011978505
229	0xbd4b4d3a	-0.049634196
230	0x3f00b793	0.5028011
231	0x3f1eb3d2	0.61993134
232	0x3f14fae5	0.58195335
233	0x3edb4d29	0.42832306
234	0x3f3e81cd	0.7441681
235	0xbdad2bf3	-0.08455648
236	0xbd83b786	-0.06431489
237	0x3f0ff35f	0.5623073
238	0x3f1c0ff1	0.60961825
239	0x3f072960	0.5279751
240	0x3f388556	0.72078454
241	0x3de95fa9	0.11395199
242	0x3f3594ac	0.7092998
243	0x3ea6bcc3	0.3256589
244	0x3ce78686	0.028262388
245	0x3e37626f	0.17908643
246	0xbe1d98ad	-0.15390272
247	0x3f2a4e5c	0.66525817
248	0x3f505a7b	0.8138806
249	0x3dafe87e	0.08589266
250	0x3f3120fb	0.6919095
251	0x3f1193e2	0.56866276
252	0x3eff88f9	0.4990919
253	0x3f1daf9b	0.6159608
254	0x3f009ff6	0.5024408
255	0x3efa0709	0.48833492

fc3.bias f4 [16]
0	0xbdab0eb4	-0.08352414
1	0x3f2782d7	0.6543402
2	0xbdfaa0a4	-0.12237671
3	0x3f3e1963	0.7425749
4	0x3f330f4c	0.69945216
5	0x3f28235e	0.65678966
6	0x3f42afd4	0.7604954
7	0x3f3faada	0.74870074
8	0x3dcf7bb5	0.10131017
9	0x3f4ca051	0.79932123
10	0x3d8c6a52	0.068562165
11	0x3e13393a	0.14377299
12	0xbe213ae3	-0.1574512
13	0x3f499fa2	0.78759205
14	0x3b35a95a	0.002771935
15	0x3f084f65	0.53246146

output.weight f4 [1, 16]
0	0x3e7e8be0	0.24858046
1	0x3f41e152	0.75734437
2	0xbe5dfcc6	-0.21678457
3	0x3f63d171	0.8899146
4	0x3f367ade	0.7128123
5	0x3f390ace	0.7228211
6	0x3f3ac04f	0.7294969
7	0x3f57348d	0.8406456
8	0xbd0b2b00	-0.033976555
9	0x3f65f309	0.8982397
10	0xbe598f91	-0.21246172
11	0xbe521fc2	-0.20519927
12	0xbde89efc	-0.11358449
13	0x3f2de593	0.6792843
14	0xbe3cd20e	-0.18439505
15	0x3f399d2d	0.72505456

exp_avg f4 [10, 6]
0	0x00000000	0.0
1	0x00000000	0.0
2	0x00000000	0.0
3	0x00000000	0.0
4	0x00000000	0.0
5	0x00000000	0.0
6	0x00000000	0.0
7	0x00000000	0.0
8	0x00000000	0.0
9	0x00000000	0.0
10	0x00000000	0.0
11	0x00000000	0.0
12	0x00000000	0.0
13	0x00000000	0.0
14	0x00000000	0.0
15	0x00000000	0.0
16	0x00000000	0.0
17	0x00000000	0.0
18	0x00000000	0.0
19	0x00000000	0.0
20	0x00000000	0.0
21	0x00000000	0.0
22	0x00000000	0.0
23	0x00000000	0.0
24	0x00000000	0.0
25	0x00000000	0.0
26	0x00000000	0.0
27	0x00000000	0.0
28	0x00000000	0.0
29	0x00000000	0.0
30	0x00000000	0.0
31	0x00000000	0.0
32	0x00000000	0.0
33	0x00000000	0.0
34	0x00000000	0.0
35	0x00000000	0.0
36	0x00000000	0.0
37	0x00000000	0.0
38	0x00000000	0.0
39	0x00000000	0.0
40	0x00000000	0.0
41	0x00000000	0.0
42	0x00000000	0.0
43	0x00000000	0.0
44	0x00000000	0.0
45	0x00000000	0.0
46	0x00000000	0.0
47	0x00000000	0.0
48	0x00000004	6e-45
49	0x00000004	6e-45
50	0x00000004	6e-45
51	0x00000004	6e-45
52	0x00000004	6e-45
53	0x00000004	6e-45
54	0x00000000	0.0
55	0x00000000	0.0
56	0x00000000	0.0
57	0x00000000	0.0
58	0x00000000	0.0
59	0x00000000	0.0

exp_avg_sq f4 [10, 6]
0	0x00000000	0.0
1	0x00000000	0.0
2	0x00000000	0.0
3	0x00000000	0.0
4	0x00000000	0.0
5	0x00000000	0.0
6	0x00000000	0.0
7	0x00000000	0.0
8	0x00000000	0.0
9	0x00000000	0.0
10	0x00000000	0.0
11	0x00000000	0.0
12	0x00000000	0.0
13	0x00000000	0.0
14	0x00000000	0.0
15	0x00000000	0.0
16	0x00000000	0.0
17	0x00000000	0.0
18	0x00000000	0.0
19	0x00000000	0.0
20	0x00000000	0.0
21	0x00000000	0.0
22	0x00000000	0.0
23	0x00000000	0.0
24	0x00000000	0.0
25	0x00000000	0.0
26	0x00000000	0.0
27	0x00000000	0.0
28	0x00000000	0.0
29	0x00000000	0.0
30	0x00000000	0.0
31	0x00000000	0.0
32	0x00000000	0.0
33	0x00000000	0.0
34	0x00000000	0.0
35	0x00000000	0.0
36	0x00000000	0.0
37	0x00000000	0.0
38	0x00000000	0.0
39	0x00000000	0.0
40	0x00000000	0.0
41	0x00000000	0.0
42	0x00000000	0.0
43	0x00000000	0.0
44	0x00000000	0.0
45	0x00000000	0.0
46	0x00000000	0.0
47	0x00000000	0.0
48	0x45501e5c	3329.8975
49	0x4206e252	33.721016
50	0x431ac023	154.75053
51	0x429d9567	78.7918
52	0x42e51d5a	114.55733
53	0x43021b7a	130.10733
54	0x00000000	0.0
55	0x00000000	0.0
56	0x00000000	0.0
57	0x00000000	0.0
58	0x00000000	0.0
59	0x00000000	0.0

exp_avg f4 [10, 10]
0	0x00000000	0.0
1	0x00000000	0.0
2	0x00000000	0.0
3	0x00000000	0.0
4	0x00000000	0.0
5	0x00000000	0.0
6	0x00000000	0.0
7	0x00000000	0.0
8	0x00000000	0.0
9	0x00000000	0.0
10	0x00000000	0.0
11	0x00000000	0.0
12	0x00000000	0.0
13	0x00000000	0.0
14	0x00000000	0.0
15	0x00000000	0.0
16	0x00000000	0.0
17	0x00000000	0.0
18	0x00000000	0.0
19	0x00000000	0.0
20	0x00000000	0.0
21	0x00000000	0.0
22	0x00000000	0.0
23	0x00000000	0.0
24	0x00000000	0.0
25	0x00000000	0.0
26	0x00000000	0.0
27	0x00000000	0.0
28	0x00000000	0.0
29	0x00000000	0.0
30	0x00000000	0.0
31	0x00000000	0.0
32	0x00000000	0.0
33	0x00000000	0.0
34	0x00000000	0.0
35	0x00000000	0.0
36	0x00000000	0.0
37	0x00000000	0.0
38	0x00000000	0.0
39	0x00000000	0.0
40	0x00000000	0.0
41	0x00000000	0.0
42	0x00000000	0.0
43	0x00000000	0.0
44	0x00000000	0.0
45	0x00000000	0.0
46	0x00000000	0.0
47	0x00000000	0.0
48	0x00000000	0.0
49	0x00000000	0.0
50	0x00000000	0.0
51	0x00000000	0.0
52	0x00000000	0.0
53	0x00000000	0.0
54	0x00000000	0.0
55	0x00000000	0.0
56	0x00000000	0.0
57	0x00000000	0.0
58	0x00000000	0.0
59	0x00000000	0.0
60	0x00000000	0.0
61	0x00000000	0.0
62	0x00000000	0.0
63	0x00000000	0.0
64	0x00000000	0.0
65	0x00000000	0.0
66	0x00000000	0.0
67	0x00000000	0.0
68	0x00000000	0.0
69	0x00000000	0.0
70	0x00000000	0.0
71	0x00000000	0.0
72	0x00000000	0.0
73	0x00000000	0.0
74	0x00000000	0.0
75	0x00000000	0.0
76	0x00000000	0.0
77	0x00000000	0.0
78	0x00000000	0.0
79	0x00000000	0.0
80	0x80000004	-6e-45
81	0x80000004	-6e-45
82	0x80000004	-6e-45
83	0x00000004	6e-45
84	0x80000004	-6e-45
85	0x00000004	6e-45
86	0x00000004	6e-45
87	0x00000004	6e-45
88	0x80000004	-6e-45
89	0x80000004	-6e-45
90	0x00000000	0.0
91	0x00000000	0.0
92	0x00000000	0.0
93	0x00000000	0.0
94	0x00000000	0.0
95	0x00000000	0.0
96	0x00000000	0.0
97	0x00000000	0.0
98	0x00000000	0.0
99	0x00000000	0.0

exp_avg_sq f4 [10, 10]
0	0x00000000	0.0
1	0x00000000	0.0
2	0x00000000	0.0
3	0x00000000	0.0
4	0x00000000	0.0
5	0x00000000	0.0
6	0x00000000	0.0
7	0x00000000	0.0
8	0x00000000	0.0
9	0x00000000	0.0
10	0x00000000	0.0
11	0x00000000	0.0
12	0x00000000	0.0
13	0x00000000	0.0
14	0x00000000	0.0
15	0x00000000	0.0
16	0x00000000	0.0
17	0x00000000	0.0
18	0x00000000	0.0
19	0x00000000	0.0
20	0x00000000	0.0
21	0x00000000	0.0
22	0x00000000	0.0
23	0x00000000	0.0
24	0x00000000	0.0
25	0x00000000	0.0
26	0x00000000	0.0
27	0x00000000	0.0
28	0x00000000	0.0
29	0x00000000	0.0
30	0x00000000	0.0
31	0x00000000	0.0
32	0x00000000	0.0
33	0x00000000	0.0
34	0x00000000	0.0
35	0x00000000	0.0
36	0x00000000	0.0
37	0x00000000	0.0
38	0x00000000	0.0
39	0x00000000	0.0
40	0x00000000	0.0
41	0x00000000	0.0
42	0x00000000	0.0
43	0x00000000	0.0
44	0x00000000	0.0
45	0x00000000	0.0
46	0x00000000	0.0
47	0x00000000	0.0
48	0x00000000	0.0
49	0x00000000	0.0
50	0x00000000	0.0
51	0x00000000	0.0
52	0x00000000	0.0
53	0x00000000	0.0
54	0x00000000	0.0
55	0x00000000	0.0
56	0x00000000	0.0
57	0x00000000	0.0
58	0x00000000	0.0
59	0x00000000	0.0
60	0x00000000	0.0
61	0x00000000	0.0
62	0x00000000	0.0
63	0x00000000	0.0
64	0x00000000	0.0
65	0x00000000	0.0
66	0x00000000	0.0
67	0x00000000	0.0
68	0x00000000	0.0
69	0x00000000	0.0
70	0x00000000	0.0
71	0x00000000	0.0
72	0x00000000	0.0
73	0x00000000	0.0
74	0x00000000	0.0
75	0x00000000	0.0
76	0x00000000	0.0
77	0x00000000	0.0
78	0x00000000	0.0
79	0x00000000	0.0
80	0x3a3fb038	0.00073123304
81	0x3a3fb038	0.00073123304
82	0x3a3fb038	0.00073123304
83	0x3a3fb038	0.00073123304
84	0x3a3fb038	0.00073123304
85	0x3a3fb038	0.00073123304
86	0x3a3fb038	0.00073123304
87	0x3a3fb038	0.00073123304
88	0x3a3fb038	0.00073123304
89	0x3a3fb038	0.00073123304
90	0x00000000	0.0
91	0x00000000	0.0
92	0x00000000	0.0
93	0x00000000	0.0
94	0x00000000	0.0
95	0x00000000	0.0
96	0x00000000	0.0
97	0x00000000	0.0
98	0x00000000	0.0
99	0x00000000	0.0

exp_avg f4 [10]
0	0x00000000	0.0
1	0x00000000	0.0
2	0x00000000	0.0
3	0x00000000	0.0
4	0x00000000	0.0
5	0x00000000	0.0
6	0x00000000	0.0
7	0x00000000	0.0
8	0x00000004	6e-45
9	0x00000000	0.0

exp_avg_sq f4 [10]
0	0x00000000	0.0
1	0x00000000	0.0
2	0x00000000	0.0
3	0x00000000	0.0
4	0x00000000	0.0
5	0x00000000	0.0
6	0x00000000	0.0
7	0x00000000	0.0
8	0x3a3fb038	0.00073123304
9	0x00000000	0.0

exp_avg f4 [10]
0	0x00000000	0.0
1	0x00000000	0.0
2	0x00000000	0.0
3	0x00000000	0.0
4	0x00000000	0.0
5	0x00000000	0.0
6	0x00000000	0.0
7	0x00000000	0.0
8	0x00000004	6e-45
9	0x00000000	0.0

exp_avg_sq f4 [10]
0	0x00000000	0.0
1	0x00000000	0.0
2	0x00000000	0.0
3	0x00000000	0.0
4	0x00000000	0.0
5	0x00000000	0.0
6	0x00000000	0.0
7	0x00000000	0.0
8	0x3a3fb038	0.00073123304
9	0x00000000	0.0

exp_avg f4 [10, 10]
0	0x44a58120	1324.0352
1	0x44a58120	1324.0352
2	0x44a58120	1324.0352
3	0xc4a58120	-1324.0352
4	0x44a58120	1324.0352
5	0xc4a58120	-1324.0352
6	0xc4a58120	-1324.0352
7	0xc4a58120	-1324.0352
8	0x44a58120	1324.0352
9	0x44a58120	1324.0352
10	0x44f9db32	1998.8499
11	0x44f9db32	1998.8499
12	0x44f9db32	1998.8499
13	0xc4f9db32	-1998.8499
14	0x44f9db32	1998.8499
15	0xc4f9db32	-1998.8499
16	0xc4f9db32	-1998.8499
17	0xc4f9db32	-1998.8499
18	0x44f9db32	1998.8499
19	0x44f9db32	1998.8499
20	0x48259900	169572.0
21	0x48259900	169572.0
22	0x48259900	169572.0
23	0xc8259900	-169572.0
24	0x48259900	169572.0
25	0xc8259900	-169572.0
26	0xc8259900	-169572.0
27	0xc8259900	-169572.0
28	0x48259900	169572.0
29	0x48259900	169572.0
30	0xc6e60c72	-29446.223
31	0xc6e60c72	-29446.223
32	0xc6e60c72	-29446.223
33	0x46e60c72	29446.223
34	0xc6e60c72	-29446.223
35	0x46e60c72	29446.223
36	0x46e60c72	29446.223
37	0x46e60c72	29446.223
38	0xc6e60c72	-29446.223
39	0xc6e60c72	-29446.223
40	0xc622ac3d	-10411.06
41	0xc622ac3d	-10411.06
42	0xc622ac3d	-10411.06
43	0x4622ac3d	10411.06
44	0xc622ac3d	-10411.06
45	0x4622ac3d	10411.06
46	0x4622ac3d	10411.06
47	0x4622ac3d	10411.06
48	0xc622ac3d	-10411.06
49	0xc622ac3d	-10411.06
50	0xc4ece6b3	-1895.2094
51	0xc4ece6b3	-1895.2094
52	0xc4ece6b3	-1895.2094
53	0x44ece6b3	1895.2094
54	0xc4ece6b3	-1895.2094
55	0x44ece6b3	1895.2094
56	0x44ece6b3	1895.2094
57	0x44ece6b3	1895.2094
58	0xc4ece6b3	-1895.2094
59	0xc4ece6b3	-1895.2094
60	0x478bb1fa	71523.95
61	0x478bb1fa	71523.95
62	0x478bb1fa	71523.95
63	0xc78bb1fa	-71523.95
64	0x478bb1fa	71523.95
65	0xc78bb1fa	-71523.95
66	0xc78bb1fa	-71523.95
67	0xc78bb1fa	-71523.95
68	0x478bb1fa	71523.95
69	0x478bb1fa	71523.95
70	0xc82ed5b0	-179030.75
71	0xc82ed5b0	-179030.75
72	0xc82ed5b0	-179030.75
73	0x482ed5b0	179030.75
74	0xc82ed5b0	-179030.75
75	0x482ed5b0	179030.75
76	0x482ed5b0	179030.75
77	0x482ed5b0	179030.75
78	0xc82ed5b0	-179030.75
79	0xc82ed5b0	-179030.75
80	0xc66a4169	-14992.353
81	0xc66a4169	-14992.353
82	0xc66a4169	-14992.353
83	0x466a4169	14992.353
84	0xc66a4169	-14992.353
85	0x466a4169	14992.353
86	0x466a4169	14992.353
87	0x466a4169	14992.353
88	0xc66a4169	-14992.353
89	0xc66a4169	-14992.353
90	0xc611a0ed	-9320.231
91	0xc611a0ed	-9320.231
92	0xc611a0ed	-9320.231
93	0x4611a0ed	9320.231
94	0xc611a0ed	-9320.231
95	0x4611a0ed	9320.231
96	0x4611a0ed	9320.231
97	0x4611a0ed	9320.231
98	0xc611a0ed	-9320.231
99	0xc611a0ed	-9320.231

exp_avg_sq f4 [10, 10]
0	0x4ddc82d3	4.6244515e+08
1	0x4ddc82d3	4.6244515e+08
2	0x4ddc82d3	4.6244515e+08
3	0x4ddc82d3	4.6244515e+08
4	0x4ddc82d3	4.6244515e+08
5	0x4ddc82d3	4.6244515e+08
6	0x4ddc82d3	4.6244515e+08
7	0x4ddc82d3	4.6244515e+08
8	0x4ddc82d3	4.6244515e+08
9	0x4ddc82d3	4.6244515e+08
10	0x4d7b5e3b	2.6357854e+08
11	0x4d7b5e3b	2.6357854e+08
12	0x4d7b5e3b	2.6357854e+08
13	0x4d7b5e3b	2.6357854e+08
14	0x4d7b5e3b	2.6357854e+08
15	0x4d7b5e3b	2.6357854e+08
16	0x4d7b5e3b	2.6357854e+08
17	0x4d7b5e3b	2.6357854e+08
18	0x4d7b5e3b	2.6357854e+08
19	0x4d7b5e3b	2.6357854e+08
20	0x4fc9877f	6.7622006e+09
21	0x4fc9877f	6.7622006e+09
22	0x4fc9877f	6.7622006e+09
23	0x4fc9877f	6.7622006e+09
24	0x4fc9877f	6.7622006e+09
25	0x4fc9877f	6.7622006e+09
26	0x4fc9877f	6.7622006e+09
27	0x4fc9877f	6.7622006e+09
28	0x4fc9877f	6.7622006e+09
29	0x4fc9877f	6.7622006e+09
30	0x4e2cd781	7.249511e+08
31	0x4e2cd781	7.249511e+08
32	0x4e2cd781	7.249511e+08
33	0x4e2cd781	7.249511e+08
34	0x4e2cd781	7.249511e+08
35	0x4e2cd781	7.249511e+08
36	0x4e2cd781	7.249511e+08
37	0x4e2cd781	7.249511e+08
38	0x4e2cd781	7.249511e+08
39	0x4e2cd781	7.249511e+08
40	0x4e1bbaaf	6.5317574e+08
41	0x4e1bbaaf	6.5317574e+08
42	0x4e1bbaaf	6.5317574e+08
43	0x4e1bbaaf	6.5317574e+08
44	0x4e1bbaaf	6.5317574e+08
45	0x4e1bbaaf	6.5317574e+08
46	0x4e1bbaaf	6.5317574e+08
47	0x4e1bbaaf	6.5317574e+08
48	0x4e1bbaaf	6.5317574e+08
49	0x4e1bbaaf	6.5317574e+08
50	0x4e14b411	6.237072e+08
51	0x4e14b411	6.237072e+08
52	0x4e14b411	6.237072e+08
53	0x4e14b411	6.237072e+08
54	0x4e14b411	6.237072e+08
55	0x4e14b411	6.237072e+08
56	0x4e14b411	6.237072e+08
57	0x4e14b411	6.237072e+08
58	0x4e14b411	6.237072e+08
59	0x4e14b411	6.237072e+08
60	0x4eba6e3a	1.563893e+09
61	0x4eba6e3a	1.563893e+09
62	0x4eba6e3a	1.563893e+09
63	0x4eba6e3a	1.563893e+09
64	0x4eba6e3a	1.563893e+09
65	0x4eba6e3a	1.563893e+09
66	0x4eba6e3a	1.563893e+09
67	0x4eba6e3a	1.563893e+09
68	0x4eba6e3a	1.563893e+09
69	0x4eba6e3a	1.563893e+09
70	0x4ffcd378	8.4834345e+09
71	0x4ffcd378	8.4834345e+09
72	0x4ffcd378	8.4834345e+09
73	0x4ffcd378	8.4834345e+09
74	0x4ffcd378	8.4834345e+09
75	0x4ffcd378	8.4834345e+09
76	0x4ffcd378	8.4834345e+09
77	0x4ffcd378	8.4834345e+09
78	0x4ffcd378	8.4834345e+09
79	0x4ffcd378	8.4834345e+09
80	0x4e425d29	8.152213e+08
81	0x4e425d29	8.152213e+08
82	0x4e425d29	8.152213e+08
83	0x4e425d29	8.152213e+08
84	0x4e425d29	8.152213e+08
85	0x4e425d29	8.152213e+08
86	0x4e425d29	8.152213e+08
87	0x4e425d29	8.152213e+08
88	0x4e425d29	8.152213e+08
89	0x4e425d29	8.152213e+08
90	0x4d4767ab	2.0909125e+08
91	0x4d4767ab	2.0909125e+08
92	0x4d4767ab	2.0909125e+08
93	0x4d4767ab	2.0909125e+08
94	0x4d4767ab	2.0909125e+08
95	0x4d4767ab	2.0909125e+08
96	0x4d4767ab	2.0909125e+08
97	0x4d4767ab	2.0909125e+08
98	0x4d4767ab	2.0909125e+08
99	0x4d4767ab	2.0909125e+08

exp_avg f4 [10, 10]
0	0xc4a76f8f	-1339.4862
1	0xc4a79745	-1340.7272
2	0x440b6d1f	557.705
3	0xc4a2d400	-1302.625
4	0x44a2e274	1303.0767
5	0x44a76c8e	1339.3923
6	0xc4686833	-929.6281
7	0xc401c0b7	-519.01117
8	0x44a1f46e	1295.6384
9	0xc4a5457c	-1322.1714
10	0xc4fa31bf	-2001.5546
11	0xc4fa1a89	-2000.8292
12	0x43e984d2	467.03766
13	0xc4f0d5ad	-1926.6774
14	0x44f50953	1960.2914
15	0x44fa022f	2000.0682
16	0xc4d730b5	-1721.5221
17	0xc3c14ecd	-386.61563
18	0x44f3d864	1950.7622
19	0xc4f63516	-1969.6589
20	0xc824fed3	-168955.3
21	0xc824ded2	-168827.28
22	0x47ddf11a	113634.2
23	0xc8233e1b	-167160.42
24	0x4821ba53	165609.3
25	0x4824d29d	168778.45
26	0xc8173600	-154840.0
27	0xc7bfd02c	-98208.34
28	0x48207a31	164328.77
29	0xc8236bf1	-167343.77
30	0x46e5cb8c	29413.773
31	0x46e57cbc	29374.367
32	0x46c98797	25795.795
33	0x46cf3318	26521.547
34	0xc6e255f0	-28970.969
35	0xc6e5b4d7	-29402.42
36	0x46e3c284	29153.258
37	0xc6ca4656	-25891.168
38	0xc6e37016	-29112.043
39	0x46de92ac	28489.336
40	0x46223a5f	10382.593
41	0x4622442e	10385.045
42	0x443491fe	722.2811
43	0x4619aece	9835.701
44	0xc61ed153	-10164.331
45	0xc6222120	-10376.281
46	0x46087453	8733.081
47	0xc4721d45	-968.45734
48	0xc61e762c	-10141.543
49	0x461f1c66	10183.1
50	0x44ef848b	1916.142
51	0x44efd190	1918.5488
52	0xc465618d	-917.52423
53	0x44e9f080	1871.5156
54	0xc4e96bcb	-1867.3685
55	0xc4ef64e5	-1915.153
56	0x44aeea80	1399.3281
57	0x4452f192	843.77454
58	0xc4e7d434	-1854.6313
59	0x44ecc69d	1894.2067
60	0xc78afe23	-71164.27
61	0xc78b25aa	-71243.33
62	0x476ff269	61426.41
63	0xc78a7f53	-70910.65
64	0x47878f68	69406.81
65	0x478ad622	71084.266
66	0xc74b5ab0	-52058.688
67	0xc762140b	-57876.043
68	0x4786132b	68646.336
69	0xc78a137e	-70694.984
70	0x482e3ed7	178427.36
71	0x482e1b8a	178286.16
72	0xc7ead35a	-120230.7
73	0x482c532d	176460.7
74	0xc82acb8a	-174894.16
75	0xc82e108d	-178242.2
76	0x481f7631	163288.77
77	0x47cbc6f6	104333.92
78	0xc82976f1	-173531.77
79	0x482c903b	176704.92
80	0x4669add4	14955.457
81	0x4669af38	14955.805
82	0xc5c41140	-6274.1562
83	0x4663786c	14558.105
84	0xc66481ff	-14624.499
85	0xc66980ca	-14944.197
86	0x464147c3	12369.94
87	0x45ad75d4	5550.7285
88	0xc6631366	-14532.85
89	0x4666a5a9	14761.415
90	0x46117ca7	9311.163
91	0x46114dd7	9299.46
92	0x4617b6e7	9709.726
93	0x4601d42d	8309.044
94	0xc60f5159	-9172.337
95	0xc61170e4	-9308.223
96	0x460f84e5	9185.224
97	0xc6165389	-9620.884
98	0xc61030b0	-9228.172
99	0x460c9742	8997.814

exp_avg_sq f4 [10, 10]
0	0x4b46c9f7	1.3027831e+07
1	0x4c181717	3.9869532e+07
2	0x4c872ebc	7.087459e+07
3	0x4c8b00e2	7.287784e+07
4	0x4b82b60e	1.7132572e+07
5	0x4b20af0f	1.0530575e+07
6	0x4c66c0ba	6.049047e+07
7	0x4c6104d1	5.8987332e+07
8	0x4b208308	1.0519304e+07
9	0x4c811178	6.766893e+07
10	0x4bd87eb2	2.837642e+07
11	0x4c337087	4.7039004e+07
12	0x4cf1b3a8	1.2672134e+08
13	0x4cdd955f	1.1617356e+08
14	0x4bcdddff	2.6983422e+07
15	0x4b8aa20e	1.8170908e+07
16	0x4cea5eb8	1.2287738e+08
17	0x4cd93dd6	1.1389714e+08
18	0x4b9bf0c3	2.043943e+07
19	0x4cd162a7	1.0977823e+08
20	0x4fbb9c04	6.295128e+09
21	0x4fbe400d	6.3837373e+09
22	0x4f2fe135	2.950772e+09
23	0x4fbde318	6.3715533e+09
24	0x4fb496b4	6.0595507e+09
25	0x4fba1e3a	6.245086e+09
26	0x4fa34338	5.478183e+09
27	0x4ef3e62e	2.0459743e+09
28	0x4fb0f3b6	5.9375237e+09
29	0x4fbda078	6.3628206e+09
30	0x4e21be80	6.784041e+08
31	0x4e218923	6.775298e+08
32	0x4e260e9b	6.9649376e+08
33	0x4da5dfd0	3.4786355e+08
34	0x4db031ce	3.6950675e+08
35	0x4e20f022	6.75023e+08
36	0x4e26b5e5	6.992346e+08
37	0x4e25a794	6.9480576e+08
38	0x4e06d037	5.654481e+08
39	0x4dfd1aff	5.308006e+08
40	0x4da9d110	3.5613133e+08
41	0x4db5cbdc	3.8125453e+08
42	0x4dc2d40a	4.085845e+08
43	0x4d943ab2	3.1085933e+08
44	0x4d26ed15	1.750347e+08
45	0x4da779c2	3.5122182e+08
46	0x4dbe589e	3.9918483e+08
47	0x4dbe242a	3.9875514e+08
48	0x4d705965	2.520244e+08
49	0x4db2ea37	3.7521174e+08
50	0x4b6f21ff	1.5671807e+07
51	0x4c1ae2a2	4.060225e+07
52	0x4ca6f214	8.752758e+07
53	0x4ca26364	8.513821e+07
54	0x4b915294	1.904772e+07
55	0x4b2a338c	1.1154316e+07
56	0x4c918e60	7.631334e+07
57	0x4c8b4b06	7.302968e+07
58	0x4b27c9ef	1.0996207e+07
59	0x4c997e0d	8.0474216e+07
60	0x4e21a425	6.779723e+08
61	0x4e35be0d	7.622828e+08
62	0x4e157082	6.267946e+08
63	0x4e3e34db	7.9778374e+08
64	0x4e1d1d5f	6.5898694e+08
65	0x4e1d7194	6.603666e+08
66	0x4da0d25a	3.3726752e+08
67	0x4ded6b93	4.9790627e+08
68	0x4e134ab2	6.177865e+08
69	0x4e3aaa9d	7.829359e+08
70	0x4fd06d0f	6.9936164e+09
71	0x4fd6cc0b	7.207393e+09
72	0x4f6051a2	3.7634463e+09
73	0x4fd8164c	7.25068e+09
74	0x4fcad5f3	6.806038e+09
75	0x4fcdb9ca	6.9030103e+09
76	0x4fb407f2	6.040839e+09
77	0x4f086a69	2.288675e+09
78	0x4fc4f47c	6.6087137e+09
79	0x4fd749b3	7.223863e+09
80	0x4d29474b	1.7750136e+08
81	0x4d535786	2.2160803e+08
82	0x4d802814	2.6876378e+08
83	0x4d6eb027	2.5028261e+08
84	0x4ccd7379	1.0771553e+08
85	0x4d20c3df	1.6857445e+08
86	0x4d6f2be2	2.507894e+08
87	0x4d6e8195	2.5009186e+08
88	0x4cc94883	1.0553039e+08
89	0x4d7a7ef1	2.6266395e+08
90	0x4d27146c	1.7519584e+08
91	0x4d26ffc5	1.7511125e+08
92	0x4d29d523	1.7808235e+08
93	0x4c7429ff	6.400614e+07
94	0x4ca7907b	8.785199e+07
95	0x4d264f07	1.7438731e+08
96	0x4d2a2b41	1.7843509e+08
97	0x4d294d77	1.7752664e+08
98	0x4d0b982b	1.4637534e+08
99	0x4cd7f5a9	1.1322503e+08

exp_avg f4 [10]
0	0xc4a58120	-1324.0352
1	0xc4f9db32	-1998.8499
2	0xc8259900	-169572.0
3	0x46e60c70	29446.219
4	0x4622ac3e	10411.061
5	0x44ece6b1	1895.2091
6	0xc78bb1fa	-71523.95
7	0x482ed5b2	179030.78
8	0x466a4169	14992.353
9	0x4611a0ed	9320.231

exp_avg_sq f4 [10]
0	0x4ddc82d3	4.6244515e+08
1	0x4d7b5e3b	2.6357854e+08
2	0x4fc9877f	6.7622006e+09
3	0x4e2cd781	7.249511e+08
4	0x4e1bbab0	6.531758e+08
5	0x4e14b411	6.237072e+08
6	0x4eba6e3a	1.563893e+09
7	0x4ffcd37a	8.4834355e+09
8	0x4e425d29	8.152213e+08
9	0x4d4767ad	2.0909128e+08

exp_avg f4 [10]
0	0xc4a58121	-1324.0353
1	0xc4f9db32	-1998.8499
2	0xc8259900	-169572.0
3	0x46e60c71	29446.22
4	0x4622ac3e	10411.061
5	0x44ece6b3	1895.2094
6	0xc78bb1fa	-71523.95
7	0x482ed5b2	179030.78
8	0x466a4169	14992.353
9	0x4611a0ee	9320.232

exp_avg_sq f4 [10]
0	0x4ddc82d3	4.6244515e+08
1	0x4d7b5e3b	2.6357854e+08
2	0x4fc9877f	6.7622006e+09
3	0x4e2cd781	7.249511e+08
4	0x4e1bbab0	6.531758e+08
5	0x4e14b411	6.237072e+08
6	0x4eba6e39	1.5638929e+09
7	0x4ffcd37d	8.483437e+09
8	0x4e425d28	8.1522125e+08
9	0x4d4767af	2.0909131e+08
