models/second/model-Bakery.pth (torch, 16822 bytes, 33 tensors)

rnn.weight_ih_l0 f4 [10, 2]
0.17193687 -0.31318948 0.14073531 0.08990837 -0.05289401 -0.0666325 -0.23450087 0.23207776
0.27707785 -0.07624514 0.297061 0.019422397 0.27728283 0.1476564 0.30856812 0.15673491
-0.22737367 -0.28169984 0.14780617 0.20742136
00000000: 3810 303e 5f5a a0be eb1c 103e e121 b83d
00000010: 64a7 58bd 9f76 88bd ff20 70be cba5 6d3e
00000020: 26dd 8d3e 6926 9cbd 6118 983e b81b 9f3c
00000030: 04f8 8d3e 3d33 173e a4fc 9d3e 1e7f 203e
00000040: a5d4 68be f63a 90be 805a 173e 4466 543e

rnn.weight_hh_l0 f4 [10, 10]
-0.19817166 0.045657974 0.06175068 0.13925356 0.12052916 0.31367156 -0.030891268 -0.16455518
0.29012242 -0.22078344 0.055735968 0.1341179 0.120780714 0.28356826 -0.14709748 -0.26982707
-0.30738795 -0.014437684 0.29387358 0.24243106 -0.11168673 -0.07943728 -0.023565091 -0.24398218
0.26349866 -0.12459924 0.186875 0.08914333 -0.11414913 -0.0028892728 0.1582266 0.009626342
-0.016364995 0.31293362 -0.25761703 -0.108641736 0.20902196 -0.21590364 0.053469606 -0.11950964
0.17531772 -0.27760294 -0.14747205 -0.07961226 0.254389 -0.0982259 -0.101727374 0.20784093
-0.11938463 -0.2989331 0.048272394 -0.1603111 -0.020253094 -0.15648253 -0.13131624 -0.17509602
0.22720845 0.30569962 0.27833864 -0.14354958 -0.014838293 -0.19762641 0.08721271 0.2680667
-0.3058244 0.033928122 -0.085055105 -0.18885964 -0.10570123 -0.12679705 0.017888833 0.15927798
-0.21233499 0.29590553 -0.13934402 -0.17602605 0.13031533 0.2821208 -0.051309325 -0.03945707
-0.25938156 -0.19531548 -0.3045067 -0.23726627 0.175114 0.02370398 0.13691233 -0.1680257
-0.02607593 -0.16865793 0.26492018 -0.017235728 -0.010336295 0.089374766 -0.08363769 0.1576222
-0.07375063 0.15940173 0.11061639 -0.20774089
00000000: 83ed 4abe db03 3b3d 48ee 7c3d 7c98 0e3e
00000010: fed7 f63d 8f99 a03e af0f fdbc 2781 28be
00000020: ed8a 943e 0e15 62be 664b 643d 3456 093e
00000030: e15b f73d dc2f 913e b9a0 16be c626 8abe
00000040: f461 9dbe 098c 6cbc 9976 963e d93f 783e
00000050: 03bc e4bd 03b0 a2bd 940b c1bc 77d6 79be
00000060: 4ce9 863e e32d ffbd 295c 3f3e c790 b63d
00000070: 05c7 e9bd f459 3dbb 2706 223e ceb7 1d3c
00000080: e20f 86bc d638 a03e 61e6 83be 8f7f debd
00000090: da09 563e d815 5dbe f202 5b3d 78c1 f4bd
000000a0: 7d86 333e f921 8ebe ea02 17be c10b a3bd
000000b0: 463f 823e a92a c9bd 7156 d0bd 41d4 543e
000000c0: ee7f f4bd c20d 99be 46b9 453d 9828 24be
000000d0: d1e9 a5bc f53c 20be c477 06be 5f4c 33be
000000e0: 55a9 683e a984 9c3e 6782 8e3e a9fe 12be
000000f0: 501c 73bc 945e 4abe 949c b23d 0a40 893e
00000100: 0495 9cbe 37f8 0a3d 5f31 aebd 6c64 41be
00000110: e379 d8bd 16d7 01be 9a8b 923c c419 233e
00000120: 586e 59be ee80 973e 33b0 0ebe 2c40 34be
00000130: 6271 053e 2372 903e ba29 52bd bd9d 21bd
00000140: a9cd 84be c800 48be 4de8 9bbe eef5 72be
00000150: 1651 333e d92e c23c bf32 0c3e ee0e 2cbe
00000160: 309d d5bc aab4 2cbe 9ea3 873e f131 8dbc
00000170: 9059 29bc 1e0a b73d 3d4a abbd b767 213e
00000180: 920a 97bd 353a 233e d98a e23d 07ba 54be

rnn.bias_ih_l0 f4 [10]
-0.1678799 -0.19303457 -0.41200647 -0.26862088 -0.0799691 -0.289017 -0.03311209 0.10602837
0.27751827 0.17429566
00000000: b5e8 2bbe dbaa 45be 83f2 d2be ad88 89be
00000010: d7c6 a3bd 09fa 93be 8ba0 07bd 6725 d93d
00000020: e016 8e3e 907a 323e

rnn.bias_hh_l0 f4 [10]
0.22897412 0.074722506 -0.42797324 0.30211917 -0.2532126 0.15363593 0.231513 0.24447286
-0.19843087 0.28255934
00000000: 3178 6a3e 1d08 993d 4f1f dbbe 5daf 9a3e
00000010: 15a5 81be bd52 1d3e be11 6d3e 1857 7a3e
00000020: 7631 4bbe 9eab 903e

rnn.weight_ih_l1 f4 [10, 10]
0.5206792 0.39725307 0.36068916 -0.091430195 0.14528567 0.14853969 0.3996655 0.058179382
-0.5846918 0.33818892 0.22877656 0.05435507 -0.88706213 -0.037012994 0.027454905 0.3168432
-0.03561727 -0.120039575 -0.13589522 0.01973383 0.39197898 -0.14984375 -0.5181612 -0.36608958
-0.14679287 0.35137665 0.12812497 -0.017551644 0.01799254 -0.14507224 0.35579088 0.02667522
-0.6592781 0.13675229 0.08927765 -0.062296756 0.07127146 0.0075340983 -0.15611692 -0.13948862
0.039308563 0.46839243 0.3256245 -0.0640276 0.41209114 0.010274428 -0.0050501716 0.29499263
-0.41391528 0.4555846 0.19733274 0.36711833 0.768702 0.036739323 0.54336774 0.34446174
0.31935227 0.5279767 -0.11800383 0.29363263 0.5918363 0.61424977 -0.43873024 -0.39046836
0.24842586 0.6043791 0.730912 0.5946997 -0.39706022 0.5111885 -0.64761376 -0.66344845
-0.08213912 0.7457795 -0.30858737 -0.8491992 -0.67180896 -0.6635587 0.5465151 -0.85973
-0.28870732 0.24530292 -1.183161 -0.13556877 -0.29309472 -0.19361232 0.2188174 -0.042962056
-0.23088187 0.20959698 -0.2331709 0.05045381 0.3459817 -0.2843114 0.3814245 0.14176346
0.13090397 0.288224 0.14258356 -0.21827364
00000000: 3b4b 053f c164 cb3e 40ac b83e c13f bbbd
00000010: c4c5 143e ca1a 183e f5a0 cc3e 814d 6e3d
00000020: 5dae 15bf 1927 ad3e 6744 6a3e 6ca3 5e3d
00000030: 8116 63bf f09a 17bd 1ce9 e03c 4639 a23e
00000040: 6ae3 11bd 4fd7 f5bd 1e28 0bbe d7a8 a13c
00000050: 78b1 c83e a470 19be 36a6 04bf 1870 bbbe
00000060: df50 16be a4e7 b33e 3133 033e 77c8 8fbc
00000070: 1765 933c d18d 14be 392a b63e fe85 da3c
00000080: 73c6 28bf cb08 0c3e 33d7 b63d e22a 7fbd
00000090: c5f6 913d 99e0 f63b 1ddd 1fbe 1bd6 0ebe
000000a0: 0402 213d 22d1 ef3e 41b8 a63e e720 83bd
000000b0: 9cfd d23e 1356 283c e97b a5bb 4609 973e
000000c0: b4ec d3be 6242 e93e 9811 4a3e eff6 bb3e
000000d0: a7c9 443f f97b 163d 261a 0b3f 4a5d b03e
000000e0: 2482 a33e 7b29 073f feab f1bd 0457 963e
000000f0: 9582 173f 793f 1d3f 40a1 e0be 78eb c7be
00000100: 5963 7e3e 97b8 1a3f 0d1d 3b3f 3d3e 183f
00000110: 7a4b cbbe 40dd 023f 04ca 25bf c2d7 29bf
00000120: 8e38 a8bd 68eb 3e3f 2aff 9dbe 1e65 59bf
00000130: acfb 2bbf fcde 29bf 6ae8 0b3f 4417 5cbf
00000140: 72d1 93be b030 7b3e d271 97bf 8ad2 0abe
00000150: 8310 96be 4f42 46be ab11 603e fbf8 2fbd
00000160: 4c6c 6cbe 97a0 563e 5ac4 6ebe a7a8 4e3d
00000170: 8324 b13e 4491 91be 124a c33e 712a 113e
00000180: b10b 063e 1992 933e 6d01 123e 2083 5fbe

rnn.weight_hh_l1 f4 [10, 10]
1.0656651 -0.44648346 0.52210605 -0.32139364 0.9291341 0.70218253 -0.055779938 0.33229724
-0.7680329 -0.6889016 -0.7780074 0.8467871 -0.38849205 0.72238964 -0.70324105 -0.8045334
0.074576125 -0.20907848 0.74120635 0.39622986 0.16773228 0.09963561 1.0894256 -0.32915434
0.018688107 0.40940583 -0.81357354 0.6830403 0.042474892 -0.8998116 -0.47663254 1.2514038
-0.47478223 1.3847144 -0.35819283 -1.393891 -0.02164034 -0.40623972 0.42060435 0.47918916
1.1388855 -0.37125248 0.44763023 -0.26209226 0.87069136 1.0583854 -0.01602609 0.29049584
-0.7304473 -0.59374 0.5911391 -0.631348 -0.09368481 -0.66588837 0.85705566 0.7743678
-0.31084734 0.38724416 -0.34562552 -0.3460895 -0.19180268 -0.3334176 -0.48925918 0.51326084
-0.042084288 -0.44329768 0.95135576 -0.47175017 0.38044792 0.68459994 0.018088888 0.1228345
0.6637471 -0.22680849 0.085997336 0.055748582 -0.8493287 0.5435174 -0.18662575 -0.587659
-0.9741871 0.20870252 -0.29613677 0.5642851 -1.2745764 -0.46946317 0.18086347 -0.41565686
1.7639929 0.49918342 0.18487592 -0.29056326 -0.5500497 0.19907835 0.24992034 -0.0711713
0.8677633 -0.9452014 0.077786595 0.7879609
00000000: b767 883f 7b99 e4be bea8 053f b58d a4be
00000010: bbdb 6d3f 3cc2 333f 8179 64bd dd22 aa3e
00000020: ce9d 44bf db5b 30bf 7e2b 47bf 0ac7 583f
00000030: 6ee8 c6be 87ee 383f 9b07 34bf e7f5 4dbf
00000040: 5ebb 983d ab18 56be b3bf 3d3f a4de ca3e
00000050: 03c2 2b3e c10d cc3d 4c72 8b3f eb86 a8be
00000060: cd17 993c a49d d13e 5b46 50bf bbdb 2e3f
00000070: 27fa 2d3d 0e5a 66bf 2e09 f4be 002e a03f
00000080: a816 f3be 523e b13f 0d65 b7be 056b b2bf
00000090: 1547 b1bc a7fe cfbe 7459 d73e 4858 f53e
000000a0: 00c7 913f ce14 bebe ca2f e53e f530 86be
000000b0: a1e5 5e3f 2c79 873f 2649 83bc dfbb 943e
000000c0: 98fe 3abf 58ff 17bf e454 173f 06a0 21bf
000000d0: d2dd bfbd a977 2abf 0068 5b3f f83c 463f
000000e0: 6227 9fbe de44 c63e d4f5 b0be a532 b1be
000000f0: ec67 44be b6b5 aabe 2e80 fabe 1065 033f
00000100: 9360 2cbd eaf7 e2be 0d8c 733f 3d89 f1be
00000110: 12ca c23e f141 2f3f 262f 943c a890 fb3d
00000120: 54eb 293f 7c40 68be 5f1f b03d a058 643d
00000130: 9b6d 59bf f523 0b3f d21a 3fbe d270 16bf
00000140: 5364 79bf 1db6 553e 3d9f 97be fd74 103f
00000150: 5225 a3bf 7a5d f0be 4634 393e fad0 d4be
00000160: 85ca e13f f894 ff3e 1d50 3d3e b5c4 94be
00000170: 0fd0 0cbf 32db 4b3e 1eeb 7f3e 42c2 91bd
00000180: bc25 5e3f b8f8 71bf 944e 9f3d ceb7 493f

rnn.bias_ih_l1 f4 [10]
0.057663657 -0.08369103 0.2293965 0.13385677 0.028154505 0.5784788 0.64874625 -0.59187037
0.07949214 -0.09807195
00000000: ba30 6c3d 3466 abbd ebe6 6a3e c011 093e
00000010: 47a4 e63c 3017 143f 3c14 263f d184 17bf
00000020: c6cc a23d f2d9 c8bd

rnn.bias_hh_l1 f4 [10]
0.39540657 0.14070341 0.45209527 0.11902277 0.4922858 0.18559371 0.7250284 -0.84929764
0.053121075 -0.15861662
00000000: bb72 ca3e 8e14 103e 0879 e73e 36c2 f33d
00000010: e20c fc3e 470c 3e3e 769b 393f 926b 59bf
00000020: 7c95 593d 656c 22be

fc1.weight f4 [20, 10]
-4.164407 4.2865467 -4.1390576 4.851001 -4.165029 -4.093996 4.640984 -4.8503003
4.467402 4.4193883 -0.16493727 0.106741376 0.2251135 -0.13373463 0.25095809 -0.24569206
-0.14977877 0.35017604 -0.055197023 -0.14244008 -0.07449283 0.35091755 -0.069984965 0.048650656
0.05571264 0.07248336 0.0054137227 0.38110805 -0.082644224 -0.07924084 -0.046680517 -0.0710214
-0.0026554954 -0.018667819 -0.027026892 -0.21602464 -0.045827266 0.10751372 -0.19314663 0.14890945
-0.097301014 0.039300337 -0.23633158 -0.008171254 0.12579785 -0.20170899 -0.24708751 -0.01377332
0.25640938 -0.28819138 -3.704069 4.5983133 -4.261731 4.508264 -4.190636 -3.9993124
4.465277 -4.318322 4.6133313 4.404993 -4.0087724 4.5619316 -4.0322247 4.85658
-3.7203798 -3.9028103 4.582757 -4.4109445 4.168235 4.614179 -1.2623092 1.7501817
-1.8016381 2.5254784 -1.116281 -1.7983685 1.9965276 -1.979138 2.1962311 2.3907192
6.075929 -5.428764 -4.782617 -4.2947125 6.114052 5.682153 5.668333 -5.7085457
-5.321577 5.4838037 5.6801963 -5.5359697 -4.872813 -5.127072 5.9839363 6.107477
5.6748176 -5.673332 -5.0413675 5.624532 -0.25708103 0.13277982 -0.022069423 -0.16062945
0.07585905 0.027664632 -0.080579445 0.3248852 0.023408417 -0.048338104 -3.8302412 4.2211514
-4.2932744 5.0015893 -3.914618 -3.8741343 4.735294 -4.544291 4.214701 4.751879
5.67689 -5.236541 -4.8473444 -4.690276 6.1253467 5.453364 5.4930573 -5.723534
-5.4750853 5.514038 -3.913465 4.6086097 -4.4165373 4.4565864 -4.266346 -3.8264718
4.4877787 -4.835125 4.4538555 4.7049756 -4.098081 4.6965046 -4.104187 4.9141755
-4.161332 -3.8239717 4.712203 -4.705149 4.5517354 4.5454893 0.018714983 -0.074657366
0.21743006 0.034297753 0.10237051 -0.13543582 -0.12384563 0.25418305 0.27012306 0.10333202
-4.100037 4.4039063 -4.4275107 4.5867705 -3.764219 -4.0503416 4.307441 -4.476904
4.428347 4.807772 -0.36823636 0.1613288 0.36330327 -0.22162977 0.121567644 -0.036492813
-0.28758428 -0.054938447 -0.027721584 0.123008475 5.938151 -5.4548583 -4.7465663 -4.7678084
6.0097227 5.763325 5.4510508 -5.8107166 -5.364416 5.703577 5.8829293 -5.5045547
-4.7187486 -4.535591 5.956733 5.3312044 5.948644 -5.407777 -5.1938663 5.708668
00000000: d242 85c0 642b 8940 2973 84c0 663b 9b40
00000010: eb47 85c0 0402 83c0 f182 9440 a935 9bc0
00000020: f5f4 8e40 a16b 8d40 51e5 28be 399b da3d
00000030: 2784 663e bbf1 08be 947d 803e b396 7bbe
00000040: 9b5f 19be 464a b33e 4616 62bd d0db 11be
00000050: b28f 98bd 77ab b33e 4754 8fbd e945 473d
00000060: f032 643d 2872 943d 9965 b13b 9820 c33e
00000070: 6041 a9bd 0649 a2bd 1234 3fbd ab73 91bd
00000080: d207 2ebb 41ed 98bc 8067 ddbc 9035 5dbe
00000090: 5fb5 3bbd 2730 dc3d 3bc8 45be b87b 183e
000000a0: c145 c7bd 64f9 203d e800 72be b9e0 05bc
000000b0: 27d1 003e cd8c 4ebe 8204 7dbe 7ea9 61bc
000000c0: 1748 833e d28d 93be 770f 6dc0 6225 9340
000000d0: 1a60 88c0 b343 9040 b119 86c0 bcf4 7fc0
000000e0: 8de3 8e40 b22f 8ac0 69a0 9340 b4f5 8c40
000000f0: dd47 80c0 58fb 9140 fc07 81c0 1a69 9b40
00000100: b41a 6ec0 a5c7 79c0 f2a5 9240 7526 8dc0
00000110: 2e62 8540 5ba7 9340 5993 a1bf f405 e03f
00000120: 149c e6bf 70a1 2140 4ce2 8ebf f030 e6bf
00000130: 378e ff3f 6554 fdbf 0d8f 0c40 8b01 1940
00000140: 036e c240 6fb8 adc0 330b 99c0 496e 89c0
00000150: 50a6 c340 33d4 b540 fc62 b540 68ac b6c0
00000160: 5c4a aac0 527b af40 2bc4 b540 aa26 b1c0
00000170: 16ee 9bc0 f910 a4c0 687c bf40 7470 c340
00000180: 1b98 b540 f08b b5c0 e252 a1c0 2bfc b340
00000190: 20a0 83be 6ff7 073e efca b4bc 0c7c 24be
000001a0: fd5b 9b3d f0a0 e23c d606 a5bd 5a57 a63e
000001b0: 02c3 bf3c 2dfe 45bd ac22 75c0 ac13 8740
000001c0: 8162 89c0 050d a040 1a89 7ac0 d1f1 77c0
000001d0: 8787 9740 d56a 91c0 d5de 8640 650f 9840
000001e0: 15a9 b540 be91 a7c0 721d 9bc0 be16 96c0
000001f0: d702 c440 f581 ae40 20c7 af40 3127 b7c0
00000200: e633 afc0 0073 b040 3676 7ac0 bb79 9340
00000210: 4654 8dc0 5b9c 8e40 e885 88c0 eae4 74c0
00000220: e29b 8f40 58b9 9ac0 fc85 8e40 298f 9640
00000230: 7b23 83c0 c449 9640 8055 83c0 ed40 9d40
00000240: a229 85c0 f4bb 74c0 5eca 9640 9590 96c0
00000250: d1a7 9140 a674 9140 2a50 993c f6e5 98bd
00000260: fca5 5e3e cd7b 0c3d a1a7 d13d b0af 0abe
00000270: c7a2 fdbd 4824 823e 924d 8a3e bd9f d33d
00000280: 8133 83c0 cdec 8c40 2bae 8dc0 d3c6 9240
00000290: f7e8 70c0 669c 81c0 8fd6 8940 cc42 8fc0
000002a0: 05b5 8d40 45d9 9940 7a89 bcbe 6033 253e
000002b0: e302 ba3e eaf2 62be 75f8 f83d 7d79 15bd
000002c0: 3f3e 93be 2307 61bd 6018 e3bc deeb fb3d
000002d0: 5505 be40 338e aec0 dfe3 97c0 e391 98c0
000002e0: a64f c040 296d b840 026f ae40 64f1 b9c0
000002f0: 4ca9 abc0 b483 b640 f540 bc40 5025 b0c0
00000300: fdff 96c0 9023 91c0 8f9d be40 3a99 aa40
00000310: 4b5b be40 820c adc0 2734 a6c0 69ad b640

fc1.bias f4 [20]
4.3921337 -0.032077234 -0.31434196 -0.38058108 -0.22065678 4.8551064 4.620448 1.920992
5.69557 5.9410977 0.16290022 4.599385 5.6273904 4.7274194 4.5416546 -0.26613018
4.396139 -0.21732973 5.7974167 5.480529
00000000: 5c8c 8c40 6b63 03bd 6ef1 a0be 86db c2be
00000010: daf3 61be 085d 9b40 b6da 9340 11e3 f53f
00000020: 1c42 b640 791d be40 51cf 263e 292e 9340
00000030: 9513 b440 0547 9740 3c55 9140 3742 88be
00000040: 2cad 8c40 af8b 5ebe 7084 b940 7e60 af40

output.weight f4 [1, 20]
4.6923337 0.02803803 -0.49411705 -0.3361831 -0.20748557 4.74704 4.829059 2.1930778
5.887773 5.707848 0.055546537 4.771382 5.8745503 4.669509 4.686027 0.051174633
4.7842593 0.022161143 5.886098 5.922495
00000000: 9927 9640 03b0 e53c e9fc fcbe 3120 acbe
00000010: 1977 54be c0e7 9740 a787 9a40 635b 0c40
00000020: a368 bc40 b1a6 b640 c484 633d 29af 9840
00000030: 51fc bb40 9e6c 9540 eff3 9540 7e9c 513d
00000040: a718 9940 498b b53c ea5a bc40 1485 bd40

exp_avg f4 [10, 2]
0.0 0.0 0.0 0.0 0.2926819 0.010724133 0.0 0.0
0.0 0.0 0.0 0.0 0.0 0.0 0.0 0.0
0.0 0.0 0.0 0.0
00000000: 0000 0000 0000 0000 0000 0000 0000 0000
00000010: 67da 953e 46b4 2f3c 0000 0000 0000 0000
00000020: 0000 0000 0000 0000 0000 0000 0000 0000
00000030: 0000 0000 0000 0000 0000 0000 0000 0000
00000040: 0000 0000 0000 0000 0000 0000 0000 0000

exp_avg_sq f4 [10, 2]
0.0 0.0 0.0 0.0 573919.0 4243.0635 0.0 0.0
0.0 0.0 0.0 0.0 0.0 0.0 0.0 0.0
0.0 0.0 0.0 0.0
00000000: 0000 0000 0000 0000 0000 0000 0000 0000
00000010: f01d 0c49 8298 8445 0000 0000 0000 0000
00000020: 0000 0000 0000 0000 0000 0000 0000 0000
00000030: 0000 0000 0000 0000 0000 0000 0000 0000
00000040: 0000 0000 0000 0000 0000 0000 0000 0000

exp_avg f4 [10, 10]
0.0 0.0 0.0 0.0 0.0 0.0 0.0 0.0
0.0 0.0 0.0 0.0 0.0 0.0 0.0 0.0
0.0 0.0 0.0 0.0 6e-45 6e-45 -6e-45 -6e-45
6e-45 6e-45 6e-45 6e-45 -6e-45 6e-45 0.0 0.0
0.0 0.0 0.0 0.0 0.0 0.0 0.0 0.0
0.0 0.0 0.0 0.0 0.0 0.0 0.0 0.0
0.0 0.0 0.0 0.0 0.0 0.0 0.0 0.0
0.0 0.0 0.0 0.0 0.0 0.0 0.0 0.0
0.0 0.0 0.0 0.0 0.0 0.0 0.0 0.0
0.0 0.0 0.0 0.0 0.0 0.0 0.0 0.0
0.0 0.0 0.0 0.0 0.0 0.0 0.0 0.0
0.0 0.0 0.0 0.0 0.0 0.0 0.0 0.0
0.0 0.0 0.0 0.0
00000000: 0000 0000 0000 0000 0000 0000 0000 0000
00000010: 0000 0000 0000 0000 0000 0000 0000 0000
00000020: 0000 0000 0000 0000 0000 0000 0000 0000
00000030: 0000 0000 0000 0000 0000 0000 0000 0000
00000040: 0000 0000 0000 0000 0000 0000 0000 0000
00000050: 0400 0000 0400 0000 0400 0080 0400 0080
00000060: 0400 0000 0400 0000 0400 0000 0400 0000
00000070: 0400 0080 0400 0000 0000 0000 0000 0000
00000080: 0000 0000 0000 0000 0000 0000 0000 0000
00000090: 0000 0000 0000 0000 0000 0000 0000 0000
000000a0: 0000 0000 0000 0000 0000 0000 0000 0000
000000b0: 0000 0000 0000 0000 0000 0000 0000 0000
000000c0: 0000 0000 0000 0000 0000 0000 0000 0000
000000d0: 0000 0000 0000 0000 0000 0000 0000 0000
000000e0: 0000 0000 0000 0000 0000 0000 0000 0000
000000f0: 0000 0000 0000 0000 0000 0000 0000 0000
00000100: 0000 0000 0000 0000 0000 0000 0000 0000
00000110: 0000 0000 0000 0000 0000 0000 0000 0000
00000120: 0000 0000 0000 0000 0000 0000 0000 0000
00000130: 0000 0000 0000 0000 0000 0000 0000 0000
00000140: 0000 0000 0000 0000 0000 0000 0000 0000
00000150: 0000 0000 0000 0000 0000 0000 0000 0000
00000160: 0000 0000 0000 0000 0000 0000 0000 0000
00000170: 0000 0000 0000 0000 0000 0000 0000 0000
00000180: 0000 0000 0000 0000 0000 0000 0000 0000

exp_avg_sq f4 [10, 10]
0.0 0.0 0.0 0.0 0.0 0.0 0.0 0.0
0.0 0.0 0.0 0.0 0.0 0.0 0.0 0.0
0.0 0.0 0.0 0.0 0.035041876 0.035041876 0.002617362 0.035041876
0.035041876 0.035041876 0.035041876 0.035041876 0.035041876 0.035041876 0.0 0.0
0.0 0.0 0.0 0.0 0.0 0.0 0.0 0.0
0.0 0.0 0.0 0.0 0.0 0.0 0.0 0.0
0.0 0.0 0.0 0.0 0.0 0.0 0.0 0.0
0.0 0.0 0.0 0.0 0.0 0.0 0.0 0.0
0.0 0.0 0.0 0.0 0.0 0.0 0.0 0.0
0.0 0.0 0.0 0.0 0.0 0.0 0.0 0.0
0.0 0.0 0.0 0.0 0.0 0.0 0.0 0.0
0.0 0.0 0.0 0.0 0.0 0.0 0.0 0.0
0.0 0.0 0.0 0.0
00000000: 0000 0000 0000 0000 0000 0000 0000 0000
00000010: 0000 0000 0000 0000 0000 0000 0000 0000
00000020: 0000 0000 0000 0000 0000 0000 0000 0000
00000030: 0000 0000 0000 0000 0000 0000 0000 0000
00000040: 0000 0000 0000 0000 0000 0000 0000 0000
00000050: 1288 0f3d 1288 0f3d 0c88 2b3b 1288 0f3d
00000060: 1288 0f3d 1288 0f3d 1288 0f3d 1288 0f3d
00000070: 1288 0f3d 1288 0f3d 0000 0000 0000 0000
00000080: 0000 0000 0000 0000 0000 0000 0000 0000
00000090: 0000 0000 0000 0000 0000 0000 0000 0000
000000a0: 0000 0000 0000 0000 0000 0000 0000 0000
000000b0: 0000 0000 0000 0000 0000 0000 0000 0000
000000c0: 0000 0000 0000 0000 0000 0000 0000 0000
000000d0: 0000 0000 0000 0000 0000 0000 0000 0000
000000e0: 0000 0000 0000 0000 0000 0000 0000 0000
000000f0: 0000 0000 0000 0000 0000 0000 0000 0000
00000100: 0000 0000 0000 0000 0000 0000 0000 0000
00000110: 0000 0000 0000 0000 0000 0000 0000 0000
00000120: 0000 0000 0000 0000 0000 0000 0000 0000
00000130: 0000 0000 0000 0000 0000 0000 0000 0000
00000140: 0000 0000 0000 0000 0000 0000 0000 0000
00000150: 0000 0000 0000 0000 0000 0000 0000 0000
00000160: 0000 0000 0000 0000 0000 0000 0000 0000
00000170: 0000 0000 0000 0000 0000 0000 0000 0000
00000180: 0000 0000 0000 0000 0000 0000 0000 0000

exp_avg f4 [10]
0.0 0.0 0.0028984142 0.0 0.0 0.0 0.0 0.0
0.0 0.0
00000000: 0000 0000 0000 0000 52f3 3d3b 0000 0000
00000010: 0000 0000 0000 0000 0000 0000 0000 0000
00000020: 0000 0000 0000 0000

exp_avg_sq f4 [10]
0.0 0.0 0.49748573 0.0 0.0 0.0 0.0 0.0
0.0 0.0
00000000: 0000 0000 0000 0000 73b6 fe3e 0000 0000
00000010: 0000 0000 0000 0000 0000 0000 0000 0000
00000020: 0000 0000 0000 0000

exp_avg f4 [10]
0.0 0.0 0.0028984142 0.0 0.0 0.0 0.0 0.0
0.0 0.0
00000000: 0000 0000 0000 0000 52f3 3d3b 0000 0000
00000010: 0000 0000 0000 0000 0000 0000 0000 0000
00000020: 0000 0000 0000 0000

exp_avg_sq f4 [10]
0.0 0.0 0.49748573 0.0 0.0 0.0 0.0 0.0
0.0 0.0
00000000: 0000 0000 0000 0000 73b6 fe3e 0000 0000
00000010: 0000 0000 0000 0000 0000 0000 0000 0000
00000020: 0000 0000 0000 0000

exp_avg f4 [10, 10]
184.53485 184.53485 -184.53485 -184.53485 184.53485 184.53485 184.53485 184.53485
-184.53485 184.53485 815.8468 815.8468 -815.84717 -815.84717 815.84717 815.84717
815.84717 815.84717 -815.84717 815.84717 179520.33 179520.33 -179520.33 -179520.33
179520.33 179520.33 179520.33 179520.33 -179520.33 179520.33 -673.65314 -673.65314
673.6538 673.6534 -673.6534 -673.6534 -673.6534 -673.6534 673.6534 -673.6534
-124.47952 -124.47952 124.47954 124.47952 -124.47952 -124.47952 -124.47952 -124.47952
124.47952 -124.47952 1869.2266 1869.2266 -1869.2274 -1869.2274 1869.2274 1869.2274
1869.2274 1869.2274 -1869.2274 1869.2274 -0.054401055 -0.054401055 0.05440108 0.054401055
-0.054401055 -0.054401055 -0.054401055 -0.054401055 0.054401055 -0.054401055 0.00034470533 0.00034470533
-0.00034471307 -0.00034470466 0.00034470466 0.00034470466 0.00034470466 0.00034470466 -0.00034470466 0.00034470466
288.51764 288.51764 -288.51764 -288.51764 288.51764 288.51764 288.51764 288.51764
-288.51764 288.51764 -2921.7734 -2921.7734 2921.7793 2921.7744 -2921.7744 -2921.7744
-2921.7744 -2921.7744 2921.7744 -2921.7744
00000000: ec88 3843 ec88 3843 ec88 38c3 ec88 38c3
00000010: ec88 3843 ec88 3843 ec88 3843 ec88 3843
00000020: ec88 38c3 ec88 3843 32f6 4b44 32f6 4b44
00000030: 38f6 4bc4 38f6 4bc4 38f6 4b44 38f6 4b44
00000040: 38f6 4b44 38f6 4b44 38f6 4bc4 38f6 4b44
00000050: 1550 2f48 1550 2f48 1550 2fc8 1550 2fc8
00000060: 1550 2f48 1550 2f48 1550 2f48 1550 2f48
00000070: 1550 2fc8 1550 2f48 cd69 28c4 cd69 28c4
00000080: d869 2844 d169 2844 d169 28c4 d169 28c4
00000090: d169 28c4 d169 28c4 d169 2844 d169 28c4
000000a0: 84f5 f8c2 84f5 f8c2 86f5 f842 84f5 f842
000000b0: 84f5 f8c2 84f5 f8c2 84f5 f8c2 84f5 f8c2
000000c0: 84f5 f842 84f5 f8c2 40a7 e944 40a7 e944
000000d0: 47a7 e9c4 47a7 e9c4 47a7 e944 47a7 e944
000000e0: 47a7 e944 47a7 e944 47a7 e9c4 47a7 e944
000000f0: a4d3 5ebd a4d3 5ebd abd3 5e3d a4d3 5e3d
00000100: a4d3 5ebd a4d3 5ebd a4d3 5ebd a4d3 5ebd
00000110: a4d3 5e3d a4d3 5ebd 91b9 b439 91b9 b439
00000120: 9bba b4b9 7ab9 b4b9 7ab9 b439 7ab9 b439
00000130: 7ab9 b439 7ab9 b439 7ab9 b4b9 7ab9 b439
00000140: 4242 9043 4242 9043 4242 90c3 4242 90c3
00000150: 4242 9043 4242 9043 4242 9043 4242 9043
00000160: 4242 90c3 4242 9043 609c 36c5 609c 36c5
00000170: 789c 3645 649c 3645 649c 36c5 649c 36c5
00000180: 649c 36c5 649c 36c5 649c 3645 649c 36c5

exp_avg_sq f4 [10, 10]
3.3907507e+08 3.3907507e+08 3.3907504e+08 3.3907507e+08 3.3907507e+08 3.3907507e+08 3.3907507e+08 3.3907507e+08
3.3907507e+08 3.3907507e+08 5.166422e+09 5.166422e+09 5.1664164e+09 5.1664225e+09 5.1664225e+09 5.1664225e+09
5.1664225e+09 5.1664225e+09 5.1664225e+09 5.1664225e+09 8.77709e+11 8.77709e+11 8.77709e+11 8.77709e+11
8.77709e+11 8.77709e+11 8.77709e+11 8.77709e+11 8.77709e+11 8.77709e+11 6.9587927e+09 6.9587927e+09
6.9587584e+09 6.9587927e+09 6.9587927e+09 6.9587927e+09 6.9587927e+09 6.9587927e+09 6.9587927e+09 6.9587927e+09
1.31983176e+08 1.31983176e+08 1.3198316e+08 1.31983176e+08 1.31983176e+08 1.31983176e+08 1.31983176e+08 1.31983176e+08
1.31983176e+08 1.31983176e+08 3.0752276e+09 3.0752276e+09 3.075227e+09 3.0752271e+09 3.0752271e+09 3.0752271e+09
3.0752271e+09 3.0752271e+09 3.0752271e+09 3.0752271e+09 6.886016 6.886016 6.8860135 6.886016
6.886016 6.886016 6.886016 6.886016 6.886016 6.886016 0.21995158 0.21995158
0.21995088 0.21995158 0.21995158 0.21995158 0.21995158 0.21995158 0.21995158 0.21995158
6.7875026e+09 6.7875026e+09 6.787498e+09 6.7875026e+09 6.7875026e+09 6.7875026e+09 6.7875026e+09 6.7875026e+09
6.7875026e+09 6.7875026e+09 1.6291045e+10 1.6291045e+10 1.6291024e+10 1.6291047e+10 1.6291047e+10 1.6291047e+10
1.6291047e+10 1.6291047e+10 1.6291047e+10 1.6291047e+10
00000000: 00af a14d 00af a14d ffae a14d 00af a14d
00000010: 00af a14d 00af a14d 00af a14d 00af a14d
00000020: 00af a14d 00af a14d acf8 994f acf8 994f
00000030: a1f8 994f adf8 994f adf8 994f adf8 994f
00000040: adf8 994f adf8 994f adf8 994f adf8 994f
00000050: 885b 4c53 885b 4c53 885b 4c53 885b 4c53
00000060: 885b 4c53 885b 4c53 885b 4c53 885b 4c53
00000070: 885b 4c53 885b 4c53 6063 cf4f 6063 cf4f
00000080: 1d63 cf4f 6063 cf4f 6063 cf4f 6063 cf4f
00000090: 6063 cf4f 6063 cf4f 6063 cf4f 6063 cf4f
000000a0: e9bc fb4c e9bc fb4c e7bc fb4c e9bc fb4c
000000b0: e9bc fb4c e9bc fb4c e9bc fb4c e9bc fb4c
000000c0: e9bc fb4c e9bc fb4c 404c 374f 404c 374f
000000d0: 3d4c 374f 3e4c 374f 3e4c 374f 3e4c 374f
000000e0: 3e4c 374f 3e4c 374f 3e4c 374f 3e4c 374f
000000f0: 3e5a dc40 3e5a dc40 395a dc40 3e5a dc40
00000100: 3e5a dc40 3e5a dc40 3e5a dc40 3e5a dc40
00000110: 3e5a dc40 3e5a dc40 fd3a 613e fd3a 613e
00000120: ce3a 613e fd3a 613e fd3a 613e fd3a 613e
00000130: fd3a 613e fd3a 613e fd3a 613e fd3a 613e
00000140: 8948 ca4f 8948 ca4f 8048 ca4f 8948 ca4f
00000150: 8948 ca4f 8948 ca4f 8948 ca4f 8948 ca4f
00000160: 8948 ca4f 8948 ca4f 68c1 7250 68c1 7250
00000170: 53c1 7250 6ac1 7250 6ac1 7250 6ac1 7250
00000180: 6ac1 7250 6ac1 7250 6ac1 7250 6ac1 7250

exp_avg f4 [10, 10]
180.74951 183.15094 -181.8023 183.8376 182.25076 180.3732 183.87083 -183.87086
182.98126 184.03944 814.28656 802.42175 274.22134 818.4125 816.7384 798.44574
819.051 -819.051 808.46533 842.659 178036.2 175858.72 4013.5798 178526.11
178738.92 175469.45 179578.47 -179578.47 176844.81 178756.2 -738.4111 -733.00104
-247.78217 -750.9387 -741.27325 -722.5344 -742.49457 742.49414 -739.04926 -816.3604
-127.36615 -125.44246 -3.8973453 -127.471794 -127.7684 -125.21625 -128.28217 128.2822
-126.16743 -127.57574 1853.3268 1844.7383 -151.65283 1867.5605 1862.4215 1831.134
1872.5308 -1872.5319 1852.4071 1880.933 -0.061564237 -0.060608737 -0.019511838 -0.062019575
-0.061760794 -0.06031861 -0.061902046 0.061902035 -0.061121307 -0.06512595 0.0018410506 0.0018627115
0.0009776938 0.001922998 0.0018500377 0.0017849088 0.0018463568 -0.0018463549 0.00187938 0.0023339188
286.28156 282.14087 84.787926 287.95605 287.1918 280.76648 288.00107 -288.00104
284.29742 297.9102 -3742.0 -3679.6353 -1453.4803 -3770.2644 -3753.1653 -3662.4775
-3760.2012 3760.2012 -3712.7559 -3981.5532
00000000: e0bf 3443 a426 3743 64cd 35c3 6dd6 3743
00000010: 3240 3643 8a5f 3443 efde 3743 f1de 37c3
00000020: 34fb 3643 190a 3843 5792 4b44 fe9a 4844
00000030: 551c 8943 669a 4c44 422f 4c44 879c 4744
00000040: 44c3 4c44 44c3 4cc4 c81d 4a44 2daa 5244
00000050: 0ddd 2d48 aebc 2b48 47d9 7a45 8757 2e48
00000060: bb8c 2e48 5d5b 2b48 9e5e 2f48 9e5e 2fc8
00000070: 34b3 2c48 0d91 2e48 4f9a 38c4 1140 37c4
00000080: 3cc8 77c3 14bc 3bc4 7d51 39c4 34a2 34c4
00000090: a79f 39c4 a09f 3944 27c3 38c4 1117 4cc4
000000a0: 78bb fec2 8ae2 fac2 1b6e 79c0 8ff1 fec2
000000b0: 6c89 ffc2 b86e fac2 3c48 00c3 3e48 0043
000000c0: b955 fcc2 c726 ffc2 75aa e744 a097 e644
000000d0: 20a7 17c3 f071 e944 7dcd e844 4ae4 e444
000000e0: fc10 ea44 0511 eac4 078d e744 db1d eb44
000000f0: c82a 7cbd de40 78bd 4ad7 9fbc 3d08 7ebd
00000100: e3f8 7cbd a610 77bd 008d 7dbd fd8c 7d3d
00000110: 565a 7abd c160 85bd 684f f13a 3a26 f43a
00000120: f625 803a 1b0d fc3a f77c f23a 9af3 e93a
00000130: 7401 f23a 6401 f2ba 8755 f63a a9f4 183b
00000140: 0a24 8f43 0812 8d43 6b93 a942 60fa 8f43
00000150: 8d98 8f43 1c62 8c43 2300 9043 2200 90c3
00000160: 1226 8e43 81f4 9443 00e0 69c5 2afa 65c5
00000170: 5faf b5c4 3ba4 6bc5 a592 6ac5 a4e7 64c5
00000180: 3803 6bc5 3803 6b45 180c 68c5 dad8 78c5

exp_avg_sq f4 [10, 10]
2.1507342e+08 3.2197456e+08 2.3758557e+08 3.3812074e+08 2.6351448e+08 1.3441811e+08 3.3855875e+08 3.3855882e+08
3.3677936e+08 3.2649213e+08 4.380065e+09 2.0048008e+09 2.4795858e+09 3.017785e+09 4.3682427e+09 4.31649e+09
4.398302e+09 4.398316e+09 3.535949e+09 2.2062607e+09 8.683935e+11 7.71643e+11 1.6069254e+11 8.61188e+11
8.724743e+11 7.934553e+11 8.7756485e+11 8.775653e+11 8.3188115e+11 8.105229e+11 3.2513068e+09 1.6794865e+09
2.871678e+09 1.01660096e+09 3.2267796e+09 3.1695237e+09 3.2762212e+09 3.2762442e+09 2.1220334e+09 2.0939658e+08
8.218458e+07 1.2394175e+08 9.212644e+07 1.3010077e+08 1.0098303e+08 5.1044244e+07 1.3025156e+08 1.3025156e+08
1.2959553e+08 1.2564403e+08 2.7033638e+09 2.8564618e+09 1.0571607e+09 3.0097994e+09 2.845397e+09 2.2224955e+09
3.0609674e+09 3.060968e+09 2.963578e+09 2.825449e+09 6.805045 6.57231 5.8459945 6.766386
6.8072906 6.724178 6.792285 6.8150854 6.753236 3.8657434 0.16667004 0.1506262
0.106418684 0.16434662 0.16675146 0.16095245 0.1670879 0.16713916 0.16079292 0.11624744
6.2414797e+09 4.881579e+09 5.342512e+09 5.779298e+09 6.235919e+09 6.2244567e+09 6.2477317e+09 6.247742e+09
2.8369667e+09 4.1912402e+09 1.4030285e+10 1.1693911e+10 6.4556667e+09 1.3448794e+10 1.406006e+10 1.2767476e+10
1.4126898e+10 1.4126921e+10 1.3288952e+10 9.380951e+09
00000000: 291c 4d4d 8987 994d 4a94 624d 813a a14d
00000010: 974e 7b4d ec30 004d f96f a14d fb6f a14d
00000020: c396 a04d ffae 9b4d 3e89 824f aafd ee4e
00000030: 7acb 134f bfdf 334f 0c2f 824f 35a4 804f
00000040: 6214 834f 7d14 834f 4dc2 524f de80 034f
00000050: 4930 4a53 82a9 3353 16a8 1552 ce82 4853
00000060: 8523 4b53 9fbd 3853 f152 4c53 f852 4c53
00000070: fbaf 4153 eeb6 3c53 01cb 414f dc35 c84e
00000080: 542a 2b4f 6660 724e c054 404f 18eb 3c4f
00000090: 2b47 434f 8547 434f 52f7 fc4e 36b2 474d
000000a0: 30c1 9c4c 6f66 ec4c 9db7 af4c c425 f84c
000000b0: 1f9c c04c e5b7 424c 656f f84c 656f f84c
000000c0: 112f f74c a0a5 ef4c 0f22 214f 2642 2a4f
000000d0: f80b 7c4e e565 334f 5099 294f 9778 044f
000000e0: a872 364f aa72 364f 9da4 304f ee68 284f
000000f0: eec2 d940 5d50 d240 6312 bb40 3c86 d840
00000100: 53d5 d940 772c d740 665a d940 2e15 da40
00000110: 821a d840 5768 7740 8dab 2a3e c13d 1a3e
00000120: 0af2 d93d 7b4a 283e e5c0 2a3e b8d0 243e
00000130: 1719 2b3e 8726 2b3e e6a6 243e 2313 ee3d
00000140: b602 ba4f 7e7b 914f 2238 9f4f 8b3c ac4f
00000150: 49d8 b94f d680 b94f 6932 ba4f 7d32 ba4f
00000160: ad18 294f 40d1 794f 4a11 5150 bb40 2e50
00000170: d464 c04f 1467 4850 df82 5150 0e40 3e50
00000180: d781 5250 ed81 5250 5405 4650 7dc9 0b50

exp_avg f4 [10]
184.53508 815.84686 179520.34 -673.65314 -124.47952 1869.2268 -0.05440104 0.00034470533
288.5176 -2921.7732
00000000: fb88 3843 33f6 4b44 1650 2f48 cd69 28c4
00000010: 84f5 f8c2 42a7 e944 a0d3 5ebd 91b9 b439
00000020: 4142 9043 5f9c 36c5

exp_avg_sq f4 [10]
3.3907507e+08 5.1664225e+09 8.77709e+11 6.95879e+09 1.31983176e+08 3.075228e+09 6.886016 0.2199516
6.7875036e+09 1.6291047e+10
00000000: 00af a14d adf8 994f 885b 4c53 5b63 cf4f
00000010: e9bc fb4c 414c 374f 3e5a dc40 fe3a 613e
00000020: 8b48 ca4f 6ac1 7250

exp_avg f4 [10]
184.53508 815.84705 179520.34 -673.6529 -124.47952 1869.2256 -0.05440103 0.0003447055
288.51755 -2921.7727
00000000: fb88 3843 36f6 4b44 1650 2f48 c969 28c4
00000010: 84f5 f8c2 38a7 e944 9dd3 5ebd 97b9 b439
00000020: 3f42 9043 5d9c 36c5

exp_avg_sq f4 [10]
3.3907507e+08 5.1664225e+09 8.7770916e+11 6.9587896e+09 1.3198311e+08 3.0752287e+09 6.886016 0.2199516
6.7875026e+09 1.6291047e+10
00000000: 00af a14d adf8 994f 8b5b 4c53 5a63 cf4f
00000010: e1bc fb4c 444c 374f 3e5a dc40 fe3a 613e
00000020: 8948 ca4f 6ac1 7250

exp_avg f4 [20, 10]
-2597.5803 -2552.2363 -422.51337 -2597.0442 -2605.0115 -2551.2754 -2614.515 2614.5156
-2569.2288 -2603.0647 6e-45 -6e-45 6e-45 -6e-45 6e-45 6e-45
6e-45 -6e-45 -6e-45 -6e-45 6e-45 6e-45 -6e-45 6e-45
6e-45 -6e-45 6e-45 -6e-45 -6e-45 6e-45 6e-45 -6e-45
-6e-45 6e-45 6e-45 6e-45 6e-45 -6e-45 -6e-45 6e-45
-6e-45 6e-45 -6e-45 6e-45 -6e-45 -6e-45 6e-45 -6e-45
6e-45 6e-45 -2627.8833 -2582.0098 -427.45074 -2627.3406 -2635.4014 -2581.0374
-2645.0154 2645.0159 -2599.2007 -2633.4314 -2673.2878 -2626.6228 -434.82883 -2672.7363
-2680.9363 -2625.633 -2690.7163 2690.7166 -2644.1104 -2678.9326 -1213.2173 -1192.0476
-196.9801 -1212.9714 -1216.6892 -1191.5934 -1221.1294 1221.1294 -1199.9817 -1215.7833
-3259.713 -3202.8074 -530.34 -3259.0378 -3269.0376 -3201.603 -3280.9634 3280.9634
-3224.1313 -3266.5938 -3160.0742 -3104.9092 -514.1221 -3159.4211 -3169.1147 -3103.741
-3180.6753 3180.676 -3125.5818 -3166.7449 6e-45 -6e-45 -6e-45 -6e-45
6e-45 6e-45 6e-45 -6e-45 -6e-45 6e-45 -2641.359 -2595.2507
-429.6402 -2640.8135 -2648.9153 -2594.273 -2658.5786 2658.579 -2612.5288 -2646.9353
-3252.4082 -3195.6294 -529.1642 -3251.7354 -3261.7126 -3194.4287 -3273.6118 3273.612
-3216.9067 -3259.2737 -2584.947 -2539.824 -420.4616 -2584.414 -2592.3423 -2538.8674
-2601.8005 2601.8005 -2556.7332 -2590.4053 -2594.0708 -2548.7883 -421.92783 -2593.5347
-2601.4912 -2547.828 -2610.9824 2610.9827 -2565.757 -2599.5474 6e-45 -6e-45
6e-45 6e-45 6e-45 6e-45 6e-45 -6e-45 6e-45 6e-45
-2648.5144 -2602.2808 -430.8237 -2647.9675 -2656.0913 -2601.301 -2665.781 2665.782
-2619.606 -2654.1057 6e-45 6e-45 6e-45 6e-45 6e-45 6e-45
6e-45 -6e-45 6e-45 6e-45 -3258.7922 -3201.902 -530.1946 -3258.1174
-3268.115 -3200.6987 -3280.0366 3280.0374 -3223.2212 -3265.671 -3278.9524 -3221.71
-533.4792 -3278.2737 -3288.3323 -3220.499 -3300.3276 3300.328 -3243.1606 -3285.8733
00000000: 4959 22c5 c883 1fc5 b641 d3c3 b550 22c5
00000010: 2fd0 22c5 6874 1fc5 3d68 23c5 4068 2345
00000020: a993 20c5 09b1 22c5 0400 0000 0400 0080
00000030: 0400 0000 0400 0080 0400 0000 0400 0000
00000040: 0400 0000 0400 0080 0400 0080 0400 0080
00000050: 0400 0000 0400 0000 0400 0080 0400 0000
00000060: 0400 0000 0400 0080 0400 0000 0400 0080
00000070: 0400 0080 0400 0000 0400 0000 0400 0080
00000080: 0400 0080 0400 0000 0400 0000 0400 0000
00000090: 0400 0000 0400 0080 0400 0080 0400 0000
000000a0: 0400 0080 0400 0000 0400 0080 0400 0000
000000b0: 0400 0080 0400 0080 0400 0000 0400 0080
000000c0: 0400 0000 0400 0000 223e 24c5 2860 21c5
000000d0: b2b9 d5c3 7335 24c5 6cb6 24c5 9950 21c5
000000e0: 3f50 25c5 4150 2545 3673 22c5 e796 24c5
000000f0: 9b14 27c5 f729 24c5 176a d9c3 c80b 27c5
00000100: fb8e 27c5 211a 24c5 762b 28c5 772b 2845
00000110: c441 25c5 ec6e 27c5 f4a6 97c4 8601 95c4
00000120: e8fa 44c3 169f 97c4 0e16 98c4 fdf2 94c4
00000130: 24a4 98c4 24a4 9844 6aff 95c4 11f9 97c4
00000140: 68bb 4bc5 eb2c 48c5 c395 04c4 9bb0 4bc5
00000150: 9a50 4cc5 a619 48c5 6a0f 4dc5 6a0f 4d45
00000160: 1a82 49c5 8029 4cc5 3081 45c5 8c0e 42c5
00000170: d087 00c4 bd76 45c5 d611 46c5 dbfb 41c5
00000180: ceca 46c5 d1ca 4645 4f59 43c5 ebeb 45c5
00000190: 0400 0000 0400 0080 0400 0080 0400 0080
000001a0: 0400 0000 0400 0000 0400 0000 0400 0080
000001b0: 0400 0080 0400 0000 be15 25c5 0334 22c5
000001c0: f2d1 d6c3 040d 25c5 a58e 25c5 5e24 22c5
000001d0: 4229 26c5 4429 2645 7648 23c5 f76e 25c5
000001e0: 8846 4bc5 12ba 47c5 824a 04c4 c43b 4bc5
000001f0: 67db 4bc5 dca6 47c5 ca99 4cc5 cb99 4c45
00000200: 820e 49c5 61b4 4bc5 278f 21c5 2fbd 1ec5
00000210: 163b d2c3 a086 21c5 7a05 22c5 e1ad 1ec5
00000220: cf9c 22c5 cf9c 2245 bbcb 1fc5 7ce6 21c5
00000230: 2221 22c5 9d4c 1fc5 c3f6 d2c3 8e18 22c5
00000240: dc97 22c5 3f3d 1fc5 b82f 23c5 b92f 2345
00000250: 1d5c 20c5 c278 22c5 0400 0000 0400 0080
00000260: 0400 0000 0400 0000 0400 0000 0400 0000
00000270: 0400 0000 0400 0080 0400 0000 0400 0000
00000280: 3b88 25c5 7ea4 22c5 6f69 d7c3 7b7f 25c5
00000290: 7601 26c5 d194 22c5 7f9c 26c5 839c 2645
000002a0: b2b9 23c5 b1e1 25c5 0400 0000 0400 0000
000002b0: 0400 0000 0400 0000 0400 0000 0400 0000
000002c0: 0400 0000 0400 0080 0400 0000 0400 0000
000002d0: adac 4bc5 6f1e 48c5 748c 04c4 e1a1 4bc5
000002e0: d741 4cc5 2e0b 48c5 9600 4dc5 9900 4d45
000002f0: 8a73 49c5 bc1a 4cc5 3def 4cc5 5c5b 49c5
00000300: ab5e 05c4 61e4 4cc5 5185 4dc5 fc47 49c5
00000310: 3e45 4ec5 3f45 4e45 92b2 4ac5 f95d 4dc5

exp_avg_sq f4 [20, 10]
6.622307e+07 6.4427336e+07 4.950754e+07 6.736153e+07 6.738607e+07 5.9615544e+07 6.8413064e+07 6.841307e+07
6.6463336e+07 6.5627332e+07 0.01597181 0.015964905 0.0152552035 0.015957812 0.015971819 0.015968492
0.015945477 0.015969673 0.015971528 0.007973245 0.00010480842 6.760086e-05 0.00010637055 0.0001152053
0.00010669034 6.884105e-05 0.00011163746 0.00011520956 0.00011441468 0.000115194576 3.8233207e-05 1.986481e-05
3.43654e-05 3.9276463e-05 3.846575e-05 1.8159048e-05 3.7282396e-05 3.927855e-05 3.9107086e-05 3.9271097e-05
2.3634055e-08 2.1386365e-08 1.29488615e-08 6.7354833e-09 3.3415805e-08 7.7836065e-10 4.7456613e-08 4.8172012e-08
3.8546922e-08 5.4729674e-09 6.781633e+07 6.597698e+07 5.069854e+07 6.898242e+07 6.900754e+07 6.104951e+07
7.005929e+07 7.00593e+07 6.8062584e+07 6.720634e+07 7.015907e+07 6.825633e+07 5.2449988e+07 7.136522e+07
7.139137e+07 6.3158684e+07 7.247924e+07 7.247927e+07 7.041363e+07 6.9528e+07 1.3704023e+07 1.3326303e+07
1.0223027e+07 1.3932345e+07 1.394185e+07 1.2346996e+07 1.4152179e+07 1.4152184e+07 1.3744531e+07 1.357628e+07
1.0999515e+08 1.0650633e+08 8.242582e+07 1.11731224e+08 1.1183328e+08 9.953574e+07 1.1345459e+08 1.1345467e+08
1.0997839e+08 1.0784855e+08 1.0329333e+08 1.0001673e+08 7.7399224e+07 1.0492248e+08 1.0501899e+08 9.347185e+07
1.06541256e+08 1.06541304e+08 1.0327615e+08 1.0127701e+08 3.9863477e-07 3.6661166e-07 1.482805e-07 3.3020567e-07
4.178408e-07 2.7213727e-07 1.8640223e-07 4.4528613e-07 4.138237e-07 3.4867188e-07 6.8506184e+07 6.6647596e+07
5.1213284e+07 6.968385e+07 6.9709416e+07 6.167076e+07 7.077175e+07 7.077176e+07 6.8754744e+07 6.7889784e+07
1.0956299e+08 1.06088056e+08 8.210263e+07 1.1129267e+08 1.1139397e+08 9.9143864e+07 1.13008984e+08 1.1300905e+08
1.0954668e+08 1.07424984e+08 6.5591492e+07 6.3811484e+07 4.903312e+07 6.6718896e+07 6.674352e+07 5.9047336e+07
6.776059e+07 6.776061e+07 6.58292e+07 6.5001252e+07 6.5982756e+07 6.4192796e+07 4.9325588e+07 6.71163e+07
6.714142e+07 5.9400216e+07 6.816432e+07 6.8164344e+07 6.6221304e+07 6.5388744e+07 5.161587e-06 7.8429605e-07
4.779095e-06 4.2289807e-06 5.1097154e-06 4.4494695e-06 5.318192e-06 5.318216e-06 1.024497e-06 1.2200551e-06
6.896216e+07 6.7092628e+07 5.1557856e+07 7.01486e+07 7.017379e+07 6.207987e+07 7.1243576e+07 7.1243624e+07
6.9213736e+07 6.834245e+07 1.6609973 1.2946315 1.044989 1.6203393 1.6637301 1.5248768
1.6678971 1.6679057 1.6414315 0.73588955 1.0994893e+08 1.0646147e+08 8.23903e+07 1.1168419e+08
1.1178609e+08 9.94933e+07 1.1340665e+08 1.1340671e+08 1.0993186e+08 1.078031e+08 1.1134919e+08 1.0781769e+08
8.344116e+07 1.13107e+08 1.1321022e+08 1.0076046e+08 1.1485156e+08 1.148516e+08 1.1133254e+08 1.0917641e+08
00000000: f89e 7c4c 52c5 754c 35db 3c4c 5f7b 804c
00000010: 5b87 804c 4e6a 634c d17c 824c d27c 824c
00000020: 9a89 7d4c 3159 7a4c 50d7 823c d5c8 823c
00000030: f6f0 793c f5b9 823c 55d7 823c 5bd0 823c
00000040: 17a0 823c d5d2 823c b9d6 823c 37a2 023c
00000050: 98cc db38 efc4 8d38 4113 df38 609a f138
00000060: f1be df38 c25e 9038 e81e ea38 a99c f138
00000070: eaf1 ef38 9e94 f138 985c 2038 5ba3 a637
00000080: 9123 1038 c8bc 2438 4956 2138 4254 9837
00000090: ab5f 1c38 06bf 2438 ea06 2438 05b7 2438
000000a0: d603 cb32 1db5 b732 b275 5e32 f06d e731
000000b0: 1185 0f33 43f4 5530 19d3 4b33 b0e5 4e33
000000c0: ca8e 2533 bb0c bc31 7159 814c a5ae 7b4c
000000d0: 4b66 414c d292 834c 169f 834c aae2 684c
000000e0: a3a0 854c a4a0 854c afd1 814c 982f 804c
000000f0: 5cd1 854c 4930 824c b114 484c 4c1e 884c
00000100: 112b 884c 67ee 704c 413e 8a4c 453e 8a4c
00000110: a84d 864c 389d 844c 571b 514b df57 4b4b
00000120: b3fd 1b4b 3997 544b 5abc 544b 7466 3c4b
00000130: f3f1 574b f8f1 574b 93b9 514b 5828 4f4b
00000140: 92cc d14c 0b25 cb4c fc36 9d4c 431c d54c
00000150: 184e d54c 70d9 bd4c c065 d84c ca65 d84c
00000160: 63c4 d14c 6db4 cd4c 3204 c54c 4bc4 be4c
00000170: 97a0 934c ae1f c84c ce4e c84c 8d48 b24c
00000180: 1936 cb4c 1f36 cb4c cffb c44c aa2b c14c
00000190: f203 d634 b9d2 c434 0937 1f34 1f47 b134
000001a0: 9a53 e034 431a 9234 db25 4834 a90f ef34
000001b0: 7f2b de34 1931 bb34 49aa 824c 8b3d 7e4c
000001c0: f95c 434c 51e9 844c cdf5 844c 5a41 6b4c
000001d0: 85fc 864c 86fc 864c a723 834c 4f7d 814c
000001e0: 8ef9 d04c cf58 ca4c 2d99 9c4c 2046 d44c
000001f0: 9677 d44c 171a bd4c 2b8c d74c 338c d74c
00000200: 97f1 d04c 9be5 cc4c 3136 7a4c e76b 734c
00000210: e80b 3b4c 2c83 7e4c 389b 7e4c 6a3f 614c
00000220: 3a3e 814c 3c3e 814c 541e 7b4c c9f5 774c
00000230: 49b4 7b4c 47e0 744c 8529 3c4c a203 804c
00000240: e60f 804c 0698 624c 5c03 824c 5f03 824c
00000250: 3e9d 7c4c 3270 794c b231 ad36 6a88 5235
00000260: 1d5c a036 abe6 8d36 1f74 ab36 a74c 9536
00000270: ec72 b236 2173 b236 7381 8935 c6c0 a335
00000280: ee88 834c 25f0 7f4c 78ad 444c 3fcc 854c
00000290: 8cd8 854c e0d0 6c4c e7e2 874c ede2 874c
000002a0: c503 844c 565a 824c 8f9b d43f 7cb6 a53f
000002b0: 33c2 853f 4767 cf3f 1cf5 d43f 2a2f c33f
000002c0: a77d d53f ef7d d53f 6d1a d23f 4263 3c3f
000002d0: 00b6 d14c 240f cb4c a425 9d4c 4c05 d54c
000002e0: 0d37 d54c b6c4 bd4c 574e d84c 5f4e d84c
000002f0: aaad d14c 3c9e cd4c b961 d44c 5ba5 cd4c
00000300: c126 9f4c 07bc d74c 6eee d74c 722f c04c
00000310: dd0f db4c e20f db4c 9859 d44c cb3c d04c

exp_avg f4 [20]
-2614.5159 6e-45 6e-45 6e-45 6e-45 -2645.016 -2690.7173 -1221.1294
-3280.9644 -3180.6763 6e-45 -2658.5793 -3273.6118 -2601.8003 -2610.983 6e-45
-2665.7817 6e-45 -3280.0374 -3300.3286
00000000: 4168 23c5 0400 0000 0400 0000 0400 0000
00000010: 0400 0000 4250 25c5 7a2b 28c5 24a4 98c4
00000020: 6e0f 4dc5 d2ca 46c5 0400 0000 4529 26c5
00000030: ca99 4cc5 ce9c 22c5 ba2f 23c5 0400 0000
00000040: 829c 26c5 0400 0000 9900 4dc5 4245 4ec5

exp_avg_sq f4 [20]
6.841308e+07 0.015971899 0.000115243856 3.9297458e-05 5.3853896e-08 7.0059304e+07 7.247929e+07 1.4152188e+07
1.13454696e+08 1.0654134e+08 4.5633575e-07 7.077177e+07 1.1300905e+08 6.7760616e+07 6.816435e+07 5.318222e-06
7.124364e+07 1.6679088 1.1340672e+08 1.1485162e+08
00000000: d37c 824c 80d7 823c 13af f138 53d3 2438
00000010: fc4c 6733 a5a0 854c 473e 8a4c fcf1 574b
00000020: cd65 d84c 2436 cb4c 4ffe f434 87fc 864c
00000030: 338c d74c 3d3e 814c 6003 824c 2e73 b236
00000040: efe2 874c 097e d53f 604e d84c e40f db4c

exp_avg f4 [1, 20]
-10421.387 -6e-45 -6e-45 -6e-45 -6e-45 -10617.975 -10815.271 -5690.866
-13717.671 -13482.664 -6e-45 -10942.678 -13063.538 -10825.586 -11026.604 6e-45
-10397.269 -6e-45 -13445.767 -13227.11
00000000: 8cd5 22c6 0400 0080 0400 0080 0400 0080
00000010: 0400 0080 e6e7 25c6 16fd 28c6 eed6 b1c5
00000020: af56 56c6 a8aa 52c6 0400 0080 b6fa 2ac6
00000030: 271e 4cc6 5826 29c6 6a4a 2cc6 0400 0000
00000040: 1375 22c6 0400 0080 1117 52c6 71ac 4ec6

exp_avg_sq f4 [1, 20]
1.2574506e+09 0.7324971 1.9742894e-05 6.1783874e-05 1.374799e-10 1.3096076e+09 1.3374612e+09 3.1806496e+08
2.420974e+09 2.372583e+09 5.457039e-05 1.3861859e+09 2.2343025e+09 1.3678843e+09 1.3925792e+09 9.665277e-09
1.271348e+09 11.923496 2.3476424e+09 2.2715945e+09
00000000: 59e6 954e ee84 3b3f 8b9d a537 f791 8138
00000010: 2729 172f 0d1e 9c4e 1470 9f4e 4aaa 974d
00000020: 224d 104f be6a 0d4f 83e2 6438 093f a54e
00000030: c02c 054f 8410 a34e 2502 a64e 560c 2632
00000040: 768e 974e a4c6 3e41 2eee 0b4f c865 074f
