models/11/model-Bakery.pth (torch, 34898 bytes, 45 tensors)

rnn.weight_ih_l0 f4 [10, 6]
00000000: 82fb 07be b77f b13c 7760 623e 055e 783e
00000010: 7970 10bd b0ef 2c3d 37a8 04bd 673c 70be
00000020: 24d6 85be 0b7f de3d 973c f7bc da7d 283e
00000030: 27d0 713d 93b5 3ebd df26 283e c915 a83d
00000040: d16a 36bd 3eba 06be fc9b 30be f909 d0bd
00000050: ea77 03be adef cd3d db77 3a3e 8495 843d
00000060: b1b0 533e c6d2 6ebe 0d20 67be cd87 41bd
00000070: 1ff3 923e 2ea8 ff3d d887 62bd 2690 aabe
00000080: ee5a 733e e2ec 2a3e 92fe 56be 13fd 00be
00000090: a50c 1abd e546 75bd d255 6f3e ae9d a0be
000000a0: c54e 04be 4bb2 903e 355f e83d 213a 18bd
000000b0: 556b 99bc 21cf 2ebc b943 39be 5183 983d
000000c0: a89c ecbd 55ff 983e f317 773e d261 6cbe
000000d0: 1834 28be 0955 993d 9e8f 2bbe a311 69be
000000e0: 2326 92be f94b 78be 0026 84be f7bd e03d
-0.13279536 0.021667344 0.22107111 0.24254616 -0.035263512 0.04222077 -0.032386985 -0.23460542
-0.2613994 0.10864075 -0.030180259 0.16454259 0.0590364 -0.04655988 0.16421078 0.0820728
-0.04453546 -0.13156983 -0.17247003 -0.10158152 -0.12838712 0.1005548 0.18209784 0.0647383
0.20672871 -0.23322591 -0.2257082 -0.04724865 0.28701112 0.124832496 -0.055305332 -0.33313102
0.23765156 0.16691926 -0.20995548 -0.1259654 -0.037609715 -0.059882063 0.23372582 -0.313703
-0.12920673 0.28261027 0.11346284 -0.03716481 -0.018727938 -0.010669501 -0.1809224 0.074469216
-0.11553317 0.29882303 0.2413023 -0.2308419 -0.16426122 0.07486922 -0.16754004 -0.22760634
-0.2854472 -0.24247731 -0.25810242 0.10973733

rnn.weight_hh_l0 f4 [10, 10]
00000000: 427c 943e a728 2abe eace f8bc b12b 133c
00000010: 143e 7bbe 1efd 80be c901 12be fa3e a0be
00000020: 4479 8a3e 48c2 39be ff97 5e3e c198 4abe
00000030: da4d 6bbe 2256 503e 229e 36be c25c 723e
00000040: 776b 08be 36bc 2abe 081b 523e 7803 c6bc
00000050: 616c 1ebe a544 67be 2e38 d93d 33a4 1fbe
00000060: 5c88 2f3e b762 653e 32ac 1fbd 3bfb 473e
00000070: 4ffc 9b3e 840f 043d e4a5 e33d 4c2d 83be
00000080: 4f8e a53d a734 11bd 9fcd 57bb 129a 0f3e
00000090: 89d8 813e a86d 8bbe 41d3 423e 0bff 85be
000000a0: 9870 97bd 08cb 263e a576 07be 431a 88be
000000b0: c7f2 77bd f02e e4bc 2441 973e 3e49 2f3e
000000c0: 3c26 75be eab2 9e3e 9d58 ab3e a285 78be
000000d0: b98c 8fbe 920a e03d d949 b4be e46c fe3d
000000e0: d3f3 453d bf5a 5b3c 61ae 8bbc 7b4b b23e
000000f0: dc87 313e f744 663d 3ce5 99be b233 33be
00000100: 94f7 363d ab5d 80be 165c b53d f078 07bd
00000110: 7965 333e d981 083e fe87 823e cb74 25be
00000120: 027b 9d3c 717b a0bd dad2 bfbd 04ae 163e
00000130: 4eae 8a3e 3a18 4cbe 91eb 513e 5d7a 75bc
00000140: bbdf aebd b1eb 0ebe 9586 ecbc f8f8 983e
00000150: aeac 90be 731b 6c3e f832 89be f3f7 493e
00000160: 2c78 2f3e b10b c0bd bd09 e73c edd4 71be
00000170: ad98 d1bd b44c 7ebc eeca 7d3e 6ea1 543e
00000180: cc37 8b3e eace 48be 918d 873e 9829 583e
0.2900105 -0.1661707 -0.030372102 0.008982585 -0.245354 -0.25193113 -0.14258493 -0.31298047
0.27045643 -0.18140519 0.2173767 -0.19784833 -0.22978917 0.20345357 -0.1783376 0.23668197
-0.13322245 -0.1667336 0.20518124 -0.024171576 -0.15471031 -0.2258478 0.106064186 -0.15589981
0.1714186 0.22400938 -0.038982578 0.1952943 0.30465934 0.03224136 0.111156255 -0.25620496
0.08083784 -0.035450604 -0.0032928956 0.14023617 0.25360516 -0.272321 0.190259 -0.26171145
-0.073945224 0.16288388 -0.13228853 -0.26582536 -0.060534265 -0.027854413 0.29541886 0.17117783
-0.23940367 0.30995876 0.33466044 -0.24269727 -0.2803705 0.10939516 -0.3521259 0.12423113
0.048328232 0.013388335 -0.017050924 0.34823212 0.17336982 0.056218114 -0.30057704 -0.17500189
0.044669703 -0.25071463 0.088554546 -0.03307432 0.17519177 0.13330783 0.2549438 -0.16157834
0.019223694 -0.078360446 -0.093663886 0.14714819 0.2708611 -0.19931117 0.20500018 -0.014982787
-0.08538767 -0.13957097 -0.028872767 0.29877448 -0.28256744 0.23057346 -0.267967 0.19723491
0.17135686 -0.0937723 0.028202886 -0.23616381 -0.10234199 -0.015521217 0.24784443 0.20764706
0.27191007 -0.19610181 0.26475194 0.21109617

rnn.bias_ih_l0 f4 [10]
00000000: 504b 1cbe f854 0ebe de1b 363e efe0 82be
00000010: b3ca c13d dbff 9abe 33a1 6a3e 34c1 8cbb
00000020: 9b9b 163e 12c7 0bbb
-0.15263104 -0.138996 0.17784068 -0.25562236 0.0946249 -0.30273327 0.22913055 -0.0042954925
0.14707796 -0.0021328372

rnn.bias_hh_l0 f4 [10]
00000000: dda6 cdbb 2d28 8f3e 40e3 31be 9974 9fbd
00000010: 751f 233e ba4c 32be bac2 02be 5d42 e73d
00000020: f4b7 7c3e a94c 98be
-0.006275995 0.2796034 -0.17371845 -0.07785911 0.15929969 -0.17412081 -0.12769595 0.11291955
0.24679548 -0.29745987

rnn.weight_ih_l1 f4 [10, 10]
00000000: f07b 353f 5c19 ca3e 4a4b 76be b6e4 383f
00000010: 2edb 79be 3309 033f 66d9 8d3e fe1c c2be
00000020: 6ff1 9a3e 6af0 f93e e0f6 873e 3e57 2c3e
00000030: f13d 97bd b7ff f33e 81a1 a9be 0623 323e
00000040: ed54 ab3c ba8a 48be d580 e73e 8616 303e
00000050: 8644 123d e8f1 25be c56a d13e 61f8 04bf
00000060: ea44 c73e 442b 903a f40c 39be 244d 273e
00000070: a2dc 0cbf 609a 9ebe 0e76 edbe f805 8ebe
00000080: e351 df3e 7d09 f8bd 76d7 dc3e da7c 06bf
00000090: 728d 9dbc 8d2b 0d3e df53 edbe 6745 96bd
000000a0: b931 4ebe e155 22be f1f0 78be 605e 1c3d
000000b0: 736f 9abe 8562 cfbd 4431 c53e cd9a 2abe
000000c0: c10d 8bbd 52e4 3b3d efaa 023d b49a 8b3e
000000d0: 27b1 edbe fdfc 46bc aa1b d4be 0d26 4d3e
000000e0: 55af d03e 18be b8be aa18 003f fef6 d63d
000000f0: e218 1fbf 02d8 11bf 59ce 0f3e 2ec3 1dbf
00000100: d450 223f c1d5 1abf 9c5b 12be 3821 303f
00000110: 0433 12bf 1b89 14bf cffc 8e3b a45c bc3e
00000120: 530f 93bb d858 433e 7823 0cbf c352 7b3d
00000130: 33fb 053f c415 023d 5e96 c23d da59 f83e
00000140: e45e 053e df52 3d3f e37c 15bf fa79 d13e
00000150: 13c8 20bf 5be6 893e b3e0 143f 17dd 8cbe
00000160: e8b3 b83e 2c0d 2a3f 3329 123f 5795 e33e
00000170: 2715 29bf a5b9 a43e 9b83 c9be d012 5a3e
00000180: d8c7 493e d7f7 1bbf c1ff ac3e 2c83 0f3f
0.7089224 0.39472473 -0.24052158 0.72223985 -0.24400017 0.5118591 0.27704924 -0.37912744
0.30262324 0.48816234 0.26555538 0.16830155 -0.07384861 0.47656032 -0.3313103 0.17396173
0.02091452 -0.1958417 0.4521548 0.17196092 0.03570988 -0.16205561 0.4090177 -0.51941496
0.38919765 0.0010999222 -0.18071347 0.1633802 -0.5502416 -0.30977154 -0.4637913 -0.2773893
0.43617162 -0.12111185 0.43133134 -0.5253426 -0.019232485 0.13786145 -0.4635305 -0.07337456
-0.20136155 -0.15853073 -0.24310662 0.03817594 -0.30163154 -0.10126213 0.3851415 -0.16660614
-0.06789733 0.04587204 0.031901296 0.27266467 -0.4642422 -0.012145278 -0.41427356 0.20034046
0.40758768 -0.3608253 0.50037634 0.10496329 -0.62147343 -0.56970227 0.14043559 -0.61625946
0.63404584 -0.6048241 -0.14292759 0.6880069 -0.57109094 -0.58021706 0.004363633 0.3678943
-0.004487911 0.1907686 -0.5474162 0.061358225 0.52336425 0.03175904 0.095013365 0.4850605
0.13024479 0.73954576 -0.58393687 0.40913373 -0.6280529 0.2693356 0.58155364 -0.27512428
0.36074758 0.6642635 0.57094115 0.44449875 -0.660479 0.32172886 -0.3935822 0.21296239
0.1970514 -0.6092505 0.33788875 0.5605953

rnn.weight_hh_l1 f4 [10, 10]
00000000: 3b98 57be fbe7 6b3e 8fdd 9abe 88e8 fa3e
00000010: e452 f83e 683e 3c3f 406b 35be 5968 053f
00000020: 25f5 173f f148 3d3f 535f edbd 84ed 10bf
00000030: f712 47be d925 043f f5e5 e53e ff3b b93e
00000040: 187e 41bf ddc4 e9be 4b68 053e 8f45 453e
00000050: 04e1 733e f012 3c3f ef1d 52bd 3d48 29bf
00000060: 091a 4ebe e845 2ebe 364d 133f 50d8 f73e
00000070: f61e 943e 84d4 0bbf b640 cfbe 0d75 4c3f
00000080: 6853 4dbf d62e 6bbf 53a6 ef3f d22c db3f
00000090: a925 87bf 085a 723f 84c9 5c3f e1c4 b03f
000000a0: e18f 63be d66c b23e 140a bebe bf33 be3d
000000b0: c0c9 be3e 6119 0d3f f70e 07be 7400 c93e
000000c0: 2466 373f 204b 3e3f 6062 dbbe 6791 62be
000000d0: 3508 66be 9a9f 13bf bf14 773e e347 b93d
000000e0: d07f 8ebf 488c bb3d 287c a0bc 1e46 f43d
000000f0: 2a60 5abe 3532 f5bd fff4 073f 4e88 30bf
00000100: eac0 96be 2993 09be 1c53 473e ec55 09bf
00000110: ea4c ebbe b52d bdbe 5ac5 01bf b8a4 84bd
00000120: 174e b8be 9b33 19bf 9e2c 9e3e 55d3 db3e
00000130: 2cd4 20bf 8a96 90be 6c08 e53e 20f3 be3e
00000140: bd5c e4be fdc4 503e 4d31 16bf a673 313f
00000150: 599b 5dbe a961 1e3f f4bd 19be a56c a33e
00000160: 2b4b 06bf 3b3c 0ebd bb03 09bf e160 0a3d
00000170: b3ef 45be 6755 a8bf 3b67 a1bd 79d0 88be
00000180: 2b11 79bf aa26 523d 4009 ed3d aa65 5abe
-0.21054165 0.23037712 -0.3024716 0.49005532 0.4850074 0.73532724 -0.17716694 0.52112347
0.59358436 0.73939425 -0.11590447 -0.5661242 -0.19440828 0.5162025 0.44902006 0.36178586
-0.7558303 -0.45658007 0.13028066 0.19264816 0.23816305 0.73466396 -0.05129808 -0.6612585
-0.20127119 -0.17018855 0.5753969 0.4840722 0.2892987 -0.5462115 -0.40479058 0.79866105
-0.8020539 -0.9186834 1.8722633 1.7123053 -1.0558368 0.94668627 0.8624499 1.3810083
-0.22222854 0.3484866 -0.37117064 0.092872135 0.37263298 0.5511685 -0.13189302 0.39258158
0.7164023 0.7433338 -0.42848492 -0.22125779 -0.22464068 -0.5766541 0.24129008 0.090469144
-1.1132755 0.09157616 -0.019590452 0.11927436 -0.21325746 -0.11972467 0.5310821 -0.68957984
-0.29444057 -0.13435043 0.19465297 -0.5364673 -0.45957118 -0.36948934 -0.5069176 -0.0647673
-0.35997078 -0.5984437 0.30893415 0.4293467 -0.6282375 -0.28239852 0.44732988 0.37294865
-0.44602004 0.20387645 -0.5866898 0.6931709 -0.21641292 0.6186777 -0.15013868 0.31918827
-0.5245845 -0.03472541 -0.5352132 0.033783797 -0.19329719 -1.3151063 -0.07881018 -0.26721552
-0.9729182 0.051306404 0.1157403 -0.21327844

rnn.bias_ih_l1 f4 [10]
00000000: 21f3 17bf ef76 a23d 6d5c 7a3e c529 4e3e
00000010: c2b8 ee3b 94d6 b0be 8eed fe3e d8fb 44be
00000020: ff0f 3bbf fb4c dcbe
-0.5935536 0.07932841 0.2444932 0.20133121 0.0072852084 -0.3453871 0.49790615 -0.19236696
-0.73071283 -0.4302748

rnn.bias_hh_l1 f4 [10]
00000000: d865 91be 6dd5 c4bd cec9 f73e a492 e93e
00000010: 63f8 c2be e5c0 e6be 3df7 783e 7843 eabe
00000020: d5a9 abbe 58f3 11bf
-0.28398013 -0.0961102 0.48396152 0.4561969 -0.3808013 -0.45069042 0.24313064 -0.457546
-0.3352801 -0.5701194

fc1.weight f4 [20, 10]
00000000: 5409 85bd c489 a7be ad35 aa3e e451 eebd
00000010: 5da8 2c3d deae b2bc 314b 7fbd 29e3 22bf
00000020: 0ede 8fbe 436c 9cbe 7fca 863e 0ac5 8a3d
00000030: aef2 1abe c35d cb3e d551 09be a977 783f
00000040: bea5 853d 94a2 e03d 3f6a 973d e4dd 013f
00000050: 0c8a cabc b056 da3e 4f3c 19be d86b cd3e
00000060: af7e de3e 1604 8f3d c294 96bd 4934 593e
00000070: 93da 5d3e aaa1 123f 9906 153f 0e53 ac3e
00000080: 7f7c adbe c5ca 85bd 7667 80be ebd0 3d3f
00000090: 6b8a 30bd 6edf 023f 19ce ca3e e742 493f
000000a0: 0dbc 1c3e 58b9 31bf 7282 f33e 0d87 6dbe
000000b0: acce ddbe 1976 ffbe d199 c63e 14f3 10bf
000000c0: d548 2ebf 4dbc 5fbe c437 39bd 748b f43e
000000d0: 03cd a3be 9669 c33e 5818 16bf ea99 0b3f
000000e0: d113 40bd c0a6 103e 4b07 e13e 08a1 713e
000000f0: c5dc f83e 7b46 2c3f 658a 05bf d245 b83d
00000100: 0eea ccbc e53f 3e3f 9694 9b3e 13ba 993e
00000110: 6e6f 0e3f 5cfd 013f 1454 20be f682 16bf
00000120: c89f 0e3f 5fbf 15bf 07cd 05be 3539 62be
00000130: ba77 b03e f8f1 f1be 03e3 53bf e131 ecbe
00000140: fd8b 9f3e a121 5f3e c2ad fabe fa2b 2f3c
00000150: 07b4 d3bd c43b 233f e85c ac3e 6aeb a63e
00000160: dce1 293f ed0c 033f e4d3 f7bb 6962 20bf
00000170: 4827 3f3e b3d4 0bbf 73b7 b3be 528e 66be
00000180: 3829 24be bf42 e6be 110a 40bf b533 9ebe
00000190: 3634 c63d b3de e53e 581e 30bf c1ee 293c
000001a0: 2d5b 4fbe e143 9a3f 0cd2 673d 00ad 713f
000001b0: 3403 423f 18db 273f 7d5e 0e40 73dc db3f
000001c0: ccf5 1fc0 14dd 19c0 12c3 38c0 f994 51c0
000001d0: 5f1d 1940 8c60 843f 27fc 3640 846a 37c0
000001e0: 7acd 54c0 b92d 3dc0 3148 3840 4472 48c0
000001f0: 124a 2ac0 1701 3fc0 1a28 0640 917d 35c0
00000200: d192 1ec0 fb19 39c0 1aa1 06bd 5b8b cebe
00000210: 000d 0f3f 2d70 04be 238d acbe cd28 9f3d
00000220: 9aea 1cbc 123b fdbe fe48 fbbe b74e cdbc
00000230: 9f0e cf3e f912 fa3e e2c1 91bd dd4f 93be
00000240: 8984 fabd 282d f93e 61f1 ddbd 6762 223f
00000250: c7c7 943e a423 373f c309 e4bc a573 8f3e
00000260: cc6a 9fbd 3d02 87be fce4 79bd 480a c53e
00000270: 7f10 55bb 62b9 0b3f a8fd 3e3e aede f93e
00000280: 23c1 983d 325a 393f be60 67bf 6854 96bd
00000290: 77e4 063e be32 4a3f c9e7 8e3d c00b 4f3f
000002a0: a326 b43e 6927 1c3f 7887 a63e 522f 53be
000002b0: fd6b 1c3f ed59 21be b793 8abe 19f5 0fbe
000002c0: e155 0a3d 2d9e 31bf 6fa5 01bf 21ed c73d
000002d0: b276 e23e 462d 1ebf 0489 103f 25da cbbe
000002e0: 7181 03be cdd7 81be 783a 3b3e af96 04bf
000002f0: 2c89 7fbe c5c2 4ebe c6a8 ec3d 353d e73e
00000300: 82a5 01bf c124 cf3d d0cd 863d 4f28 383f
00000310: db8d 25be 115c b53e eb86 a23e b104 c93e
-0.0649592 -0.32722294 0.33244076 -0.11636713 0.04215275 -0.021811899 -0.062327567 -0.6362787
-0.28099102 -0.30551347 0.26326367 0.067758635 -0.15131637 0.39719972 -0.13410123 0.97057587
0.065257534 0.10968509 0.07393312 0.50729203 -0.024724029 0.42644262 -0.14964412 0.4012134
0.43456027 0.06983201 -0.07352592 0.21211351 0.2166541 0.5727793 0.5821319 0.33657116
-0.33884045 -0.06532816 -0.25078934 0.7414691 -0.043100756 0.51122177 0.39610365 0.7861771
0.1530611 -0.6942344 0.4756046 -0.23196049 -0.4332174 -0.4989479 0.38789228 -0.5662091
-0.6807988 -0.21849175 -0.045219198 0.47762644 -0.3199235 0.38166493 -0.58630896 0.5453173
-0.0468939 0.1412611 0.43950877 0.23596585 0.48605934 0.67295045 -0.521643 0.08997692
-0.02501395 0.74316245 0.303868 0.30024776 0.5563878 0.5077722 -0.15657073 -0.5879358
0.55712557 -0.58495134 -0.13066493 -0.22092135 0.34466344 -0.4725492 -0.8276827 -0.46131805
0.3116149 0.21790172 -0.48960692 0.010691637 -0.10337072 0.6376307 0.33664632 0.32601482
0.6636026 0.511916 -0.007563101 -0.6265016 0.18667328 -0.5462143 -0.35100898 -0.22515228
-0.16031349 -0.44972798 -0.7501536 -0.30898824 0.09677927 0.4489647 -0.687963 0.010371865
-0.20249625 1.2051965 0.0565968 0.944046 0.7578614 0.65568686 2.224517 1.7176651
-2.4993773 -2.4041185 -2.8869061 -3.2747176 2.3924177 1.0341964 2.8591402 -2.8658762
-3.3250413 -2.9559157 2.8794062 -3.1319742 -2.660771 -2.9844415 2.0961976 -2.835789
-2.477711 -2.8922107 -0.032868482 -0.40340695 0.5587921 -0.12933417 -0.3370143 0.07771454
-0.009577418 -0.4945913 -0.49079126 -0.025061948 0.40440843 0.488426 -0.07117058 -0.28771868
-0.1223231 0.48667264 -0.10837055 0.634314 0.29058668 0.7153876 -0.027836686 0.28017917
-0.07784042 -0.26368895 -0.061009392 0.38484406 -0.0032511053 0.54579747 0.1865145 0.48802704
0.07458713 0.7240325 -0.9038199 -0.07340318 0.1317309 0.78983676 0.06977803 0.80877304
0.35185727 0.60997635 0.3252523 -0.2062352 0.6110228 -0.1575696 -0.27065822 -0.14058341
0.033773307 -0.6938198 -0.50643057 0.097620256 0.44231182 -0.6178783 0.5645907 -0.3981487
-0.12842347 -0.25359955 0.18284023 -0.51792425 -0.2495467 -0.20191486 0.115556285 0.45163885
-0.5064317 0.10114432 0.06582224 0.71936506 -0.16167395 0.35421804 0.3174356 0.39261392

fc1.bias f4 [20]
00000000: 5aaf b53e 714d 10bc a255 e3be 0e6b 323f
00000010: 1009 8ebd 4894 ac3e 1222 1e3f 3a59 e7bd
00000020: 2c53 e53e 0b64 963e 8ec7 833e 6232 3240
00000030: 7c8e 0340 6cdd af3e 2751 743e 433e e83d
00000040: 3270 093e 69ee ba3e af75 c83e 45dc 9f3e
0.35485345 -0.008807526 -0.4440127 0.696946 -0.06935322 0.3370688 0.6177074 -0.112963155
0.44790018 0.29373202 0.25738186 2.7843251 2.0555716 0.3434862 0.23859082 0.113400005
0.13421705 0.36510018 0.39152285 0.3122274

fc2.weight f4 [32, 20]
00000000: 353d 5e3e 9b23 e03e 9ec8 8fbe 5734 8b3e
00000010: 18e6 a23e af75 aa3e a72b 783e b2b5 d83e
00000020: b6be f83e 2a5f 773d 83d3 063f b151 2840
00000030: 3748 d3bf cc4d b23e 29a7 203e 58ca 873d
00000040: 8192 153f eebf 8a3e fc87 39bc 2b73 873e
00000050: 0904 183e 4a30 623e f015 c4be 58cc b63e
00000060: 82ea a93e c2d1 8f3e 9957 2e3f f3dc a53e
00000070: 6ec8 fe3e 6bbc 963e 5bf2 273f dea7 2540
00000080: d14e 2340 5709 8f3e 106c 0b3f 926f 5d3e
00000090: 418e 123f 5deb 943d 0dcb c43e f188 9d3e
000000a0: 812d f4be 67da adbe fec3 91bd 29fa b5be
000000b0: 94eb 16bf cd50 85be 23c5 d6be 38d2 65be
000000c0: 5422 cbbe a9e6 94be 7c89 0cbf b204 75be
000000d0: 6e46 8dbd 87bb 01bf 14dd d8be c751 17bf
000000e0: 169d d2be 8452 bbbe 68bc 01bf 6423 14bf
000000f0: 2558 20be e305 f1be 2707 17bd 8009 54be
00000100: 430e 88be f383 bcbe 6d27 93be c232 e7be
00000110: 4080 d0be 50fd 5abe 725d f4be ea23 1ebe
00000120: a2f4 ab3d a8ed dfbe 20f2 84be 2e98 93be
00000130: da58 dcbd b065 97be 92b0 41be a6c0 48be
00000140: bbb2 403e 2cdb 093f 84a8 4bbe 1dba e03e
00000150: 3367 313e 66c6 233d 973f 283f 9b8b c43e
00000160: 46c9 fd3e 8e9e d23e 8cb6 643f 83c5 3640
00000170: f0b4 2c40 e97f 1f3e 2400 163f 98c5 463e
00000180: 0bdf 013f 3943 e43e b63c c63d 2a00 d53e
00000190: dcad 393f fdc3 b9be 1b92 473e da2a 153d
000001a0: f32f 8d3f 4354 50be 6141 4fbd 77fe 563f
000001b0: db21 9c3d 6165 643f fa10 49be 75eb 883d
000001c0: 0280 0ac0 dfbd 4b3f 9f9e d3bb 6f27 a5be
000001d0: 63e3 683d 3c6e 433f febf 543f 272d 1fbe
000001e0: 955e 793e ea9d 2d3e e790 31be 94f0 053f
000001f0: 5e43 c63e 93c9 db3e 31c8 c93e 35e8 fd3e
00000200: ae22 a13e 2318 ee3e 639c 3f3f b6af 4540
00000210: 6679 3140 4a27 a13e cb97 033f 42db b33e
00000220: 2a76 573f a67e 9a3e aa18 e23e 6fdb a03e
00000230: ee39 ae3f 3bb2 0cbe d05d e8bd b702 593d
00000240: 4478 c43f d1ab 95be 72f0 673e d6ef df3f
00000250: c670 dd3c 73d7 cf3f acfe f73d 3415 3d40
00000260: 4174 3540 bc93 d93f 31ee 41be 9593 9bbe
00000270: e784 1abd d0f4 ca3f 6470 ca3f 6e08 52bc
00000280: 575f bb3f cffd 5ebe 2b4c 86be 50d9 663e
00000290: 49df d03f ca6d 443d f065 063e 3197 b33f
000002a0: 2f06 143e 286d d13f a49b 45bd 0de4 2f40
000002b0: ce4c 2040 782d e43f d087 2c3e 1ea9 6fbe
000002c0: b0b3 bf3c 1d19 b93f dfd6 db3f 8c32 61be
000002d0: 176f 8a3d 1705 c9bb 85a9 223e aa31 2dbe
000002e0: 45f9 2bbe 3e65 223e efad 543d c6ca 0fbe
000002f0: 732f 7e3d 81a1 603e 33ed 1d3d a03a 33be
00000300: 95dc 07be 397a 31be 90ce 52be f75d 72bb
00000310: 5fa5 43be ba6e 56be 23de f3bd 8ccf 2fbd
00000320: d702 5fbe c600 113d 2ce9 77bd 7dcb 4bbb
00000330: 9d88 f1be c01e d8bd 6a7f 8a3d 9176 64be
00000340: ed99 21be 06f6 85be bc85 e0bd 1ffd d2be
00000350: d956 86be 297e 9abe 29f9 b4bd 3a36 ab3d
00000360: 9a69 583e 9155 c2bd 8d83 85be 12ba e6bd
00000370: 0ca0 bb3f 1dd8 05be 9913 133e f3fe aebd
00000380: 321d b73f 2eae 50be c884 3cbe 2b83 ae3f
00000390: bee4 e93d 1631 b73f 5522 0f3d 1991 bb3f
000003a0: ae95 e63f b672 a83f f2c1 0dbe 2f1a 1e3e
000003b0: bfa0 0abc d57f bc3f ca56 a53f d556 0c3e
000003c0: 0748 953e 831f ef3e 66cb 2abe ee3d 383f
000003d0: 9a2b 003f 3dee 833e 4d6f 573f c7a2 883e
000003e0: 3f48 0c3f 1054 bb3d 7547 fd3e 8da3 3040
000003f0: 5936 3340 d3a3 873e 6c24 5d3e 78df 8c3e
0.21703036 0.43777165 -0.28082746 0.2718837 0.31816173 0.3329291 0.24235402 0.42326123
0.48583 0.06039349 0.5266649 2.629986 -1.6506413 0.3482498 0.15688767 0.06630391
0.5842667 0.27099556 -0.011323925 0.26455054 0.1484529 0.22088733 -0.38297987 0.35702777
0.33186728 0.2808972 0.68102413 0.32395133 0.4976229 0.29440627 0.6560418 2.5883708
2.5516856 0.27936813 0.54461765 0.21624592 0.5724831 0.072714545 0.38436165 0.3076854
-0.47690967 -0.3395569 -0.07117461 -0.3554242 -0.58953214 -0.2603821 -0.41947278 -0.22443473
-0.39674628 -0.2908223 -0.54897285 -0.23927572 -0.06898199 -0.5067677 -0.4235617 -0.5910916
-0.41135472 -0.36586392 -0.5067811 -0.578665 -0.15658624 -0.47074804 -0.036872055 -0.20706749
-0.2657338 -0.3681942 -0.28741017 -0.45155913 -0.40722847 -0.21385694 -0.47727543 -0.15443388
0.083962694 -0.43736005 -0.25965977 -0.2882704 -0.107591346 -0.2956977 -0.18915012 -0.1960474
0.1881818 0.53850055 -0.19888502 0.43891993 0.17324524 0.03998413 0.6572203 0.3838776
0.49567622 0.41136593 0.89341044 2.8558052 2.6985435 0.15576138 0.58593965 0.19411314
0.5073096 0.44582537 0.096795484 0.41601688 0.72530913 -0.3628234 0.19489329 0.03641782
1.1030258 -0.20344643 -0.05059946 0.8398203 0.07623645 0.8921719 -0.19635382 0.06685535
-2.164063 0.79586595 -0.006458118 -0.32256648 0.056857478 0.7634008 0.83105457 -0.15544568
0.24352486 0.1695477 -0.17340432 0.5232022 0.38723272 0.42927226 0.39410546 0.49591222
0.3147177 0.4650279 0.74848 3.0888495 2.7730346 0.31475288 0.5140349 0.35128218
0.8416468 0.3017475 0.44159442 0.31417415 1.3611429 -0.13739865 -0.11346018 0.052981105
1.5349202 -0.29232648 0.22650316 1.7495067 0.027031314 1.6237625 0.12109122 2.9544191
2.8352206 1.699821 -0.18938519 -0.30386034 -0.0377244 1.5855961 1.5815549 -0.012819393
1.463847 -0.21776508 -0.26229987 0.22543836 1.6318141 0.047956266 0.13124824 1.4030515
0.14455484 1.6361437 -0.048244134 2.748294 2.5046878 1.7826376 0.16848683 -0.23404357
0.023401111 1.4460789 1.7174948 -0.21991938 0.0675947 -0.00613464 0.15884979 -0.16913477
-0.16794308 0.15858933 0.05192369 -0.14042196 0.06205697 0.21936609 0.03855629 -0.17502832
-0.13267739 -0.1733178 -0.2058661 -0.0036982277 -0.19106053 -0.20940676 -0.119076036 -0.04292254
-0.21778427 0.03540113 -0.060525104 -0.003109663 -0.4717454 -0.1055274 0.067625836 -0.22310854
-0.15781374 -0.26164263 -0.10963008 -0.4120874 -0.26238135 -0.30174378 -0.08836586 0.08359952
0.21134034 -0.09488977 -0.26076928 -0.11265959 1.4658217 -0.13070722 0.14362945 -0.085447215
1.4305785 -0.20378944 -0.18410027 1.3633779 0.11420582 1.4311855 0.03494485 1.4653655
1.8014429 1.3160007 -0.13843516 0.15439676 -0.008461176 1.4726511 1.2917111 0.13704999
0.29156515 0.4670373 -0.16679153 0.719695 0.5006653 0.257677 0.84154207 0.2668669
0.5479774 0.09146893 0.4946858 2.7599823 2.800192 0.26492175 0.21595925 0.27514243

fc2.bias f4 [32]
00000000: a764 b63e 8a56 8d3e 8d3a f4be cb3f e9be
00000010: ab07 0b3f 93bc 233d 26f0 e93e ce16 6e3d
00000020: 2103 c83d 7463 babc bb96 e1be 9c94 c73f
00000030: a355 403f 2568 583f 0418 553f a7a6 ab3f
00000040: 1b12 e63e 9c1b b43e c4b9 ed3f e5c6 12be
00000050: 51ac 313f cde7 633f 3e4f 0bbe 8e48 35be
00000060: b8e4 66be 17cd 563f 35a2 bbbe b809 3d3f
00000070: e486 e33e 52d1 cb3e 5a87 ba3d d939 173e
0.35623667 0.27605087 -0.4770092 -0.45556483 0.54308575 0.03997476 0.4569103 0.058127217
0.09766222 -0.022752501 -0.4406031 1.5592227 0.7513067 0.8453391 0.8323977 1.3410233
0.44935688 0.35177314 1.8572316 -0.14333685 0.6940356 0.89025575 -0.13604447 -0.17703459
-0.22548187 0.8390669 -0.36647192 0.73842955 0.4443885 0.39808136 0.091078475 0.14768161

fc3.weight f4 [16, 32]
00000000: 39a0 dbbe 0e82 3dbe 0f4c 21be cfc2 e33d
00000010: 00ad 15be 4bdf bb3d bf14 bebe 086b 42be
00000020: ed19 9ebe 7dc5 0e3e 6cab 473c 3fc3 303e
00000030: 8668 48be 97ec d8be 7821 c9be 96c8 1dbe
00000040: f012 0bbe e65c b2be 041b 1bbe 4766 01be
00000050: 109c dabe 94f4 9cbe 919f d6bd 67d5 23be
00000060: ab23 c53d c32f cebe 1fdd 94bc 53bb fbbd
00000070: 9751 efbe b593 c0be 8cec db3c 2ef4 9abe
00000080: 2a53 553d 9840 1fbb 676f fabd 34d3 0bbe
00000090: e2da 5b3b ee47 173e 8aae 253e 859f f4bd
000000a0: e7f3 f3bd 9300 1dbe 3e69 253e 9b8d 2fbd
000000b0: 60a5 cfbd d419 683d c0c0 b2bc ad4e 61bd
000000c0: 8010 90bd 8093 15be 0e2a 303e 8ab2 0fbe
000000d0: 95e8 69be 9ed3 af3c 4595 82bc 6d3b 7b3c
000000e0: 3053 d8bc d4a1 62be a9b8 313e 69c9 1b3d
000000f0: fc3f 99bd 9fe6 12be d643 083e 9193 d2bd
00000100: a76e d4bd 1a2a f3bc 1f11 d53d bb64 03be
00000110: 61fb cebd 00b5 56bc 2f53 b5bd e1e8 203d
00000120: f749 e8bd 318a 163e 9b10 f63a 3f24 383d
00000130: c9bf c9bc 3d45 f73d 1759 c73c afd5 5a3c
00000140: caef 843d c351 2cbd d00e 053e 2139 d13c
00000150: 9335 72bd ba81 903d ab34 af3d 2976 5ebd
00000160: 560c b63d 383c 18be 7190 a1bb 9814 b1bd
00000170: 81bc 473d 31c2 d6bd 58da aabd 37bc fe38
00000180: ed61 92be 050c f4bc b924 03bf 0da6 833e
00000190: dade 9fbe 730e 6cbd c0b1 86be 70c5 b0be
000001a0: 1b60 26be fa7e a73d 6325 323e 0305 8b3d
000001b0: 03c6 32bd 93c2 d33b dec3 0ebe 5cec 753f
000001c0: 2928 3f3d aad4 60be 596a ed3c acee 52be
000001d0: b387 f23d 5e18 e93d 86ef 103e a6a7 87bc
000001e0: f361 2cbe 77a8 1fbe fed1 e7bd f81a f8bd
000001f0: bf1f 633d 1224 89be e545 89bd 590e f6bd
00000200: 50b3 8bbe ee03 d33e 2319 83be ff07 443e
00000210: 0086 983e fdfa e8bc 7bd8 103f 8b52 4a3f
00000220: 568b 273f 3e9a e0bd 9b94 923d a2fa f93f
00000230: 2504 af3e e605 023f 32f3 bd3e 332b 0140
00000240: f623 383f 5b9f 1e3f a191 f63f cb75 acbe
00000250: 12b6 fb3e 30c5 f13e 8470 073d 6e39 f03c
00000260: 8daa 4dbd 24ac 1a3f c1b1 803d 9a4a 083f
00000270: 4ec5 be3e f6ac 013f 30d5 323e 1cb4 49be
00000280: 9e7e 043d 9d56 db3d 1bdc bebe 8ee6 4b3e
00000290: 5826 a53e c5dc 4c3b 6d70 8b3e 5ea2 f13e
000002a0: 87d5 d93e 40cc f3bd 1a38 8cbc 4fe4 da3f
000002b0: 409d a23e 57e1 f33e c969 c43e 88f4 b33f
000002c0: 7695 e73e 516f 1a3f 234a 1040 e913 543d
000002d0: df7d f13e d823 df3e ae24 a23d e0da ebbc
000002e0: 99fe 5c3d af8c b13e e5c4 b0bd f110 f33e
000002f0: af04 133e 3e20 bc3e 2477 b9bd dc2c 3abd
00000300: e1d0 acbd 222b eb3d be61 aabe 4ba1 7a3e
00000310: f575 2f3e 515e 54be 7e83 783e d17d cb3e
00000320: b58a 8c3e 6fc5 d33d 85ef 3f3d c53b b43f
00000330: 10f4 0a3c 65af 773e 2234 8c3e 7ba3 a43f
00000340: 745b 073f 076d 5c3e 8e1b 0d40 8d55 d83c
00000350: 205c a73e 9c91 973e cce9 2b3d 7825 bdbd
00000360: a2c6 9b3d c6e8 653e 8339 943c 7211 9d3e
00000370: e959 6b3e 0480 2c3e 1399 38bd 8196 7abe
00000380: 9d2a f53d 66ef e63d e34d 92bd 7ba2 0cbe
00000390: 5529 e2bc c68a 6b3d f54d 15be 97ef 3b3d
000003a0: 11df d33c 54cd 2a3e 53d4 193d 47b2 6cbd
000003b0: 55d1 9a3d fbed 90bd b44a 2abe 3d1b 543d
000003c0: a2e3 a0bd ea78 0bbd a0d2 963d fa05 093c
000003d0: 8239 40be 958e 4cbc 1c55 7abd 65a6 fcbc
000003e0: 2c5c aebd b386 cf3d 3deb 233e 3b09 1fbe
000003f0: a20d 9f3c 3b86 7cbc 866d cabd 1a8c 15be
-0.42895678 -0.18506643 -0.1575167 0.11121141 -0.14616776 0.09173449 -0.37125203 -0.18986142
-0.30879155 0.13942523 0.012186866 0.1726198 -0.19571123 -0.42368004 -0.39283347 -0.15408549
-0.13581443 -0.348365 -0.15147024 -0.12636672 -0.4269719 -0.30655348 -0.104796536 -0.15999375
0.09625944 -0.40270814 -0.018171845 -0.12291589 -0.46741936 -0.37612692 0.026846193 -0.3026442
0.052081265 -0.0024299975 -0.122282796 -0.13654786 0.0033547212 0.14773533 0.16179863 -0.119444884
-0.11911755 -0.1533225 0.16153428 -0.042859655 -0.10138965 0.056665257 -0.021820426 -0.05500667
-0.07034397 -0.14607048 0.17203543 -0.14032951 -0.22842629 0.021463212 -0.015940318 0.015333992
-0.026406854 -0.22132045 0.17355599 0.038033877 -0.07482907 -0.14345787 0.13307127 -0.10282052
-0.10372668 -0.029683162 0.10403656 -0.12831394 -0.101065405 -0.013104677 -0.08853757 0.03928459
-0.11342233 0.14701153 0.0018773259 0.044956442 -0.024627583 0.12073753 0.024334474 0.01335661
0.06491049 -0.04207016 0.12993932 0.025539936 -0.059133124 0.070559934 0.085549675 -0.054311905
0.08889072 -0.14866722 -0.004930549 -0.08646506 0.048763756 -0.10486258 -0.08342427 0.000121467216
-0.28590336 -0.029790888 -0.5122791 0.25712624 -0.3122471 -0.057630967 -0.26307487 -0.34525633
-0.16247599 0.08178516 0.17397074 0.06788065 -0.04364587 0.006462404 -0.13941905 0.9606378
0.04666916 -0.21956125 0.028981375 -0.20598859 0.11842289 0.11381601 0.14153871 -0.016559433
-0.1683424 -0.15591608 -0.1131935 -0.12114519 0.055450197 -0.26785332 -0.067027844 -0.12014455
-0.27285242 0.41213936 -0.25605115 0.19143675 0.29789734 -0.028439993 0.56580323 0.790322
0.65446985 -0.10966919 0.071572505 1.9529612 0.3418285 0.5079025 0.37099606 2.0182617
0.7192987 0.6196191 1.9263192 -0.3368362 0.49162346 0.47220755 0.033066288 0.02932426
-0.050211478 0.60418916 0.06283904 0.5323883 0.37259907 0.5065454 0.17464137 -0.19697613
0.032347314 0.107098795 -0.37277302 0.19912168 0.32255816 0.0031259519 0.27234212 0.4719419
0.4254572 -0.11904192 -0.017116595 1.7100924 0.31760597 0.47632858 0.38361958 1.4059
0.45231217 0.60326105 2.254525 0.0517768 0.47166345 0.43582034 0.07917152 -0.028790891
0.05395374 0.34677646 -0.08631305 0.47473863 0.14357255 0.3674335 -0.090559274 -0.045452937
-0.08438278 0.11482836 -0.33277696 0.24475591 0.17134841 -0.20739104 0.2426891 0.39744428
0.27449575 0.10340392 0.046859283 1.408074 0.008481041 0.24188001 0.27383524 1.286239
0.5287392 0.21525966 2.2048068 0.026407981 0.32687473 0.2960328 0.041971013 -0.09235662
0.076062456 0.22452077 0.01809383 0.30677372 0.22983517 0.16845709 -0.045067858 -0.24471475
0.119710185 0.112761304 -0.07143762 -0.13733856 -0.0276076 0.05750539 -0.1458052 0.045882788
0.025863202 0.16679889 0.037556004 -0.057787206 0.07559458 -0.07076641 -0.1663006 0.05178379
-0.078559175 -0.03405086 0.07364392 0.008363241 -0.18771937 -0.012485166 -0.061116323 -0.030841062
-0.08513674 0.10133114 0.16007705 -0.15530865 0.01941568 -0.015412862 -0.09884171 -0.14604226

fc3.bias f4 [16]
00000000: c755 e3be 1580 9abd 4e32 e3bd 2f0c 573f
00000010: 3cd8 9e3f d9e0 c03f 616b bd3f 1c9e 6bbe
00000020: 9496 9f3f c47f 953c 011b 7d3f 4bd4 3b3d
00000030: b1e8 88be 0b1e 6e3d fc1a 22be 951d ee3d
-0.4440138 -0.07543961 -0.11093579 0.84002966 1.240974 1.5068618 1.4798394 -0.23009533
1.2467828 0.0182494 0.9886933 0.045856755 -0.2674003 0.05813412 -0.15830606 0.11626736

output.weight f4 [1, 16]
00000000: f024 0f3e b391 85bd 2800 bcbd c635 14be
00000010: 62b9 3a3f 0e1d 033f 80ec bd3e fe08 43be
00000020: 4d9f 60bc ea22 b1bc 3439 08be 2010 f7bc
00000030: d89f 16be ec76 0b3d 9687 383e 00ac 9bbd
0.13978934 -0.065219305 -0.09179717 -0.14473638 0.7293912 0.5121621 0.37094498 -0.19046399
-0.013709855 -0.021623094 -0.13303071 -0.030159056 -0.14709413 0.03404896 0.18020472 -0.07601166

exp_avg f4 [10, 6]
00000000: 0000 0000 0000 0000 0000 0000 0000 0000
00000010: 0000 0000 0000 0000 0000 0000 0000 0000
00000020: 0000 0000 0000 0000 0000 0000 0000 0000
00000030: 0000 0000 0000 0000 0000 0000 0000 0000
00000040: 0000 0000 0000 0000 0000 0000 0000 0000
00000050: 0000 0000 0000 0000 0000 0000 0000 0000
00000060: 0000 0000 0000 0000 0000 0000 0000 0000
00000070: 0000 0000 0000 0000 0400 0000 0400 0000
00000080: 0400 0000 0400 0000 0400 0000 0400 0000
00000090: 0000 0000 0000 0000 0000 0000 0000 0000
000000a0: 0000 0000 0000 0000 0000 0000 0000 0000
000000b0: 0000 0000 0000 0000 0000 0000 0000 0000
000000c0: 0000 0000 0000 0000 0000 0000 0000 0000
000000d0: 0000 0000 0000 0000 0000 0000 0000 0000
000000e0: 0000 0000 0000 0000 0000 0000 0000 0000
0.0 0.0 0.0 0.0 0.0 0.0 0.0 0.0
0.0 0.0 0.0 0.0 0.0 0.0 0.0 0.0
0.0 0.0 0.0 0.0 0.0 0.0 0.0 0.0
0.0 0.0 0.0 0.0 0.0 0.0 6e-45 6e-45
6e-45 6e-45 6e-45 6e-45 0.0 0.0 0.0 0.0
0.0 0.0 0.0 0.0 0.0 0.0 0.0 0.0
0.0 0.0 0.0 0.0 0.0 0.0 0.0 0.0
0.0 0.0 0.0 0.0

exp_avg_sq f4 [10, 6]
00000000: 0000 0000 0000 0000 0000 0000 0000 0000
00000010: 0000 0000 0000 0000 0000 0000 0000 0000
00000020: 0000 0000 0000 0000 0000 0000 0000 0000
00000030: 0000 0000 0000 0000 0000 0000 0000 0000
00000040: 0000 0000 0000 0000 0000 0000 0000 0000
00000050: 0000 0000 0000 0000 0000 0000 0000 0000
00000060: 0000 0000 0000 0000 0000 0000 0000 0000
00000070: 0000 0000 0000 0000 8c17 2c3a 0492 8d36
00000080: 82cf 7336 d8d2 8a36 edd3 d435 4dd1 0036
00000090: 0000 0000 0000 0000 0000 0000 0000 0000
000000a0: 0000 0000 0000 0000 0000 0000 0000 0000
000000b0: 0000 0000 0000 0000 0000 0000 0000 0000
000000c0: 0000 0000 0000 0000 0000 0000 0000 0000
000000d0: 0000 0000 0000 0000 0000 0000 0000 0000
000000e0: 0000 0000 0000 0000 0000 0000 0000 0000
0.0 0.0 0.0 0.0 0.0 0.0 0.0 0.0
0.0 0.0 0.0 0.0 0.0 0.0 0.0 0.0
0.0 0.0 0.0 0.0 0.0 0.0 0.0 0.0
0.0 0.0 0.0 0.0 0.0 0.0 0.0006564788 4.219126e-06
3.6330607e-06 4.137266e-06 1.5856909e-06 1.9195315e-06 0.0 0.0 0.0 0.0
0.0 0.0 0.0 0.0 0.0 0.0 0.0 0.0
0.0 0.0 0.0 0.0 0.0 0.0 0.0 0.0
0.0 0.0 0.0 0.0

exp_avg f4 [10, 10]
00000000: 0000 0000 0000 0000 0000 0000 0000 0000
00000010: 0000 0000 0000 0000 0000 0000 0000 0000
00000020: 0000 0000 0000 0000 0000 0000 0000 0000
00000030: 0000 0000 0000 0000 0000 0000 0000 0000
00000040: 0000 0000 0000 0000 0000 0000 0000 0000
00000050: 0000 0000 0000 0000 0000 0000 0000 0000
00000060: 0000 0000 0000 0000 0000 0000 0000 0000
00000070: 0000 0000 0000 0000 0000 0000 0000 0000
00000080: 0000 0000 0000 0000 0000 0000 0000 0000
00000090: 0000 0000 0000 0000 0000 0000 0000 0000
000000a0: 0000 0000 0000 0000 0000 0000 0000 0000
000000b0: 0000 0000 0000 0000 0000 0000 0000 0000
000000c0: 0000 0000 0000 0000 0400 0080 0400 0080
000000d0: 0400 0000 0400 0080 0400 0000 0400 0000
000000e0: 0400 0080 0400 0000 0400 0080 0400 0080
000000f0: 0000 0000 0000 0000 0000 0000 0000 0000
00000100: 0000 0000 0000 0000 0000 0000 0000 0000
00000110: 0000 0000 0000 0000 0000 0000 0000 0000
00000120: 0000 0000 0000 0000 0000 0000 0000 0000
00000130: 0000 0000 0000 0000 0000 0000 0000 0000
00000140: 0000 0000 0000 0000 0000 0000 0000 0000
00000150: 0000 0000 0000 0000 0000 0000 0000 0000
00000160: 0000 0000 0000 0000 0000 0000 0000 0000
00000170: 0000 0000 0000 0000 0000 0000 0000 0000
00000180: 0000 0000 0000 0000 0000 0000 0000 0000
0.0 0.0 0.0 0.0 0.0 0.0 0.0 0.0
0.0 0.0 0.0 0.0 0.0 0.0 0.0 0.0
0.0 0.0 0.0 0.0 0.0 0.0 0.0 0.0
0.0 0.0 0.0 0.0 0.0 0.0 0.0 0.0
0.0 0.0 0.0 0.0 0.0 0.0 0.0 0.0
0.0 0.0 0.0 0.0 0.0 0.0 0.0 0.0
0.0 0.0 -6e-45 -6e-45 6e-45 -6e-45 6e-45 6e-45
-6e-45 6e-45 -6e-45 -6e-45 0.0 0.0 0.0 0.0
0.0 0.0 0.0 0.0 0.0 0.0 0.0 0.0
0.0 0.0 0.0 0.0 0.0 0.0 0.0 0.0
0.0 0.0 0.0 0.0 0.0 0.0 0.0 0.0
0.0 0.0 0.0 0.0 0.0 0.0 0.0 0.0
0.0 0.0 0.0 0.0

exp_avg_sq f4 [10, 10]
00000000: 0000 0000 0000 0000 0000 0000 0000 0000
00000010: 0000 0000 0000 0000 0000 0000 0000 0000
00000020: 0000 0000 0000 0000 0000 0000 0000 0000
00000030: 0000 0000 0000 0000 0000 0000 0000 0000
00000040: 0000 0000 0000 0000 0000 0000 0000 0000
00000050: 0000 0000 0000 0000 0000 0000 0000 0000
00000060: 0000 0000 0000 0000 0000 0000 0000 0000
00000070: 0000 0000 0000 0000 0000 0000 0000 0000
00000080: 0000 0000 0000 0000 0000 0000 0000 0000
00000090: 0000 0000 0000 0000 0000 0000 0000 0000
000000a0: 0000 0000 0000 0000 0000 0000 0000 0000
000000b0: 0000 0000 0000 0000 0000 0000 0000 0000
000000c0: 0000 0000 0000 0000 faa6 a62d faa6 a62d
000000d0: faa6 a62d faa6 a62d faa6 a62d faa6 a62d
000000e0: faa6 a62d faa6 a62d faa6 a62d faa6 a62d
000000f0: 0000 0000 0000 0000 0000 0000 0000 0000
00000100: 0000 0000 0000 0000 0000 0000 0000 0000
00000110: 0000 0000 0000 0000 0000 0000 0000 0000
00000120: 0000 0000 0000 0000 0000 0000 0000 0000
00000130: 0000 0000 0000 0000 0000 0000 0000 0000
00000140: 0000 0000 0000 0000 0000 0000 0000 0000
00000150: 0000 0000 0000 0000 0000 0000 0000 0000
00000160: 0000 0000 0000 0000 0000 0000 0000 0000
00000170: 0000 0000 0000 0000 0000 0000 0000 0000
00000180: 0000 0000 0000 0000 0000 0000 0000 0000
0.0 0.0 0.0 0.0 0.0 0.0 0.0 0.0
0.0 0.0 0.0 0.0 0.0 0.0 0.0 0.0
0.0 0.0 0.0 0.0 0.0 0.0 0.0 0.0
0.0 0.0 0.0 0.0 0.0 0.0 0.0 0.0
0.0 0.0 0.0 0.0 0.0 0.0 0.0 0.0
0.0 0.0 0.0 0.0 0.0 0.0 0.0 0.0
0.0 0.0 1.8946168e-11 1.8946168e-11 1.8946168e-11 1.8946168e-11 1.8946168e-11 1.8946168e-11
1.8946168e-11 1.8946168e-11 1.8946168e-11 1.8946168e-11 0.0 0.0 0.0 0.0
0.0 0.0 0.0 0.0 0.0 0.0 0.0 0.0
0.0 0.0 0.0 0.0 0.0 0.0 0.0 0.0
0.0 0.0 0.0 0.0 0.0 0.0 0.0 0.0
0.0 0.0 0.0 0.0 0.0 0.0 0.0 0.0
0.0 0.0 0.0 0.0

exp_avg f4 [10]
00000000: 0000 0000 0000 0000 0000 0000 0000 0000
00000010: 0000 0000 0400 0000 0000 0000 0000 0000
00000020: 0000 0000 0000 0000
0.0 0.0 0.0 0.0 0.0 6e-45 0.0 0.0
0.0 0.0

exp_avg_sq f4 [10]
00000000: 0000 0000 0000 0000 0000 0000 0000 0000
00000010: 0000 0000 faa6 a62d 0000 0000 0000 0000
00000020: 0000 0000 0000 0000
0.0 0.0 0.0 0.0 0.0 1.8946168e-11 0.0 0.0
0.0 0.0

exp_avg f4 [10]
00000000: 0000 0000 0000 0000 0000 0000 0000 0000
00000010: 0000 0000 0400 0000 0000 0000 0000 0000
00000020: 0000 0000 0000 0000
0.0 0.0 0.0 0.0 0.0 6e-45 0.0 0.0
0.0 0.0

exp_avg_sq f4 [10]
00000000: 0000 0000 0000 0000 0000 0000 0000 0000
00000010: 0000 0000 faa6 a62d 0000 0000 0000 0000
00000020: 0000 0000 0000 0000
0.0 0.0 0.0 0.0 0.0 1.8946168e-11 0.0 0.0
0.0 0.0

exp_avg f4 [10, 10]
00000000: 083e 3526 083e 3526 083e 35a6 083e 3526
00000010: 083e 35a6 083e 3526 083e 3526 083e 35a6
00000020: 083e 3526 083e 3526 7104 01c3 7104 01c3
00000030: 7104 0143 7104 01c3 7104 0143 7104 01c3
00000040: 7104 01c3 7104 0143 7104 01c3 7104 01c3
00000050: 23a8 cd42 23a8 cd42 23a8 cdc2 23a8 cd42
00000060: 23a8 cdc2 23a8 cd42 23a8 cd42 23a8 cdc2
00000070: 23a8 cd42 23a8 cd42 4deb 64c2 4deb 64c2
00000080: 4deb 6442 4deb 64c2 4deb 6442 4deb 64c2
00000090: 4deb 64c2 4deb 6442 4deb 64c2 4deb 64c2
000000a0: 7402 66c2 7402 66c2 7402 6642 7402 66c2
000000b0: 7402 6642 7402 66c2 7402 66c2 7402 6642
000000c0: 7402 66c2 7402 66c2 f651 01c3 f651 01c3
000000d0: f651 0143 f651 01c3 f651 0143 f651 01c3
000000e0: f651 01c3 f651 0143 f651 01c3 f651 01c3
000000f0: 14c7 d8a5 14c7 d8a5 14c7 d825 14c7 d8a5
00000100: 14c7 d825 14c7 d8a5 14c7 d8a5 14c7 d825
00000110: 14c7 d8a5 14c7 d8a5 703f d5c2 703f d5c2
00000120: 703f d542 703f d5c2 703f d542 703f d5c2
00000130: 703f d5c2 703f d542 703f d5c2 703f d5c2
00000140: 9250 a9bd 9250 a9bd 9250 a93d 9250 a9bd
00000150: 9250 a93d 9250 a9bd 9250 a9bd 9250 a93d
00000160: 9250 a9bd 9250 a9bd e85f c9c2 e85f c9c2
00000170: e85f c942 e85f c9c2 e85f c942 e85f c9c2
00000180: e85f c9c2 e85f c942 e85f c9c2 e85f c9c2
6.288106e-16 6.288106e-16 -6.288106e-16 6.288106e-16 -6.288106e-16 6.288106e-16 6.288106e-16 -6.288106e-16
6.288106e-16 6.288106e-16 -129.01735 -129.01735 129.01735 -129.01735 129.01735 -129.01735
-129.01735 129.01735 -129.01735 -129.01735 102.82839 102.82839 -102.82839 102.82839
-102.82839 102.82839 102.82839 -102.82839 102.82839 102.82839 -57.229786 -57.229786
57.229786 -57.229786 57.229786 -57.229786 -57.229786 57.229786 -57.229786 -57.229786
-57.502396 -57.502396 57.502396 -57.502396 57.502396 -57.502396 -57.502396 57.502396
-57.502396 -57.502396 -129.32016 -129.32016 129.32016 -129.32016 129.32016 -129.32016
-129.32016 129.32016 -129.32016 -129.32016 -3.7604928e-16 -3.7604928e-16 3.7604928e-16 -3.7604928e-16
3.7604928e-16 -3.7604928e-16 -3.7604928e-16 3.7604928e-16 -3.7604928e-16 -3.7604928e-16 -106.6239 -106.6239
106.6239 -106.6239 106.6239 -106.6239 -106.6239 106.6239 -106.6239 -106.6239
-0.08267321 -0.08267321 0.08267321 -0.08267321 0.08267321 -0.08267321 -0.08267321 0.08267321
-0.08267321 -0.08267321 -100.68732 -100.68732 100.68732 -100.68732 100.68732 -100.68732
-100.68732 100.68732 -100.68732 -100.68732

exp_avg_sq f4 [10, 10]
00000000: 938e 1849 938e 1849 938e 1849 938e 1849
00000010: 938e 1849 938e 1849 938e 1849 938e 1849
00000020: 938e 1849 938e 1849 2235 6a4c 2235 6a4c
00000030: 2235 6a4c 2235 6a4c 2235 6a4c 2235 6a4c
00000040: 2235 6a4c 2235 6a4c 2235 6a4c 2235 6a4c
00000050: d502 3e4b d502 3e4b d502 3e4b d502 3e4b
00000060: d502 3e4b d502 3e4b d502 3e4b d502 3e4b
00000070: d502 3e4b d502 3e4b 0260 844d 0260 844d
00000080: 0260 844d 0260 844d 0260 844d 0260 844d
00000090: 0260 844d 0260 844d 0260 844d 0260 844d
000000a0: 266f 324b 266f 324b 266f 324b 266f 324b
000000b0: 266f 324b 266f 324b 266f 324b 266f 324b
000000c0: 266f 324b 266f 324b 8063 f64b 8063 f64b
000000d0: 8063 f64b 8063 f64b 8063 f64b 8063 f64b
000000e0: 8063 f64b 8063 f64b 8063 f64b 8063 f64b
000000f0: 4307 c347 4307 c347 4307 c347 4307 c347
00000100: 4307 c347 4307 c347 4307 c347 4307 c347
00000110: 4307 c347 4307 c347 1b1d a14c 1b1d a14c
00000120: 1b1d a14c 1b1d a14c 1b1d a14c 1b1d a14c
00000130: 1b1d a14c 1b1d a14c 1b1d a14c 1b1d a14c
00000140: 1513 dc4c 1513 dc4c 1513 dc4c 1513 dc4c
00000150: 1513 dc4c 1513 dc4c 1513 dc4c 1513 dc4c
00000160: 1513 dc4c 1513 dc4c c6bc 9f4a c6bc 9f4a
00000170: c6bc 9f4a c6bc 9f4a c6bc 9f4a c6bc 9f4a
00000180: c6bc 9f4a c6bc 9f4a c6bc 9f4a c6bc 9f4a
624873.2 624873.2 624873.2 624873.2 624873.2 624873.2 624873.2 624873.2
624873.2 624873.2 6.1396104e+07 6.1396104e+07 6.1396104e+07 6.1396104e+07 6.1396104e+07 6.1396104e+07
6.1396104e+07 6.1396104e+07 6.1396104e+07 6.1396104e+07 1.2452565e+07 1.2452565e+07 1.2452565e+07 1.2452565e+07
1.2452565e+07 1.2452565e+07 1.2452565e+07 1.2452565e+07 1.2452565e+07 1.2452565e+07 2.7761056e+08 2.7761056e+08
2.7761056e+08 2.7761056e+08 2.7761056e+08 2.7761056e+08 2.7761056e+08 2.7761056e+08 2.7761056e+08 2.7761056e+08
1.1693862e+07 1.1693862e+07 1.1693862e+07 1.1693862e+07 1.1693862e+07 1.1693862e+07 1.1693862e+07 1.1693862e+07
1.1693862e+07 1.1693862e+07 3.2294656e+07 3.2294656e+07 3.2294656e+07 3.2294656e+07 3.2294656e+07 3.2294656e+07
3.2294656e+07 3.2294656e+07 3.2294656e+07 3.2294656e+07 99854.52 99854.52 99854.52 99854.52
99854.52 99854.52 99854.52 99854.52 99854.52 99854.52 8.4469976e+07 8.4469976e+07
8.4469976e+07 8.4469976e+07 8.4469976e+07 8.4469976e+07 8.4469976e+07 8.4469976e+07 8.4469976e+07 8.4469976e+07
1.1538244e+08 1.1538244e+08 1.1538244e+08 1.1538244e+08 1.1538244e+08 1.1538244e+08 1.1538244e+08 1.1538244e+08
1.1538244e+08 1.1538244e+08 5.234275e+06 5.234275e+06 5.234275e+06 5.234275e+06 5.234275e+06 5.234275e+06
5.234275e+06 5.234275e+06 5.234275e+06 5.234275e+06

exp_avg f4 [10, 10]
00000000: 4815 e721 8c4d e421 91b8 e6a1 a8be e6a1
00000010: 87e9 e121 8cba e621 6c18 e7a1 60e2 e521
00000020: f917 e721 e615 e721 7104 01c3 00da 00c3
00000030: e4d4 0043 8cfb 00c3 eefa 00c3 bcf0 00c3
00000040: 7104 0143 d3e7 00c3 6504 01c3 16f4 00c3
00000050: 23a8 cd42 7064 cd42 435c cdc2 f399 cd42
00000060: f898 cd42 b588 cd42 23a8 cdc2 7d7a cd42
00000070: 11a8 cd42 0c8e cd42 4deb 64c2 d89f 64c2
00000080: b196 6442 7ddb 64c2 63da 64c2 44c8 64c2
00000090: 4deb 6442 6ab8 64c2 36eb 64c2 36ce 64c2
000000a0: 7402 66c2 dab6 65c2 b6ad 6542 99f2 65c2
000000b0: 82f1 65c2 5adf 65c2 7402 6642 78cf 65c2
000000c0: 5a02 66c2 50e5 65c2 f651 01c3 7827 01c3
000000d0: 5822 0143 0b49 01c3 7048 01c3 3a3e 01c3
000000e0: f651 0143 4f35 01c3 e951 01c3 9341 01c3
000000f0: 5ab5 eda2 1cd9 eaa2 f255 ed22 2e5c ed22
00000100: 8c63 e8a2 eb57 eda2 7db8 ed22 8b79 eca2
00000110: 0db8 eda2 dbb5 eda2 703f d5c2 52f9 d4c2
00000120: dcf0 d442 ba30 d5c2 b72f d5c2 df1e d5c2
00000130: 703f d542 2610 d5c2 593f d5c2 6924 d5c2
00000140: 9250 a9bd 2518 a9bd 4e11 a93d d144 a9bd
00000150: f343 a9bd 6736 a9bd 9250 a93d 8c2a a9bd
00000160: 8350 a9bd da3a a9bd e85f c9c2 bb1d c9c2
00000170: c015 c942 0652 c9c2 1351 c9c2 2b41 c9c2
00000180: e85f c942 4933 c9c2 d65f c9c2 6746 c9c2
1.5658802e-18 1.5470407e-18 -1.5634261e-18 -1.5635873e-18 1.5308407e-18 1.5634785e-18 -1.5659633e-18 1.5577565e-18
1.5659514e-18 1.5658965e-18 -129.01735 -128.85156 128.8316 -128.9826 -128.9802 -128.94037
129.01735 -128.90556 -129.01717 -128.95346 102.82839 102.69617 -102.6802 102.80068
102.79877 102.767006 -102.82839 102.739235 102.828255 102.777435 -57.229786 -57.156097
57.14716 -57.214344 -57.21327 -57.19557 57.229786 -57.18009 -57.2297 -57.201378
-57.502396 -57.428566 57.41964 -57.48691 -57.485847 -57.468117 57.502396 -57.452606
-57.502296 -57.473938 -129.32016 -129.15417 129.13416 -129.28532 -129.28296 -129.24307
129.32016 -129.20824 -129.31996 -129.25615 -6.4430992e-18 -6.36557e-18 6.4329977e-18 6.4336578e-18
-6.2989125e-18 -6.4332065e-18 6.4434313e-18 -6.4096617e-18 -6.443385e-18 -6.4431526e-18 -106.6239 -106.48695
106.47043 -106.59517 -106.59319 -106.560295 106.6239 -106.53154 -106.623726 -106.57111
-0.08267321 -0.08256558 0.08255254 -0.08265079 -0.082649134 -0.082623295 0.08267321 -0.08260068
-0.082673095 -0.08263178 -100.68732 -100.55807 100.54248 -100.6602 -100.65835 -100.62728
100.68732 -100.60017 -100.68718 -100.637505

exp_avg_sq f4 [10, 10]
00000000: cc62 b548 8d40 1649 300d 1849 4eaf 1249
00000010: 240f 1849 a026 1749 b2e3 1549 3def 1749
00000020: 4137 1749 33e5 1749 7c8d 5f49 8220 2249
00000030: 817a 2249 77db 5349 e387 3f49 9abd 4149
00000040: b648 5f49 846a 2b49 35a5 2949 51a0 3d49
00000050: 04df 8049 9ea0 3b49 ce1e 3149 8eff 7349
00000060: 9b25 6449 e6ea 6749 472e 7949 7309 4849
00000070: ca04 4d49 e926 5d49 f4a0 ea49 8e9b de49
00000080: 9154 e849 1d03 1949 2a32 ea49 3bba e749
00000090: 4997 d449 c3a3 d549 41e8 e749 82a9 ea49
000000a0: fad2 cd48 80aa 9248 6344 8748 926f bc48
000000b0: 6e3d 6748 c03e 9e48 1e55 c848 ac16 a148
000000c0: a2fe 7948 9953 9348 f9dc a449 fcee 9549
000000d0: 133a 9449 533f a349 b029 8849 f5d9 8049
000000e0: 49fd a349 d6e2 9649 9625 9149 eeed 6949
000000f0: 6053 b447 a782 b147 5b52 b547 0761 b746
00000100: 7613 b147 936e af47 9f86 2f47 be03 b947
00000110: e1f5 b547 cd67 b147 527f 3e49 6d80 0c49
00000120: f899 0b49 7e9e 2349 76db 1549 942f 1449
00000130: 28f9 3d49 2acd 0749 b584 0b49 0e8b 0e49
00000140: 86e4 f44a 24ed ed4a f855 ef4a e4b2 f04a
00000150: 8aa0 f14a 4ac7 f14a 4943 f44a 1c33 f04a
00000160: fde7 864a 5b22 f14a 1099 aa49 dd5d 9b49
00000170: 36d5 9649 88bc a549 f1ce 8b49 5bc6 8749
00000180: 975b a649 6614 9c49 5fa7 9449 9249 7349
371478.38 615432.8 622803.0 600820.9 622834.25 619114.0 613947.1 622323.8
619380.06 622163.2 915671.75 664072.1 665512.06 867767.44 784510.2 793561.6
914571.4 702120.25 694867.3 776709.06 1.0557125e+06 768521.9 725484.9 999416.9
934489.7 949934.4 1.02064444e+06 819351.2 839756.6 905838.56 1.9220785e+06 1.8236018e+06
1.9032501e+06 626737.8 1.9185332e+06 1.8983114e+06 1.7415451e+06 1.7501364e+06 1.8997841e+06 1.9223522e+06
421527.8 300372.0 277027.1 385916.56 236789.72 324086.0 410280.94 329909.38
255994.53 301724.78 1.3505591e+06 1.2282555e+06 1.2142744e+06 1.3373224e+06 1.115446e+06 1.0555506e+06
1.3434011e+06 1.2360588e+06 1.1890428e+06 958174.9 92326.75 90885.305 92836.71 23472.514
90662.92 89821.15 44934.62 94727.484 93163.76 90831.6 780277.1 575494.8
571807.5 670183.9 613815.4 606969.25 778130.5 556242.6 571467.3 583856.9
8.024643e+06 7.79637e+06 7.842556e+06 7.887218e+06 7.917637e+06 7.922597e+06 8.0040045e+06 7.870862e+06
4.4206065e+06 7.9014855e+06 1.397538e+06 1.2727636e+06 1.2356228e+06 1.357713e+06 1.1453101e+06 1.1122674e+06
1.3628029e+06 1.2786048e+06 1.2177719e+06 996505.1

exp_avg f4 [10]
00000000: 083e 35a6 7104 0143 23a8 cdc2 4deb 6442
00000010: 7402 6642 f651 0143 14c7 d825 703f d542
00000020: 9250 a93d e85f c942
-6.288106e-16 129.01735 -102.82839 57.229786 57.502396 129.32016 3.7604928e-16 106.6239
0.08267321 100.68732

exp_avg_sq f4 [10]
00000000: 938e 1849 2235 6a4c d502 3e4b 0260 844d
00000010: 266f 324b 8063 f64b 4307 c347 1b1d a14c
00000020: 1513 dc4c c6bc 9f4a
624873.2 6.1396104e+07 1.2452565e+07 2.7761056e+08 1.1693862e+07 3.2294656e+07 99854.52 8.4469976e+07
1.1538244e+08 5.234275e+06

exp_avg f4 [10]
00000000: 083e 35a6 7104 0143 23a8 cdc2 4deb 6442
00000010: 7402 6642 f651 0143 14c7 d825 703f d542
00000020: 9250 a93d e85f c942
-6.288106e-16 129.01735 -102.82839 57.229786 57.502396 129.32016 3.7604928e-16 106.6239
0.08267321 100.68732

exp_avg_sq f4 [10]
00000000: 938e 1849 2235 6a4c d502 3e4b 0260 844d
00000010: 266f 324b 8063 f64b 4307 c347 1b1d a14c
00000020: 1513 dc4c c6bc 9f4a
624873.2 6.1396104e+07 1.2452565e+07 2.7761056e+08 1.1693862e+07 3.2294656e+07 99854.52 8.4469976e+07
1.1538244e+08 5.234275e+06

exp_avg f4 [20, 10]
00000000: 953f fd45 d4ed fc45 9de3 fcc5 332e fd45
00000010: 2b2d fd45 8619 fd45 953f fdc5 5708 fd45
00000020: 7b3f fd45 fc1f fd45 1f00 0000 1d00 0000
00000030: 1e00 0080 1f00 0080 1f00 0080 1f00 0080
00000040: 1f00 0000 1c00 0000 1f00 0000 1f00 0080
00000050: f794 ff8c 0fd5 748d 4617 770d a029 618d
00000060: c317 778d 9937 758d 48f0 6f0d 39c8 768d
00000070: fb03 778d 48a8 768d 3100 0000 2c00 0000
00000080: 2f00 0080 3100 0080 3100 0080 3100 0080
00000090: 3100 0000 2c00 0000 3100 0000 3100 0080
000000a0: da24 0e46 f6f6 0d46 3af1 0dc6 181b 0e46
000000b0: 821a 0e46 7e0f 0e46 da24 0ec6 d605 0e46
000000c0: cb24 0e46 1f13 0e46 2800 0000 2600 0000
000000d0: 2800 0080 2800 0080 2800 0080 2800 0080
000000e0: 2800 0000 2400 0000 2800 0000 2800 0080
000000f0: 3100 0000 2c00 0000 2f00 0080 3100 0080
00000100: 3100 0080 3100 0080 3100 0000 2c00 0000
00000110: 3100 0000 3100 0080 0e42 1346 8612 1346
00000120: 940c 13c6 f337 1346 5937 1346 ef2b 1346
00000130: 0e42 13c6 ed21 1346 0042 1346 af2f 1346
00000140: 2c00 0000 2a00 0000 2c00 0080 2c00 0080
00000150: 2c00 0080 2c00 0080 2c00 0000 2800 0000
00000160: 2c00 0000 2c00 0080 eae9 0046 49c0 0046
00000170: 17bb 00c6 0fe1 0046 88e0 0046 8bd6 0046
00000180: eae9 00c6 c9cd 0046 dce9 0046 d4d9 0046
00000190: 3500 0000 3100 0000 3100 0080 3400 0080
000001a0: 3400 0080 3500 0080 3500 0000 2f00 0000
000001b0: 3400 0000 3500 0080 f12a 7246 aedc 7146
000001c0: e5d2 71c6 4e1a 7246 4f19 7246 8806 7246
000001d0: f12a 72c6 12f6 7146 da2a 7246 b60c 7246
000001e0: 35e2 8946 a4b5 8946 0fb0 89c6 bed8 8946
000001f0: 2cd8 8946 77cd 8946 35e2 89c6 17c4 8946
00000200: 28e2 8946 fdd0 8946 3438 0946 e80b 0946
00000210: 5e06 09c6 c92e 0946 392e 0946 9823 0946
00000220: 3438 09c6 461a 0946 2738 0946 1627 0946
00000230: 2c00 0000 2800 0000 2800 0080 2b00 0080
00000240: 2c00 0080 2c00 0080 2c00 0000 2600 0000
00000250: 2b00 0000 2c00 0080 2400 0000 2000 0000
00000260: 2200 0080 2400 0080 2400 0080 2400 0080
00000270: 2400 0000 2000 0000 2400 0000 2400 0080
00000280: 3300 0000 3000 0000 3100 0080 3100 0080
00000290: 3300 0080 3300 0080 3300 0000 2c00 0000
000002a0: 3100 0000 3300 0080 229f 0646 ac73 0646
000002b0: 3f6e 06c6 e595 0646 5895 0646 e88a 0646
000002c0: 229f 06c6 c281 0646 159f 0646 578e 0646
000002d0: 2594 0546 0469 0546 a263 05c6 fa8a 0546
000002e0: 6f8a 0546 1580 0546 2594 05c6 0177 0546
000002f0: 1994 0546 7b83 0546 2c00 0000 2900 0000
00000300: 2a00 0080 2c00 0080 2c00 0080 2c00 0080
00000310: 2c00 0000 2800 0000 2c00 0000 2c00 0080
8103.9478 8093.7285 -8092.4517 8101.775 8101.646 8099.1904 -8103.9478 8097.0425
8103.935 8099.998 4.3e-44 4e-44 -4.2e-44 -4.3e-44 -4.3e-44 -4.3e-44
4.3e-44 3.9e-44 4.3e-44 -4.3e-44 -3.9378626e-31 -7.5444765e-31 7.6140766e-31 -6.938358e-31
-7.6141354e-31 -7.5563377e-31 7.393679e-31 -7.604561e-31 -7.6117543e-31 -7.6007164e-31 6.9e-44 6.2e-44
-6.6e-44 -6.9e-44 -6.9e-44 -6.9e-44 6.9e-44 6.2e-44 6.9e-44 -6.9e-44
9097.213 9085.74 -9084.307 9094.773 9094.627 9091.873 -9097.213 9089.459
9097.198 9092.78 5.6e-44 5.3e-44 -5.6e-44 -5.6e-44 -5.6e-44 -5.6e-44
5.6e-44 5e-44 5.6e-44 -5.6e-44 6.9e-44 6.2e-44 -6.6e-44 -6.9e-44
-6.9e-44 -6.9e-44 6.9e-44 6.2e-44 6.9e-44 -6.9e-44 9424.514 9412.631
-9411.145 9421.987 9421.837 9418.983 -9424.514 9416.481 9424.5 9419.921
6.2e-44 5.9e-44 -6.2e-44 -6.2e-44 -6.2e-44 -6.2e-44 6.2e-44 5.6e-44
6.2e-44 -6.2e-44 8250.479 8240.071 -8238.772 8248.265 8248.133 8245.636
-8250.479 8243.446 8250.465 8246.457 7.4e-44 6.9e-44 -6.9e-44 -7.3e-44
-7.3e-44 -7.4e-44 7.4e-44 6.6e-44 7.3e-44 -7.4e-44 15498.735 15479.17
-15476.724 15494.576 15494.327 15489.633 -15498.735 15485.518 15498.713 15491.178
17649.104 17626.82 -17624.03 17644.371 17644.086 17638.732 -17649.104 17634.045
17649.078 17640.494 8782.051 8770.977 -8769.592 8779.696 8779.556 8776.898
-8782.051 8774.568 8782.038 8777.771 6.2e-44 5.6e-44 -5.6e-44 -6e-44
-6.2e-44 -6.2e-44 6.2e-44 5.3e-44 6e-44 -6.2e-44 5e-44 4.5e-44
-4.8e-44 -5e-44 -5e-44 -5e-44 5e-44 4.5e-44 5e-44 -5e-44
7.1e-44 6.7e-44 -6.9e-44 -6.9e-44 -7.1e-44 -7.1e-44 7.1e-44 6.2e-44
6.9e-44 -7.1e-44 8615.783 8604.918 -8603.562 8613.474 8613.336 8610.727
-8615.783 8608.439 8615.7705 8611.585 8549.036 8538.254 -8536.908 8546.744
8546.608 8544.0205 -8549.036 8541.751 8549.024 8544.87 6.2e-44 5.7e-44
-5.9e-44 -6.2e-44 -6.2e-44 -6.2e-44 6.2e-44 5.6e-44 6.2e-44 -6.2e-44
